client/model.pth (torch, 74932 bytes, 5 tensors)

weight f4 [100, 125]
-0.017418103 0.084240705 0.034146473 0.020208577 -0.044245265 -0.03129668 -0.031563487 0.00799022
0.07213876 -0.086302064 -0.031745594 -0.018995708 -0.049346264 0.0755229 0.05077016 -0.021320842
-0.07818842 -0.051420163 -0.034620434 -0.034513935 0.0533167 0.00059230026 -0.032429233 -0.052817587
0.0107984245 -0.08018355 -0.05970768 -0.06478175 -0.032803766 -0.085735716 0.057921953 0.008464273
-0.059954204 -0.030663524 -0.010005613 -0.002909057 -0.054979388 -0.0058655497 0.02611791 -0.044586714
0.049577586 0.07907294 -0.034284003 0.05989683 -0.013675664 -0.05951373 -0.043322287 0.04670025
-0.08383277 -0.045049522 0.0032827258 -0.032976802 0.012855858 0.059131585 -0.08038138 -0.07238055
-0.027186094 -0.08833868 -0.076383494 -0.07241495 -0.050520584 0.0045436346 -0.044790123 -0.059236508
-0.07869883 -0.07512001 -0.07064059 0.0019346495 -0.034113668 -0.020748926 -0.014418514 0.066612676
0.030387083 -0.088588364 -0.082538776 -0.002961411 -0.018276695 0.025037404 0.04733383 0.08102708
0.037899565 -0.030433387 0.020975487 -0.020312348 0.055289634 -0.0641367 -0.07035992 -0.087797895
-0.075135395 0.018489748 0.04682104 -0.061200574 0.083626695 0.042899165 -0.06493438 -0.080541424
-0.06935692 -0.08804611 0.0010979027 -0.027595276 0.031205503 -0.066654705 0.008293446 -0.01120704
-0.049355976 0.0559103 0.0735352 -0.025756415 -0.033383694 0.011500371 -0.04769216 -0.054869086
-0.034828797 -0.053609356 -0.06128393 0.016046176 -0.015116161 0.014943435 -0.022707038 -0.035553165
-0.0074745817 -0.06422689 0.02472912 0.097541176 0.08591226 0.06608248 0.03434925 0.058004025
0.03186268 0.05946833 -0.055377256 -0.0033156965 0.009634819 -0.08105815 -0.07467241 0.054868814
0.01607849 0.004296586 -0.02012437 -0.081380144 -0.033671327 -0.070043765 0.034328796 -0.015802478
-0.038946383 -0.059427276 -0.044197045 0.05599273 0.067646496 0.023522614 0.07272474 -0.0098110875
0.0763641 -0.017400607 -0.03616691 0.044090673 0.0063509084 -0.05943414 -0.018193344 0.070468955
0.03425892 0.036503747 -0.074931264 -0.01017838 0.034525447 0.07055228 0.040049314 -0.03215243
0.09175777 -0.024490565 -0.057933133 0.070862286 -0.024612565 -0.057954554 -0.05336158 0.08780146
-0.0060192365 -0.052271977 0.047315415 0.07884586 0.031746067 0.063242786 -0.06875773 -0.0059803408
-0.0067058727 -0.045389768 -0.017278662 0.027525868 0.07052563 -0.014669643 0.063879415 -0.0033393952
-0.050204583 0.013950023 -0.07752691 0.05615696 0.08744024 -0.05935692 -0.0026812518 0.03799339
-0.048105255 0.019167725 -0.0745336 0.046755683 0.012851737 0.06001897 -0.09031331 -0.03577679
0.060442057 -0.02104216 -0.060002178 -0.01767008 0.048449703 -0.08184156 -0.03866855 0.04186048
-0.06917184 -0.057467677 0.10873312 -0.037338912 0.0067523355 -0.022629768 0.06467452 0.073551714
0.038921297 0.04128306 0.034572404 0.03708697 -0.0072216596 -0.051491197 -0.07009211 0.044444818
0.02819597 -0.0013759857 -0.07901331 0.09103038 -0.034023624 -0.04335756 -0.0035048688 0.0597829
-0.0821041 -0.08517732 -0.07578342 -0.06773276 0.10192153 0.040654644 -0.036279254 0.035060246
-0.044432033 0.073403984 -0.03251017 0.058081508 -0.10065126 0.02924297 -0.024136165 -0.087756604
00000000: 69b0 8ebc 6486 ac3d 2cdd 0b3d 758c a53c
00000010: 863a 35bd f330 00bd b748 01bd 69e9 023c
00000020: 7cbd 933d 23bf b0bd ab07 02bd e39c 9bbc
00000030: 4f1f 4abd c0ab 9a3d 5ff4 4f3d 0ca9 aebc
00000040: 4021 a0bd f39d 52bd 28ce 0dbd 7c5e 0dbd
00000050: 9d62 5a3d 9944 1b3a 84d4 04bd 4157 58bd
00000060: e0eb 303c 4637 a4bd 0a90 74bd 4bac 84bd
00000070: 3e5d 06bd 3596 afbd 923f 6d3d bcad 0a3c
00000080: 8a92 75bd 1232 fbbc 95ee 23bc e1a5 3ebb
00000090: 1132 61bd cc33 c0bb 3af5 d53c 8fa0 36bd
000000a0: de11 4b3d fef0 a13d 626d 0cbd 6156 753d
000000b0: e40f 60bc abc4 73bd b672 31bd c348 3f3d
000000c0: 84b0 abbd d985 38bd 0023 573b af12 07bd
000000d0: 60a1 523c f633 723d fe9e a4bd 413c 94bd
000000e0: 5fb5 debc e9ea b4bd f36e 9cbd 4a4e 94bd
000000f0: acee 4ebd c5e2 943b d975 37bd fba1 72bd
00000100: da2c a1bd 85d8 99bd 03ac 90bd 1194 fd3a
00000110: c6ba 0bbd a7f9 a9bc a23b 6cbc 3a6c 883d
00000120: 55ee f83c d16d b5bd 170a a9bd 3b14 42bb
00000130: 02b9 95bc 3e1b cd3c 1ee1 413d 87f1 a53d
00000140: 933c 1b3d 704f f9bc c9d4 ab3c 1566 a6bc
00000150: 6277 623d 1a5a 83bd dd18 90bd 62cf b3bd
00000160: 96e0 99bd d077 973c 6bc7 3f3d 74ad 7abd
00000170: 7944 ab3d 09b7 2f3d 51fc 84bd e7f2 a4bd
00000180: 000b 8ebd 8551 b4bd 80e7 8f3a 7d0f e2bc
00000190: afa2 ff3c 4382 88bd 3ce1 073c bc9d 37bc
000001a0: 7e29 4abd 3302 653d 9f99 963d 1eff d2bc
000001b0: 57bd 08bd 0d6c 3c3c db58 43bd 68be 60bd
000001c0: a4a8 0ebd 7c95 5bbd dc04 7bbd 4573 833c
000001d0: c6a9 77bc 4fd5 743c 1c04 babc 32a0 11bd
000001e0: 56ed f4bb 6389 83bd b994 ca3c abc3 c73d
000001f0: c4f2 af3d 4056 873d cdb1 0c3d a195 6d3d
00000200: 7182 023d 1095 733d 43d3 62bd 284c 59bb
00000210: 5cdb 1d3c d101 a6bd d9ed 98bd 1fbe 603d
00000220: 0ab7 833c 60ca 8c3b dddb a4bc a2aa a6bd
00000230: f2ea 09bd 1b73 8fbd 5a9c 0c3d 3374 81bc
00000240: 3e86 1fbd 046a 73bd f607 35bd a258 653d
00000250: 3f8a 8a3d 7fb2 c03c b5f0 943d afbe 20bc
00000260: c864 9c3d b88b 8ebc c123 14bd 6c98 343d
00000270: 481b d03b 3671 73bd 350a 95bc 0752 903d
00000280: 1553 0c3d f484 153d 9075 99bd 38c3 26bc
00000290: 8e6a 0d3d b77d 903d c00a 243d 44b2 03bd
000002a0: 7feb bb3d 70a0 c8bc 4b4b 6dbd 3f20 913d
000002b0: 4aa0 c9bc c161 6dbd ac91 5abd 40d1 b33d
000002c0: 043d c5bb 241b 56bd cfcd 413d f079 a13d
000002d0: 2a08 023d 6f85 813d dad0 8cbd bcf6 c3bb
000002e0: f0bc dbbb 9fea 39bd fb8b 8dbc ee7d e13c
000002f0: be6f 903d f158 70bc 36d3 823d c1d9 5abb
00000300: 52a3 4dbd a38e 643c 6ec6 9ebd d704 663d
00000310: de13 b33d 3e20 73bd f1b7 2fbb f59e 1b3d
00000320: 040a 45bd a205 9d3c 12a5 98bd e382 3f3d
00000330: 1890 523c 74d6 753d 2ff6 b8bd af8a 12bd
00000340: 1792 773d 9c60 acbc d8c4 75bd d8c0 90bc
00000350: 3273 463d 8c9c a7bd ea62 1ebd e575 2b3d
00000360: f7a9 8dbd 3a63 6bbd 78af de3d b0f0 18bd
00000370: b242 dd3b 1062 b9bc 1374 843d 48a2 963d
00000380: f06b 1f3d 6d18 293d cb9b 0d3d 82e8 173d
00000390: aca3 ecbb 6fe8 52bd 748c 8fbd c50b 363d
000003a0: 3cfb e63c 6b5a b4ba bbd1 a1bd 236e ba3d
000003b0: 5b5c 0bbd b297 31bd f1b1 65bb eade 743d
000003c0: 3226 a8bd 7271 aebd 5634 9bbd 79b7 8abd
000003d0: 3cbc d03d 7c85 263d 8e99 14bd 559b 0f3d
000003e0: 5dfe 35bd d454 963d 6229 05bd e0e6 6d3d
000003f0: 3f22 cebd f48e ef3c 35b9 c5bc bcb9 b3bd

bias f4 [100]
-0.07860952 -0.06463556 0.08406532 0.014004259 0.0017977376 0.025501143 0.06822244 -0.025313774
0.06580425 -0.036850616 0.052296594 0.10780571 0.10270291 0.008334571 0.086766645 -0.019978302
0.0042992993 0.12886359 -0.0456435 -0.04631479 0.122567765 -0.02945956 0.03603557 0.09026468
0.09377854 -0.028915578 0.12169822 0.0114245 -0.04231037 0.06276504 0.02789381 -0.018719414
0.11782397 0.13901234 0.059917234 -0.013887649 -0.034424953 -0.107144184 -0.030264731 0.14190844
0.021071414 0.102949694 0.0027631077 0.04384826 -0.0851606 0.0174776 0.123990536 0.116799295
0.08651543 0.063501485 -0.05747618 -0.036709223 0.03315725 0.017310578 0.1075657 0.014910121
0.08711254 -0.016904524 0.067690894 0.122831464 0.07358915 0.010539568 0.07309597 0.07064336
0.0092602195 0.015358766 0.012571502 0.07752662 0.048829105 -0.005978554 0.09590807 0.047297932
0.120883025 0.123310395 0.07531974 -0.0037459072 0.05537689 0.124098614 -0.025487313 -0.011564354
0.103723094 -0.039368555 0.038432855 -0.052441925 -0.043746535 -0.00562362 -0.05443521 -0.02001587
-0.00024529372 0.011437783 0.023370877 0.1254532 -0.012501921 0.10956822 0.08847378 0.047999214
-0.0025620635 0.038466662 -0.01899056 0.06558141
00000000: 07fe a0bd a65f 84bd 702a ac3d 1f72 653c
00000010: 10a2 eb3a c6e7 d03c 35b8 8b3d d55e cfbc
00000020: 61c4 863d acf0 16bd f434 563d 3dc9 dc3d
00000030: e755 d23d b98d 083c b6b2 b13d 89a9 a3bc
00000040: 23e1 8c3b d1f4 033e aef4 3abd 94b4 3dbd
00000050: cf04 fb3d 2d55 f1bc 099a 133d b0dc b83d
00000060: f70e c03d 5de0 ecbc eb3c f93d d32d 3b3c
00000070: a34d 2dbd f58a 803d 8f81 e43c 7559 99bc
00000080: b24d f13d 4059 0e3e c66b 753d 0689 63bc
00000090: 2e01 0dbd 696e dbbd beed f7bc 7250 113e
000000a0: f59d ac3c 4ad7 d23d 4115 353b 3c9a 333d
000000b0: ae68 aebd 2f2d 8f3c c0ee fd3d 7834 ef3d
000000c0: 002f b13d 110d 823d 256c 6bbd 695c 16bd
000000d0: e6cf 073d eace 8d3c 684b dc3d 9549 743c
000000e0: 0f68 b23d 5b7b 8abc 86a1 8a3d 108f fb3d
000000f0: e9b5 963d 27ae 2c3c 57b3 953d 77ad 903d
00000100: 2db8 173c 55a3 7b3c b3f8 4d3c 47c6 9e3d
00000110: 0701 483d bfe7 c3bb 736b c43d 7abb 413d
00000120: 8591 f73d 298a fc3d 3c41 9a3d e57d 75bb
00000130: e1d2 623d 6a27 fe3d c5ca d0bc 6b78 3dbc
00000140: c66c d43d ec40 21bd c56b 1d3d 58cd 56bd
00000150: 912f 33bd 5846 b8bb 74f7 5ebd 52f8 a3bc
00000160: c49a 80b9 8a65 3b3c 4874 bf3c ce76 003e
00000170: dbd4 4cbc 4e65 e03d be31 b53d d39a 443d
00000180: 4be8 27bb 388f 1d3d 1792 9bbc 8c4f 863d

weight f4 [50, 100]
0.019895542 0.055744268 0.044516098 -0.027587986 0.0921575 0.051999055 0.045377273 0.07650248
-0.033318788 -0.0024684994 0.09607878 0.08952923 0.1150583 0.0147121865 -0.03706426 0.094850175
-0.04416572 -0.035871267 -0.03500163 0.008623995 0.03297204 0.05655645 0.10636904 0.045354586
0.10475189 0.0394214 0.04490118 -0.019959323 0.11114196 0.114292786 0.101557955 0.12799734
0.13395253 0.06491787 -0.03054425 0.006741178 0.0129286945 -0.095247276 0.048448257 0.079872474
0.022511438 0.057149272 0.04375319 0.08363917 0.014052863 -0.0057618227 0.08766349 0.13125724
0.13389154 -0.047842737 -0.011759572 0.099925034 0.098753914 0.05798848 0.07147213 -0.01782717
0.10738897 0.10066581 -0.039453667 0.0129589075 -0.046818048 0.09703106 0.040823527 0.08282781
0.08218558 0.1291005 0.10705167 0.098014146 -0.0026421042 0.0102244355 0.02520401 -0.012709526
-0.006730128 0.08512364 0.094540566 0.042324796 -0.008212761 0.07752316 -0.029780861 0.013617442
0.13223717 0.008020841 -0.03919518 -0.049866088 0.013226921 0.0003735298 -0.0043541472 -0.055210944
0.04512654 0.10116396 -0.038683083 -0.015127039 0.025083773 0.051732138 -0.050897468 0.06723517
-0.058497358 -0.01674653 0.13367482 0.10833235 0.07025875 0.029045094 0.029707914 0.0035442603
-0.03247231 0.04461529 -0.030469736 0.061705902 -0.106640205 -0.016084403 -0.11031299 -0.0067704814
0.05429286 0.088252544 -0.09346144 -0.043411147 0.09241692 -0.089731924 -0.011712647 -0.0698127
-0.05564987 -0.0356553 -0.07147859 -0.07564527 -0.09724347 0.090395786 0.072566055 0.029696722
-0.053857103 0.08253332 -0.07415953 -0.07778656 -0.009438132 -0.08652024 0.080931045 -0.04757216
-0.015102307 -0.086760364 0.053197317 -0.11484278 0.032538753 -0.014328771 0.06149661 -0.09548742
-0.06806124 0.030970855 -0.05247977 -0.08707139 0.000116650845 0.0694218 -0.12223606 -0.040885188
0.034041397 0.05765641 0.011383077 -0.009392765 0.0012667007 0.08041852 -0.03134014 0.03852431
0.05980333 0.0717221 -0.049126994 -0.08873975 0.048239637 0.07679592 -0.037929654 0.060201522
-0.046443775 0.07278678 -0.0391053 0.074936226 0.098875925 -0.019630931 0.010847141 0.019935925
-0.06303873 -0.015999934 0.10930793 -0.01600856 0.010796025 -0.09566736 -0.081192 -0.029133944
0.08446387 0.07075325 0.015572995 0.08315351 0.011750921 -0.12227098 0.020980226 -0.08330057
-0.0781534 -0.0032088603 -0.096839584 -0.0042256536 0.022839427 -0.010023593 -0.05952379 -0.029614123
-0.0077283066 -0.06281378 0.1100988 0.042738896 0.13836515 0.06976737 0.067754835 0.099967025
0.06440075 0.068162076 0.0075213546 0.018505022 0.1190217 0.09298833 0.056105927 0.12439493
-0.068859234 0.116327964 -0.09495963 0.10031331 0.0026812616 0.009301802 0.022247693 0.05691837
0.033876047 -0.0787969 -0.05060196 -0.036637828 -0.059255682 0.07020038 -0.04354154 -0.009799257
-0.0030659672 0.12732877 0.105936185 0.09793586 -0.0034872654 0.02305242 -0.028733743 -0.0004924018
-0.043673147 0.13975452 0.04902586 0.06474567 -0.0021856478 -0.0013344769 -0.044895627 0.087848686
0.103349455 0.10345133 0.03430778 0.017162386 0.095766306 0.123444594 0.14425473 0.117139585
00000000: fafb a23c 1a54 643d 8356 363d 3300 e2bc
00000010: 12bd bc3d f6fc 543d 85dd 393d 55ad 9c3d
00000020: 4879 08bd 8cc6 21bb f4c4 c43d 1a5b b73d
00000030: b0a3 eb3d 620b 713c b2d0 17bd cf40 c23d
00000040: 1de7 34bd c0ed 12bd df5d 0fbd a84b 0d3c
00000050: b10d 073d bca7 673d 03d8 d93d bbc5 393d
00000060: 2988 d63d 5578 213d 4dea 373d bc81 a3bc
00000070: 659e e33d 5612 ea3d 9efd cf3d bc11 033e
00000080: da2a 093e a9f3 843d ef37 fabc 1ae5 dc3b
00000090: e0d2 533c 0111 c3bd ae71 463d 2e94 a33d
000000a0: e869 b83c 5b15 6a3d 8c36 333d 034b ab3d
000000b0: fb3d 663c accd bcbb ea88 b33d 4c68 063e
000000c0: dd1a 093e bff6 43bd 38ab 40bc 7fa5 cc3d
000000d0: 7e3f ca3d 5485 6d3d fb5f 923d 490a 92bc
000000e0: c0ee db3d e029 ce3d 2b9a 21bd 9951 543c
000000f0: 48c4 3fbd 38b8 c63d 9236 273d a0a1 a93d
00000100: ea50 a83d ec32 043e e83d db3d a4bb c83d
00000110: 2727 2dbb 6484 273c a478 ce3c 9e3b 50bc
00000120: 6888 dcbb 4e55 ae3d 7c9e c13d c45c 2d3d
00000130: d18e 06bc 76c4 9e3d fef6 f3bc b11b 5f3c
00000140: 2e69 073e d869 033c 208b 20bd 6240 4cbd
00000150: bab5 583c 52d6 c339 3cad 8ebb df24 62bd
00000160: 9bd6 383d 0d2f cf3d 2772 1ebd 66d7 77bc
00000170: 7c7c cd3c 14e5 533d dd79 50bd 98b2 893d
00000180: ed9a 6fbd 0530 89bc 0de2 083e 5add dd3d
00000190: d2e3 8f3d faef ed3c 035e f33c d246 683b
000001a0: af01 05bd 86be 363d ab9b f9bc 54bf 7c3d
000001b0: 2e66 dabd 70c3 83bc c7eb e1bd eada ddbb
000001c0: 3162 5e3d c0bd b43d b668 bfbd e3cf 31bd
000001d0: 1545 bd3d 5fc5 b7bd 67e6 3fbc f6f9 8ebd
000001e0: 1ef1 63bd 4b0b 12bd 5e63 92bd e8eb 9abd
000001f0: 9627 c7bd 6d21 b93d 839d 943d 8a46 f33c
00000200: 4499 5cbd 3b07 a93d f4e0 97bd 8f4e 9fbd
00000210: 65a2 1abc 8631 b1bd 2dbf a53d 06db 42bd
00000220: ab6f 77bc 6baf b1bd 6ee5 593d b132 ebbd
00000230: 5b47 053d 39c3 6abc dfe3 7b3d e98e c3bd
00000240: b163 8bbd 97b6 fd3c 07f5 56bd 7c52 b2bd
00000250: 72a2 f438 042d 8e3d e656 fabd 3a77 27bd
00000260: fe6e 0b3d 2129 6c3d 1680 3a3c 1de4 19bc
00000270: 6c07 a63a 77b2 a43d 855e 00bd abcb 1d3d
00000280: 56f4 743d 09e3 923d 6339 49bd 30bd b5bd
00000290: ed96 453d 2e47 9d3d 205c 1bbd df95 763d
000002a0: d43b 3ebd 3c11 953d e12c 20bd 2a78 993d
000002b0: 767f ca3d 0cd1 a0bc 35b8 313c aa50 a33c
000002c0: 731a 81bd 4b12 83bc d6dc df3d 6224 83bc
000002d0: d0e1 303c 40ed c3bd fe47 a6bd 4faa eebc
000002e0: 65fb ac3d 14e7 903d e025 7f3c 634c aa3d
000002f0: ef86 403c 3569 fabd b9de ab3c 7d99 aabd
00000300: e40e a0bd be4b 52bb d553 c6bd 5a77 8abb
00000310: c019 bb3c ff39 24bc 38cf 73bd 5199 f2bc
00000320: bc3d fdbb 83a4 80bd 7b7b e13d fb0e 2f3d
00000330: 98af 0d3e 32e2 8e3d 0cc3 8a3d 83bb cc3d
00000340: 8ae4 833d 8f98 8b3d b275 f63b d897 973c
00000350: a6c1 f33d aa70 be3d 54cf 653d c5c2 fe3d
00000360: 1206 8dbd 5b3d ee3d 327a c2bd 1171 cd3d
00000370: 1bb8 2f3b 9666 183c cb40 b63c 3d23 693d
00000380: 9cc1 0a3d 4560 a1bd 0044 4fbd 8c11 16bd
00000390: 16b6 72bd 38c5 8f3d 9d58 32bd 108d 20bc
000003a0: 65ee 48bb 7962 023e 12f5 d83d 9992 c83d
000003b0: 9b8a 64bb 6ed8 bc3c 0763 ebbc 8714 01ba
000003c0: 9de2 32bd cf1b 0f3e 57cf 483d 6199 843d
000003d0: 163d 0fbb 9de9 aeba 7ae4 37bd 03ea b33d
000003e0: e1a8 d33d 4ade d33d 5186 0c3d 2298 8c3c
000003f0: 2021 c43d 85d0 fc3d 83b7 133e e1e6 ef3d

bias f4 [50]
0.12282044 0.0028229274 0.037495654 0.019588739 0.028472066 0.10542702 -0.046050716 -0.037213594
-2.7677752e-06 0.13969144 0.12274684 0.0807159 0.031158224 -0.045503564 -0.03961718 -0.077160165
0.016749546 0.08247331 0.044834115 0.036218528 0.022405468 0.070120625 -0.009716804 -0.035474915
0.08166273 0.02796661 0.09733249 0.012946099 0.05910101 -0.08533884 -0.0473489 0.05467867
0.06859493 -0.02319492 0.0027253055 0.1271929 0.02115047 0.053301923 -0.05317035 -0.047454752
0.008680406 0.056332365 0.01975929 0.004610813 -0.09158114 0.09215264 -0.035975274 0.099191494
0.01730929 -0.08416266
00000000: 4889 fb3d dd00 393b 0b95 193d 9078 a03c
00000010: 403e e93c 1fea d73d ad9f 3cbd 486d 18bd
00000020: 04be 39b6 460b 0f3e b262 fb3d 614e a53d
00000030: 883f ff3c f261 3abd a045 22bd 2606 9ebd
00000040: 5836 893c c4e7 a83d faa3 373d e159 143d
00000050: ac8b b73c 679b 8f3d 3b33 1fbc 254e 11bd
00000060: ca3e a73d 3b1a e53c 4256 c73d e01b 543c
00000070: e713 723d 21c6 aebd ecf0 41bd bef6 5f3d
00000080: 807b 8c3d 4603 bebc 0a9b 323b db3e 023e
00000090: c043 ad3c 1e53 5a3d 27c9 59bd ea5f 42bd
000000a0: 4338 0e3c c4bc 663d 3cde a13c 4e16 973b
000000b0: e58e bbbd 86ba bc3d cf5a 13bd e924 cb3d
000000c0: 36cc 8d3c 795d acbd

weight f4 [1, 50]
-0.105753146 0.14599466 -0.19353019 -0.053505376 -0.039719597 -0.092293 0.12251992 -0.18707316
0.058411237 -0.1452661 -0.08602989 0.08564056 0.011985642 0.09203032 0.11481444 0.12504818
-0.047803003 -0.04484984 0.08880347 -0.07467307 -0.16561049 0.13593656 0.097201444 -0.16383706
0.09281344 -0.14097889 0.10863455 -0.08402252 0.14695893 0.046695624 -0.1024846 -0.07455995
-0.14278394 -0.06253596 0.06302396 -0.16941884 0.08309106 -0.035363622 0.03556503 0.13523038
0.103566356 -0.07475246 -0.15203594 0.076672636 0.110821396 -0.07938746 0.04842052 0.037524536
-0.18187003 0.093531385
00000000: 1b95 d8bd a07f 153e c72c 46be 7428 5bbd
00000010: 04b1 22bd 1d04 bdbd b9eb fa3d 1b90 3fbe
00000020: 9f40 6f3d a3c0 14be 7030 b0bd 5164 af3d
00000030: 6d5f 443c 647a bc3d d523 eb3d a10c 003e
00000040: 15cd 43bd 77b4 37bd 98de b53d 32ee 98bd
00000050: cc95 29be f432 0b3e 8d11 c73d e7c4 27be
00000060: f914 be3d c55c 10be ca7b de3d 0014 acbd
00000070: 677c 163e e943 3f3d 72e3 d1bd e3b2 98bd
00000080: f435 12be da12 80bd b512 813d 227c 2dbe
00000090: a52b aa3d 72d9 10bd a3ac 113d d579 0a3e
000000a0: 991a d43d d117 99bd 4faf 1bbe 8b06 9d3d
000000b0: 54f6 e23d e595 a2bd 9854 463d 54b3 193d
000000c0: 233c 3abe 628d bf3d
