client/model.pth (torch, 74932 bytes, 5 tensors)

weight f4 [100, 125]
0	0xbccc9b6c	-0.024976455
1	0xbd99600f	-0.07489025
2	0xbd8882fc	-0.06665608
3	0x3d75e5ed	0.060033727
4	0x3d8b5be0	0.06804633
5	0xbda4775a	-0.08030577
6	0x3d812be3	0.06307199
7	0x3ce75478	0.02823852
8	0xbd6d5e77	-0.057951417
9	0xbd19d5a9	-0.037557278
10	0xbd3dcfec	-0.046340868
11	0xbd2ed28e	-0.04268127
12	0xbce57068	-0.028007701
13	0x3d35424d	0.044252682
14	0xbc1bdc86	-0.009513026
15	0x3db0e0cf	0.08636629
16	0x3daa68ea	0.08320792
17	0x3da67842	0.08128406
18	0xbdbb6e27	-0.09151869
19	0xbd5b4a76	-0.05353781
20	0x3da66f7f	0.08126735
21	0x3d9d75cd	0.07688484
22	0xbd8eee50	-0.06979048
23	0x3cc27fdd	0.02374261
24	0x3d5d1560	0.053975463
25	0x3c56107d	0.013065455
26	0xbd36f2d7	-0.044665184
27	0xbdb4636e	-0.08808027
28	0x3d82ab78	0.06380361
29	0xbd066bd2	-0.03281767
30	0x3be0960e	0.0068538254
31	0x3af5f359	0.001876454
32	0x3d0d3b58	0.034480423
33	0xbd66a888	-0.056313068
34	0x3ca64f7b	0.020301571
35	0xbcb3d007	-0.021949781
36	0x3d00eec2	0.031477697
37	0x3cb8bac1	0.022549989
38	0xbd65f829	-0.056144867
39	0x39e923be	0.00044467853
40	0xbd56c0d1	-0.052429978
41	0xbd7ac20d	-0.061220217
42	0x3d687664	0.05675353
43	0xbc314feb	-0.010822277
44	0xbd08e8e3	-0.033425223
45	0x3ba1465b	0.004921717
46	0x3d2f91dd	0.042863715
47	0xbd412a32	-0.04715938
48	0x3d9b55db	0.07584735
49	0xba410af8	-0.0007364
50	0x3d7b17f6	0.061302148
51	0xbc3bcd63	-0.011462542
52	0xbd784862	-0.060615905
53	0xbc2492b9	-0.010044747
54	0xbd2c79c4	-0.042108312
55	0xbb5ab11f	-0.0033369733
56	0xbdc170d8	-0.09445351
57	0xbc9203b6	-0.017824035
58	0xbd46851e	-0.048466794
59	0xbdb2f085	-0.08737282
60	0xbd3fb92b	-0.04680745
61	0x3d8f4ca8	0.06997043
62	0xbb51f8a2	-0.0032039066
63	0xbd80f2e8	-0.06296331
64	0x3d2eafe2	0.042648204
65	0xbdc1ab99	-0.09456558
66	0xbd94b73a	-0.0726151
67	0xbc991aae	-0.01868948
68	0xbd94a935	-0.07258836
69	0xbd92f331	-0.07175291
70	0x3d7c0e95	0.061537344
71	0x3da1242f	0.078682296
72	0x3c2df4db	0.01061746
73	0xbc4cbd3e	-0.012496291
74	0xbc83ea02	-0.016102795
75	0x3c176e8b	0.009242664
76	0x3d868097	0.06567495
77	0x3d237a4a	0.039911546
78	0x3da6c0fc	0.081422776
79	0xbc954668	-0.018222049
80	0xbc9aa546	-0.018877637
81	0xbdb5abab	-0.08870634
82	0x3d9ed36e	0.07755171
83	0xbcc5f286	-0.024163496
84	0x3d8636bf	0.06553411
85	0x3d44e6e4	0.048071757
86	0x3d7e6db1	0.06211633
87	0xb9d4b900	-0.00040573627
88	0x3cafeaa2	0.021474186
89	0xbd88ba2e	-0.06676136
90	0x3da8739f	0.08225178
91	0xbdc3fa09	-0.09569175
92	0x3d8befc3	0.0683284
93	0x3d833f75	0.06408588
94	0xbd9556ef	-0.07291972
95	0x3d4724dc	0.048619136
96	0xbccdba68	-0.0251133
97	0xbb1768d2	-0.002310325
98	0xbdaebe13	-0.085323475
99	0x3da12b74	0.07869616
100	0x3c5d33f0	0.013501152
101	0xbbb447c3	-0.0055017187
102	0x3d0003f4	0.03125377
103	0xbd4fc125	-0.050721306
104	0xbd0d2611	-0.03446013
105	0xbd7775ce	-0.06041508
106	0xbd2a715f	-0.041612025
107	0x3d76905b	0.06019626
108	0x3d067136	0.03282281
109	0x3d9a0fa4	0.075225145
110	0xbd81d6ce	-0.06339799
111	0x3da7049a	0.081551746
112	0xbd85f054	-0.065399796
113	0x3d3d3cc9	0.046200547
114	0xbcb9ba40	-0.022671819
115	0xbd6587a1	-0.05603755
116	0x3d53cfb7	0.051711764
117	0x3d8b1565	0.0679119
118	0xbd8cc3db	-0.06873294
119	0x3c5c47a1	0.013444812
120	0x3da1d9b7	0.07902854
121	0x3b47211d	0.0030384727
122	0x3dac062e	0.08399616
123	0xbda01263	-0.07816007
124	0xbc05b5f5	-0.008161058
125	0xbd497c62	-0.049190886
126	0xbd998cba	-0.074975446
127	0x3cb99454	0.022653736
128	0xbba5fa48	-0.0050652362
129	0x3da2fbd9	0.079581924
130	0x3d1cbade	0.038264148
131	0xbdaa5b65	-0.083182134
132	0x3b98e298	0.004665684
133	0x3caa4116	0.020782989
134	0x3ce32ccf	0.027731327
135	0xbb848744	-0.004044445
136	0x3ce88eb8	0.028388366
137	0xbc3440d8	-0.011001788
138	0xbd0d2ccc	-0.03446655
139	0x3cf806f3	0.030276751
140	0x3d012818	0.031532377
141	0x3db24394	0.08704296
142	0xba20eda7	-0.00061389286
143	0xbd3287cd	-0.04358654
144	0x3ccecad7	0.025243206
145	0xbd529405	-0.051410694
146	0x3ce536b8	0.027980193
147	0xbc834603	-0.016024595
148	0xbc098bac	-0.008395117
149	0xbc882eba	-0.016623843
150	0x3d2cfdab	0.042234104
151	0xbbe87b17	-0.0070947516
152	0xbce0c1b3	-0.027436113
153	0xbc7a1eb3	-0.015266108
154	0x3d82c3f4	0.06385031
155	0x3ca57aff	0.02020025
156	0xbd91fedf	-0.07128691
157	0xbb896644	-0.004193099
158	0x3d79b3fc	0.060962662
159	0x3cc84927	0.024448944
160	0xbccd2519	-0.025042104
161	0x3c6ef37e	0.01458442
162	0xbc249f73	-0.010047781
163	0xbcc75d76	-0.024336558
164	0xbc8fa1bb	-0.017533174
165	0xbcf45f3b	-0.029830566
166	0xbda34d9c	-0.07973787
167	0x3c9934a6	0.018701863
168	0x3dac5d3d	0.08416221
169	0x3cff830b	0.031190416
170	0xbd9cb9da	-0.07652636
171	0xbda7b74e	-0.081892595
172	0xbd94fd00	-0.072748184
173	0x3c1f0390	0.009705439
174	0x3c8f2cb7	0.017477376
175	0xbac72fdc	-0.0015196758
176	0x3d29a4e2	0.04141701
177	0x3d65a219	0.05606279
178	0xbbf43a23	-0.0074532195
179	0xbbb2981f	-0.005450263
180	0x3ce73c54	0.028227009
181	0xbc812f3f	-0.015769599
182	0x3d5478a9	0.051872883
183	0x3af8e639	0.001898951
184	0xbdb9d0c6	-0.090730235
185	0xbdad85b5	-0.08472768
186	0x3ce47279	0.027886616
187	0x3d7583bb	0.05994008
188	0x3d9fc7dc	0.07801792
189	0xbbb59a86	-0.0055421023
190	0x3d7345a3	0.059392583
191	0x3d213794	0.039359644
192	0xbd0c0282	-0.03418208
193	0xbd533a48	-0.051569253
194	0x3d8fac23	0.07015254
195	0xbcceb380	-0.025232077
196	0xbd846f7d	-0.06466577
197	0xbd4ae276	-0.049532376
198	0xbb226caa	-0.0024784007
199	0x3bada787	0.005299512
200	0xbd834241	-0.06409121
201	0xbd8dfccf	-0.06932985
202	0xbccc98e7	-0.024975253
203	0xbcee7bf9	-0.02911185
204	0x3da49a2f	0.08037221
205	0x3d7fd7cb	0.062461656
206	0x3d17b38e	0.03703647
207	0xbb886115	-0.0041619637
208	0x3b00f98b	0.001967999
209	0xbd91a049	-0.0711065
210	0xbcfc5704	-0.030803211
211	0x3d5293c9	0.05141047
212	0xbd62da66	-0.055384062
213	0x3d5f60e6	0.05453577
214	0x3d51c98a	0.051217593
215	0xbd137f4c	-0.03601007
216	0x3dabab36	0.08382265
217	0xbd7b20f2	-0.061310716
218	0xbd2f5033	-0.042801093
219	0xbdb3809a	-0.08764763
220	0x3d3424c2	0.043980367
221	0x3c568a00	0.013094425
222	0xbd7e7e51	-0.062132183
223	0x3c647df0	0.013946041
224	0xbd9e41c0	-0.077273846
225	0xbc88eb28	-0.016713694
226	0xbd72447a	-0.059147336
227	0x3d54f63c	0.05199264
228	0xbd865cf7	-0.065607004
229	0xbcddf311	-0.027093442
230	0xbd0f808b	-0.035034698
231	0xbd11dc18	-0.03561029
232	0x3b82ed1a	0.00399555
233	0xbd2d9550	-0.042378724
234	0xbccc0ddf	-0.024908958
235	0xbd881ad8	-0.06645745
236	0x3cd411d0	0.0258874
237	0x3bfa4a3f	0.0076382454
238	0xbb1d85d3	-0.0024036064
239	0xbd803ec8	-0.062619746
240	0x3d34dfb3	0.04415865
241	0xbd005d89	-0.031339202
242	0xbc9ca693	-0.019122398
243	0xbda38bbe	-0.07985638
244	0x3d87c556	0.06629436
245	0x3cebb9a8	0.028775051
246	0x3d4cb71a	0.049979307
247	0x3ce65e16	0.028121036
248	0xbbc0be89	-0.0058820886
249	0x3d307943	0.043084394
250	0x3c5d3003	0.013500216
251	0x3d5e2566	0.054234885
252	0xbd04f085	-0.03245594
253	0xbc847a7f	-0.016171692
254	0x3d17617a	0.036958195
255	0xbd031892	-0.032005854

bias f4 [100]
0	0x3d295c7f	0.041347977
1	0xbc9e820a	-0.019349117
2	0x3c955680	0.018229723
3	0x3cc1efad	0.023673857
4	0x3d92ec52	0.07173981
5	0xbc5708d4	-0.013124663
6	0x3dbd63d0	0.09247553
7	0xbd3fffda	-0.04687486
8	0x3c876b2e	0.0165306
9	0xbd8c079e	-0.0683739
10	0x3da895c8	0.082316935
11	0x3cf19eae	0.02949461
12	0xbccaded8	-0.024764463
13	0x3d2c196e	0.04201644
14	0x3c524c0c	0.012835514
15	0xbc4a2549	-0.012337991
16	0xbcb01bf7	-0.02149771
17	0x3d88eacb	0.06685408
18	0xbdc404e7	-0.095712475
19	0x3c1bb89d	0.009504464
20	0x3b0251cb	0.0019885178
21	0x3ce430ab	0.027855238
22	0xbc8514fc	-0.016245358
23	0xbd853b26	-0.06505422
24	0x3d3136c4	0.04326512
25	0x3d285750	0.041098893
26	0x3cbd2895	0.02309064
27	0x3dae4057	0.085083656
28	0x3dc32e0a	0.09530266
29	0xbd1e53d0	-0.03865415
30	0xbd85115b	-0.06497451
31	0x3d8083f4	0.06275168
32	0x3d6ff545	0.058583517
33	0xbd4ba194	-0.04971464
34	0xbd483afb	-0.048884373
35	0x3d5d5cae	0.054043464
36	0x3bdf9321	0.006822959
37	0xbdb58abe	-0.088643536
38	0x3d982e09	0.074306555
39	0xbd9a6103	-0.07538035
40	0xbc6df225	-0.014523064
41	0xbd44d213	-0.048051905
42	0xbd54db78	-0.051967114
43	0x3d488995	0.048959333
44	0x3c337b06	0.010954624
45	0x3d943ab9	0.07237763
46	0xbc815985	-0.015789757
47	0x3dab73a0	0.08371663
48	0x3c986b64	0.018605895
49	0x3dacfbb0	0.08446443
50	0x3d8ceebe	0.06881474
51	0xbbfcaa0e	-0.007710702
52	0xbd54e594	-0.051976755
53	0xbdb63833	-0.08897438
54	0x3cb15ad6	0.02164976
55	0xbd5aba99	-0.05340061
56	0xbd59282e	-0.053016834
57	0x3c9da586	0.019243967
58	0x3d85dce8	0.06536275
59	0xbda99388	-0.082800925
60	0xbd906f0c	-0.070524305
61	0x3b7ad3ad	0.0038273141
62	0xbd9b99d2	-0.07597698
63	0xbd98b9cd	-0.07457314
64	0x3d8741b2	0.06604327
65	0xbd0106c1	-0.03150058
66	0x3daa512f	0.08316266
67	0xbd5f097a	-0.054452397
68	0x3dbee77d	0.09321497
69	0x3d65c19f	0.056092855
70	0xbd12a85c	-0.03580509
71	0xba6f141b	-0.00091201224
72	0x3d0fae06	0.03507807
73	0x3d7fab4f	0.062419232
74	0xbd72a4e9	-0.0592393
75	0xbd973e13	-0.073848866
76	0xbd8f21a3	-0.069888376
77	0x3d82badf	0.06383299
78	0x3ba2359c	0.0049502384
79	0x3cf23c60	0.029569805
80	0x3db22e87	0.08700281
81	0xbb6a8144	-0.0035782615
82	0x3d6c2a0a	0.05765728
83	0x3b0050e7	0.0019579472
84	0xb94177c5	-0.00018450532
85	0xbc6e80d9	-0.014557087
86	0x3d53a111	0.051667277
87	0xbc8f7f85	-0.01751686
88	0xbc8c7b8d	-0.017148757
89	0x3d81e028	0.063415825
90	0x3d43055e	0.04761254
91	0xbd0a8f3a	-0.033827998
92	0x3c038fe5	0.008029913
93	0xbcfa783c	-0.03057491
94	0xbcabc5f0	-0.020968407
95	0x3d7efef1	0.06225485
96	0xbd95b7ee	-0.073104724
97	0x3be99f46	0.0071295826
98	0xb86111fd	-5.3660933e-05
99	0xbc7174da	-0.014737332

weight f4 [50, 100]
0	0x3d214a9c	0.039377794
1	0xbd0a2451	-0.03372604
2	0x3d2c68b0	0.042092025
3	0xbd5f6c46	-0.054546617
4	0xbda702e8	-0.08154851
5	0xbdac73c4	-0.08420518
6	0x3d9ed8ba	0.07756181
7	0xbb8d344d	-0.0043092133
8	0x3d47e179	0.04879901
9	0xbd1ebf12	-0.038756438
10	0x3db978a7	0.09056216
11	0x3dafbf9e	0.0858147
12	0xbb4a2634	-0.0030845525
13	0x3d394e40	0.04524064
14	0xbdb6a281	-0.08917714
15	0x3d518af6	0.051157914
16	0x3abedb96	0.0014561291
17	0xbcf266fe	-0.029590126
18	0xbd4752f4	-0.048663095
19	0xbc748d4e	-0.014926268
20	0xbdb5df71	-0.08880509
21	0xbca8dddb	-0.020613601
22	0x3cea826c	0.028626643
23	0x3d012be4	0.031535998
24	0xbc223a53	-0.009901601
25	0x3db0bf2d	0.08630214
26	0xbcd031fe	-0.025414463
27	0xbc2c3c66	-0.010512447
28	0x3dba65bd	0.09101436
29	0x3b89f693	0.004210302
30	0x3d4cb827	0.04998031
31	0x3da81e57	0.08208912
32	0xbd4e0c2f	-0.050304588
33	0x3c58fe5b	0.013244237
34	0x3d826ff8	0.063690126
35	0xbd6d8c37	-0.057995047
36	0x3c389545	0.011266057
37	0x3cb64cc9	0.02225341
38	0xbd16e590	-0.03684002
39	0x3c260225	0.010132347
40	0xbd81a9ad	-0.06331191
41	0xbb312ee6	-0.002703601
42	0x3d8c801e	0.06860374
43	0x3dc720b3	0.09723034
44	0xbd844833	-0.064590834
45	0x3dd660d0	0.10467684
46	0xbdb2f98b	-0.08739003
47	0x3c6ae79e	0.014337448
48	0xbd66c136	-0.056336604
49	0x3dd9d2fa	0.10635944
50	0xbd9087db	-0.070571624
51	0xbd5cca86	-0.05390408
52	0xbd7fc322	-0.062441953
53	0xbd4b330d	-0.049609233
54	0xbd99f029	-0.0751651
55	0x3d0bf1fb	0.034166317
56	0x3d87f067	0.0663765
57	0xbc4aa332	-0.01236801
58	0x3b18c933	0.0023313283
59	0x3dbfcb77	0.0936498
60	0xbc89e29a	-0.016831685
61	0x3dbd6bec	0.092491
62	0xbd9209e2	-0.07130791
63	0x3d97b487	0.0740748
64	0x3c53a5df	0.012917965
65	0xbdaa3a89	-0.08311946
66	0xbd716d31	-0.058942024
67	0x3d4b0791	0.049567763
68	0x3c9d534c	0.019204758
69	0x3cd332be	0.025781032
70	0xbca4522a	-0.02005871
71	0xbcec101c	-0.028816275
72	0xbd611ee8	-0.054961115
73	0x3d44e276	0.048067532
74	0x3c1df5a7	0.009641088
75	0xbcd4fe61	-0.026000204
76	0xbcfb0657	-0.030642672
77	0x3db78ab0	0.089619994
78	0x3c8689a1	0.016423048
79	0x3da24959	0.07924146
80	0x3d9fbda7	0.07799845
81	0xbd5a1e4a	-0.053251542
82	0x3ca7c856	0.02048127
83	0x3dab923c	0.08377501
84	0xbb6230c8	-0.003451394
85	0x3ce6e795	0.028186599
86	0xbdb08630	-0.08619344
87	0xbcb09165	-0.021553705
88	0x3c97ef1a	0.01854663
89	0xbd87571f	-0.06608414
90	0xbcd94e3c	-0.026526563
91	0x3d9c5c6a	0.07634814
92	0x3d90050c	0.070322126
93	0xbd8d88eb	-0.06910881
94	0x3d80ed26	0.062952325
95	0xbdaa899d	-0.08327029
96	0x3bb94865	0.005654382
97	0xbd10f46e	-0.035389356
98	0x3cc341bd	0.023835057
99	0x3dc13653	0.0943419
100	0xbc457873	-0.012052643
101	0xbcc887b8	-0.024478778
102	0x3d4faa4a	0.05069951
103	0x3b8a492f	0.00422015
104	0xbd79155a	-0.060811378
105	0xbd5aaca0	-0.053387284
106	0x3da867c1	0.082229145
107	0xbb56b8e7	-0.003276402
108	0xbc0515b4	-0.00812285
109	0x3b857a30	0.004073404
110	0x3ba08d19	0.0048996327
111	0xbdaadb02	-0.08342554
112	0x3dbeeb15	0.09322182
113	0x3d991e0d	0.07476435
114	0x3d35eff0	0.044418275
115	0x3cced469	0.02524777
116	0x3d2889b6	0.041146956
117	0xbcd5fd73	-0.02612183
118	0xbd65bb8f	-0.056087073
119	0x3d02eb28	0.031962544
120	0xbc3e54a2	-0.011616858
121	0xbd7cdbb4	-0.061732963
122	0xbd4160e8	-0.047211558
123	0xbc6fc432	-0.014634179
124	0x3b9a65d4	0.004711846
125	0x3d2d951a	0.042378522
126	0x3c922d73	0.017843938
127	0xbd901be8	-0.07036573
128	0xbca37823	-0.019954747
129	0x3da7aca9	0.08187229
130	0x3bf24a9e	0.007394149
131	0x3dacdc48	0.08440453
132	0xbda9abae	-0.082846984
133	0x3cf9356e	0.030420985
134	0x3c81ace3	0.01582951
135	0xbd6af399	-0.05736122
136	0x3abae9e6	0.0014260381
137	0xbd5df6f4	-0.05419059
138	0x3d9751bb	0.07388636
139	0xbd2876ab	-0.041128796
140	0xbdb6827e	-0.08911608
141	0xbd85275e	-0.06501649
142	0xbbb3bd2f	-0.005485199
143	0x3dbad302	0.09122278
144	0xbd8b538b	-0.06803044
145	0x3d980553	0.074228905
146	0xbdb36b93	-0.087607525
147	0x3d8c401c	0.068481654
148	0x3d3fb55f	0.04680383
149	0x3d9cb272	0.07651223
150	0x3d194e4e	0.037428193
151	0xbb0385e9	-0.002006883
152	0x3da640d6	0.08117835
153	0xbdbf3a2c	-0.09337267
154	0xbd798728	-0.06091991
155	0x3d340826	0.043953083
156	0x3d2f85d1	0.042852227
157	0xbd9ca8af	-0.07649361
158	0x3d48412e	0.048890285
159	0x3d2ce1da	0.042207576
160	0x3d3ec7eb	0.046577375
161	0x3d966439	0.07343335
162	0xbc1dfb3e	-0.00964242
163	0x3d71f7c7	0.05907419
164	0xbd80da01	-0.06291581
165	0xbd51a32e	-0.05118101
166	0xbd181df0	-0.037137926
167	0xbd38e74a	-0.04514245
168	0x3d640e8b	0.05567793
169	0xbd84070d	-0.06446657
170	0xbdd391d5	-0.1033055
171	0x3d706364	0.058688536
172	0xbd2e0d14	-0.04249294
173	0xbdd5c88e	-0.104386434
174	0xbdb2632f	-0.08710324
175	0xbd1260a7	-0.035736706
176	0x3d17accd	0.03703003
177	0xbd87d7de	-0.0663297
178	0xbce0948d	-0.027414585
179	0xbd644084	-0.05572559
180	0x3d8cf0e3	0.06881883
181	0xbd744d6e	-0.059644155
182	0x3daddb41	0.08489085
183	0x3d0ff8ae	0.03514927
184	0xbd4731e4	-0.048631564
185	0xbdc945ff	-0.09827804
186	0x3c990d81	0.018683197
187	0x3c9921ea	0.01869293
188	0xbdaaa980	-0.08333111
189	0xbd572438	-0.052524775
190	0xbda8dcdc	-0.082452506
191	0x3c9337c0	0.01797092
192	0x3d50bf07	0.050963428
193	0x39e85a9a	0.00044317992
194	0x3d8da4da	0.069162086
195	0x3d8f7c45	0.070061244
196	0xbd689dd2	-0.056791134
197	0x3d8c104f	0.06839048
198	0xbd994dea	-0.07485564
199	0xbdc8e5d6	-0.09809463
200	0xbcc14d83	-0.02359653
201	0x3d594410	0.053043425
202	0xbc56b002	-0.013103487
203	0x3d266f0d	0.04063325
204	0x3d92d54b	0.07169589
205	0x3d950bb7	0.07277625
206	0x3d6f45ac	0.058416054
207	0x3d1598cd	0.036522675
208	0x3db1833c	0.08667609
209	0x3ddbcaab	0.10732015
210	0xbcfa7945	-0.030575404
211	0x3c5c9ce1	0.013465137
212	0xbdba37c0	-0.09092665
213	0xbd4d184d	-0.050072003
214	0x3d9e8834	0.077408224
215	0xbbb2802a	-0.0054474073
216	0xbd7d7c46	-0.061886095
217	0xbbbf888f	-0.0058451365
218	0xbd93ce99	-0.0721714
219	0xbcb881c4	-0.022522815
220	0x3c85a985	0.016316185
221	0x3c5ed176	0.013599744
222	0x3b670ea4	0.003525653
223	0xbc0177eb	-0.007902126
224	0x3d878a01	0.06618119
225	0xbcdbd881	-0.026836636
226	0x3db55f70	0.08856094
227	0xbd8cfa08	-0.06883627
228	0xbd587955	-0.052850086
229	0x3d9ec29c	0.077519625
230	0x3dd5bb92	0.10436167
231	0x3d89951a	0.06717892
232	0x3db8f063	0.09030225
233	0xbd766b65	-0.060161013
234	0x3db88e98	0.090115726
235	0xbc95818b	-0.018250247
236	0x3d620f74	0.05519052
237	0xbd89d65f	-0.06730341
238	0xbc19a8d7	-0.009378633
239	0x3cd09586	0.025461923
240	0xbd65e177	-0.056123223
241	0xbd1c477d	-0.038154114
242	0x3c881e0f	0.016615896
243	0xbbdb1a03	-0.0066864504
244	0x3d813ddc	0.06310627
245	0xbd7f9e67	-0.062406924
246	0x3d17ede2	0.037092097
247	0xbda49a66	-0.08037262
248	0x3dae52fe	0.08511923
249	0x3db21d21	0.08696962
250	0x3cd29906	0.025707733
251	0xbd86fa92	-0.06590761
252	0x3d262b47	0.040568616
253	0xbd86fd71	-0.06591309
254	0xbdaefa94	-0.08543888
255	0xbb340fae	-0.0027475166

bias f4 [50]
0	0x3d838d3e	0.06423424
1	0x3d639932	0.05556602
2	0xbbf40c5c	-0.0074477624
3	0xbd6c68dd	-0.057717193
4	0xbdafbda9	-0.08581097
5	0x3d41fac6	0.047358297
6	0xbdbacabe	-0.09120701
7	0x3d7b1653	0.061300587
8	0x3d9b00ec	0.07568535
9	0xbd762160	-0.060090423
10	0x3d7373f1	0.059436742
11	0xba5b397e	-0.0008362754
12	0x3cb88d82	0.022528414
13	0xbdba36d3	-0.09092488
14	0x3da13471	0.078713305
15	0x3d9e8348	0.07739884
16	0xbd3b6392	-0.045749255
17	0x3daf6e2a	0.08565934
18	0x3d53fe22	0.05175603
19	0x3cbb7b58	0.022885963
20	0xbd52b816	-0.05144509
21	0xbccdbb6f	-0.02511379
22	0x3cfb8e71	0.03070757
23	0x3d883e95	0.066525616
24	0xbdc8694a	-0.09785707
25	0x3dd9713f	0.10617303
26	0xbccedda5	-0.025252173
27	0xbd85b131	-0.06527937
28	0xbd441be4	-0.04787816
29	0xbb48c00c	-0.0030632047
30	0xbc8dcc02	-0.017309193
31	0x3d1fb588	0.03899148
32	0xbd2146fc	-0.039374337
33	0x3ccd2678	0.025042757
34	0xbd335151	-0.04377872
35	0xbdb31805	-0.08744816
36	0x3bcd184a	0.006258999
37	0x3d8ba28f	0.06818115
38	0x3d454fc8	0.04817179
39	0xbc5d9fa1	-0.013526828
40	0xbdd4f8fa	-0.10399051
41	0x3dd06abe	0.101766095
42	0xbd94c6f0	-0.07264507
43	0xbca29e74	-0.019850947
44	0xbd934b13	-0.07192054
45	0x3d6db887	0.058037307
46	0x3d59a6c1	0.053137545
47	0x3d8370eb	0.06418022
48	0xbd6ab69a	-0.05730305
49	0x3cb8b440	0.022546887

weight f4 [1, 50]
0	0xbdbca297	-0.09210699
1	0x3c968fd0	0.018379122
2	0xbdb8fde5	-0.090328015
3	0x3cd1872c	0.02557715
4	0x3b427add	0.0029675283
5	0xbd3e0d24	-0.04639925
6	0x3d8170e5	0.06320361
7	0x3da97059	0.08273382
8	0xbcbf3af8	-0.023343548
9	0xbe00850a	-0.1255075
10	0xbdbd426a	-0.09241183
11	0xbddd393a	-0.10801931
12	0x3dd829bd	0.10554836
13	0x3e005c5b	0.12535231
14	0x3d06effd	0.032943714
15	0x3d86a8de	0.065751776
16	0x3d808364	0.06275061
17	0xbda89d85	-0.082331695
18	0xbdbb831c	-0.091558665
19	0x3c308ec4	0.0107762255
20	0xbe14b18e	-0.14520857
21	0x3dd6c3c3	0.10486557
22	0xbdf1dd88	-0.11809832
23	0xbd755477	-0.059895005
24	0x3c8f0bf8	0.017461762
25	0xbddd9156	-0.10818736
26	0x3dd3927a	0.103306726
27	0xbd9b642c	-0.07587466
28	0xbde6fc85	-0.11278633
29	0x3d7412f6	0.059588395
30	0xbe017699	-0.12642898
31	0xbd84aca6	-0.064782426
32	0xbdc6eceb	-0.09713157
33	0x3b426d5a	0.002966723
34	0x3d6c9fcc	0.05776958
35	0x3db4b95b	0.08824416
36	0xbd3f1636	-0.04665204
37	0xbcfd4102	-0.030914787
38	0xbdb059a6	-0.08610849
39	0xbe0b1c98	-0.13585126
40	0x3d8f396e	0.06993376
41	0xbe0dfb74	-0.13865453
42	0xbd87cd33	-0.066309355
43	0x3de89ec4	0.11358407
44	0xbc340518	-0.010987543
45	0x3dff56dd	0.1246774
46	0xbc94a494	-0.018144883
47	0xbc270b28	-0.010195531
48	0x3d955d13	0.07293143
49	0x3dc8d78c	0.09806737
