client/model.pth (torch, 74932 bytes, 5 tensors)

weight f4 [100, 125]
0.044961933 0.023397302 -0.03268418 -0.0075284787 0.05889939 -0.08656167 0.08030911 0.0022722583
0.07959925 0.012236939 0.08454077 -0.048945513 0.011440173 -0.029412005 0.06521046 0.046249337
-0.0775514 -0.07827037 -0.029245859 0.03832339 0.016358364 -0.041126907 0.054161463 0.08072836
0.015870051 0.03711509 -0.008179078 -0.010329262 0.006564568 0.022442415 -0.008064222 -0.08553752
0.06748653 -0.00643413 0.06409882 0.06505914 -0.041873153 0.031415273 0.0755357 -0.02699194
0.071608834 -0.07189437 0.014036117 0.07856766 0.0037512558 0.05869613 0.056110326 0.006163908
-0.04249586 -0.06616565 0.03918212 0.07216041 -0.08714426 0.013054799 -0.0823241 0.05410998
0.08082803 0.06349673 -0.021924699 -0.05165943 0.012631945 -0.08382724 -0.041585237 -0.068463035
-0.04258867 0.08123322 -0.044976864 -0.079302885 -0.06882557 0.05851372 -0.07609082 -0.06446665
-0.08153069 0.06999789 0.00464859 0.02021984 0.027077472 -0.014935879 -0.084312595 -0.011186533
0.078706875 0.03277766 -0.022004474 -0.068304926 0.048924156 0.0244087 -0.06810759 -0.025798343
-0.059716415 0.021367528 -0.063286714 0.04811593 -0.030782126 -0.08368299 0.037787087 -0.06577342
-0.031795118 0.052966487 0.07040311 -0.04788449 0.0838873 -0.051778775 0.04877021 0.073260166
0.02602831 -0.085221976 -0.04472782 0.04424846 -0.0087229945 0.043686762 -0.03195905 -0.04881423
0.059804395 0.006194383 -0.049479146 -0.07714946 0.081093855 -0.03436895 -0.04650055 -0.05153093
0.03240286 0.045925446 -0.07241445 0.06312391 0.060365416 0.06479569 0.08008385 0.055288993
0.062125128 -0.07787303 -0.022708172 -0.06867324 -0.06692086 0.06571133 0.028228102 -0.013281635
0.041715454 0.07748767 -0.07235402 0.071397506 0.05246634 0.044634536 -0.07905544 0.07543393
0.048958663 0.027630383 0.009382818 0.066052504 0.07137902 0.08271112 0.055726215 0.007484524
0.03537112 0.030850487 -0.021878801 -0.054450225 0.055906635 -0.04056615 -0.083883345 -0.06316175
0.026967578 0.07527245 0.03297782 -0.072608374 -0.08493939 -0.079808205 -0.014713714 0.046205748
0.06929302 -0.034039762 -0.05802493 0.08142521 -0.005074686 -0.014957431 0.037263352 0.08590566
-0.000819507 -0.007016099 0.012978566 0.053484164 -0.06771925 0.03573705 -0.07550733 -0.051511195
-0.05006424 0.033130784 0.05247013 0.047979634 -0.05495426 -0.033357617 -0.08313307 -0.010482817
-0.029988352 0.0419884 -0.08003101 -0.061780166 0.08851129 0.0687822 -0.024643088 0.035313606
-0.056888103 0.053742435 -0.05238196 0.0047773933 0.04687836 -0.07138723 -0.0690321 0.07395249
-0.02510064 0.077117436 0.0372258 -0.0778893 -0.0041386783 0.030469844 0.044545867 0.0070337225
-0.08115455 -0.04662637 0.05788982 0.018438071 -0.0680773 0.0222359 0.013210241 -0.059174377
0.026999298 -0.050141137 -0.044464722 0.07636347 -0.021382574 0.008613109 -0.037944414 0.08140258
-0.05012343 -0.013286309 -0.067437544 -0.05240396 -0.039835997 0.04355762 -0.085752085 -0.0057836934
0.061172493 -0.04007036 0.008392739 0.056664124 0.058276836 0.008775177 -0.018786525 0.055343222
-0.08457671 0.0068661803 -0.060548324 0.030438118 -0.013619896 -0.042719845 0.07724754 -0.089280345
00000000: 012a 383d b3ab bf3c d9df 05bd 75b1 f6bb
00000010: 7d40 713d 3f47 b1bd 1a79 a43d 2bea 143b
00000020: ee04 a33d 717d 483c b623 ad3d 177b 48bd
00000030: 906f 3b3c 72f1 f0bc 108d 853d f26f 3d3d
00000040: 45d3 9ebd 374c a0bd 0395 efbc fdf8 1c3d
00000050: fa01 863c b074 28bd 69d8 5d3d e954 a53d
00000060: e901 823c fe05 183d 8a01 06bc 113c 29bc
00000070: 961b d73b 28d9 b73c cc1f 04bc 4c2e afbd
00000080: 6136 8a3d 65d5 d2bb 3e46 833d ba3d 853d
00000090: 2f83 2bbd 4dad 003d 76b2 9a3d 331e ddbc
000000a0: a7a7 923d 5b3d 93bd bef7 653c 15e8 a03d
000000b0: a1d7 753b 5a6b 703d f1d3 653d 9cfa c93b
000000c0: 2410 2ebd db81 87bd 6e7d 203d d6c8 933d
000000d0: b178 b2bd cce3 553c 8a99 a8bd 6da2 5d3d
000000e0: 2b89 a53d 930a 823d 6d9b b3bc d798 53bd
000000f0: 38f6 4e3c 9ead abbd 4855 2abd 5936 8cbd
00000100: 7571 2ebd 9a5d a63d a939 38bd 8d69 a2bd
00000110: 6cf4 8cbd 15ac 6f3d 81d5 9bbd 1707 84bd
00000120: 90f9 a6bd 0e5b 8f3d 3353 983b 14a4 a53c
00000130: 93d1 dd3c 9eb5 74bc 15ac acbd b847 37bc
00000140: 1231 a13d de41 063d ba42 b4bc 74e3 8bbd
00000150: b264 483d c1f4 c73c fe7b 8bbd 0c57 d3bc
00000160: 3399 74bd f40a af3c 779c 81bd 3615 453d
00000170: cc2a fcbc fd61 abbd a2c6 1a3d 37b4 86bd
00000180: 993b 02bd 63f3 583d 812f 903d 8722 44bd
00000190: 1bcd ab3d fb15 54bd 46c3 473d 6d09 963d
000001a0: 5339 d53c dc88 aebd 8534 37bd e03d 353d
000001b0: e4ea 0ebc e4f0 323d 7ee7 02bd 6ef1 47bd
000001c0: 74f5 743d 40fa ca3b a5aa 4abd 8900 9ebd
000001d0: 8914 a63d 75c6 0cbd 5c77 3ebd 1912 53bd
000001e0: dcb8 043d 521c 3c3d 074e 94bd 1c47 813d
000001f0: ba41 773d 9ab3 843d 0003 a43d b676 623d
00000200: eb76 7e3d e57b 9fbd 7d06 babc 8ea4 8cbd
00000210: ce0d 89bd a993 863d 9f3e e73c 379b 59bc
00000220: d3dd 2a3d dbb1 9e3d 582e 94bd db38 923d
00000230: f2e6 563d b4d2 363d d2e7 a1bd 1b7d 9a3d
00000240: e188 483d 1d59 e23c 64ba 193c 8946 873d
00000250: 2a2f 923d 7364 a93d 2c41 643d bd40 f53b
00000260: 4fe1 103d 29ba fc3c 2c3b b3bc 3307 5fbd
00000270: 5bfe 643d b128 26bd 08cb abbd f35a 81bd
00000280: 1ceb dc3c 7128 9a3d c013 073d b3b3 94bd
00000290: b4f4 adbd 7c72 a3bd ca11 71bc 3d42 3d3d
000002a0: 80e9 8d3d 476d 0bbd 8dab 6dbd 43c2 a63d
000002b0: 8d49 a6bb 0310 75bc 75a1 183d 4fef af3d
000002c0: 2fd4 56ba 4ee7 e5bb 0da4 543c 3612 5b3d
000002d0: 64b0 8abd 0361 123d 96a3 9abd 67fd 52bd
000002e0: 2910 4dbd 25b4 073d ebea 563d 4b86 443d
000002f0: b817 61bd ffa1 08bd ac41 aabd 1fc0 2bbc
00000300: 22aa f5bc 07fc 2b3d 4ce7 a3bd 330d 7dbd
00000310: 6845 b53d afdd 8c3d 4de0 c9bc 00a5 103d
00000320: 8003 69bd 0721 5c3d 778e 56bd ae8b 9c3b
00000330: 8603 403d 7833 92bd b460 8dbd 6774 973d
00000340: db9f cdbc bfef 9d3d 157a 183d 6d84 9fbd
00000350: c09d 87bb e59b f93c ba75 363d 247b e63b
00000360: 5b34 a6bd 4bfb 3ebd e01d 6d3d 700b 973c
00000370: 1d6c 8bbd 1028 b63c c46f 583c d560 72bd
00000380: a22d dd3c cb60 4dbd a420 36bd 7364 9c3d
00000390: 822a afbc ff1d 0d3c 9a6b 1bbd 65b6 a63d
000003a0: 3a4e 4dbd d2ae 59bc b21c 8abd 89a5 56bd
000003b0: 122b 23bd 7a69 323d ca9e afbd 2385 bdbb
000003c0: 0290 7a3d d120 24bd b381 093c a418 683d
000003d0: b1b3 6e3d c3c5 0f3c 33e6 99bc 93af 623d
000003e0: 8e36 adbd b2fd e03b 8501 78bd 5c59 f93c
000003f0: fc25 5fbc 01fb 2ebd f533 9e3d 9dd8 b6bd

bias f4 [100]
-0.021692505 0.013504378 -0.0029082084 -0.0764534 -0.051081855 0.095707946 0.028927822 -0.0716871
0.017993206 0.06939554 0.02069032 -0.07624281 0.05617683 -0.02335909 0.019591805 -0.03524735
0.01621845 -0.054043893 -0.030674603 0.07774248 0.01998911 0.08189265 -0.0029456133 0.00051165157
-0.061312452 -0.007964164 -0.05258096 -0.09486816 -0.03369887 -0.058996107 0.0053858543 -0.07554532
0.07024904 0.06713783 -0.05453299 -0.05545043 0.07475401 0.08079887 -0.09137934 -0.04432434
0.016472654 0.013524464 0.077639796 0.0067685973 -0.06440227 -0.03866468 0.027754193 0.041819945
-0.0059783114 0.07401199 -0.057660885 -0.058769338 -0.08769779 -0.004910281 0.006841083 -0.036970012
-0.061210047 -0.028360706 0.045448504 0.02447795 0.049140193 0.085963234 0.097038954 -0.05049326
0.015361329 0.028155973 -0.019623462 0.013951749 0.024921903 -0.027457193 0.009732482 0.03954036
-0.07194473 -0.035452865 0.066989236 -0.012762253 0.046366956 -0.087836504 -0.041420285 -0.056671962
-0.058415253 -0.052512556 0.0063833445 -0.009975503 0.07106372 0.032567073 -0.06254544 0.05911491
-0.02861943 0.02178994 0.040532418 -0.014729538 0.049707748 0.029011875 0.09220465 -0.005129467
-0.036493994 -0.053118445 0.045901738 0.0526977
00000000: 7bb4 b1bc 7741 5d3c a497 3ebb 9a93 9cbd
00000010: 353b 51bd 8702 c43d 0afa ec3c b0d0 92bd
00000020: 7d66 933c 401f 8e3d bf7e a93c 3125 9cbd
00000030: ad19 663d 905b bfbc fe7e a03c 865f 10bd
00000040: 8edc 843c 215d 5dbd 4e49 fbbc 7337 9f3d
00000050: 34c0 a33c 55b7 a73d 310b 41bb 5b20 063a
00000060: c422 7bbd 207c 02bc 225f 57bd 3d4a c2bd
00000070: d407 0abd e7a5 71bd d27b b03b 81b7 9abd
00000080: bbde 8f3d 8f7f 893d fc5d 5fbd fd1f 63bd
00000090: a118 993d e179 a53d 1725 bbbd 708d 35bd
000000a0: a9f1 863c b795 5d3c 9d01 9f3d 1ccb dd3b
000000b0: 56e5 83bd db5e 1ebd c35c e33c 644b 2b3d
000000c0: b6e5 c3bb 9993 973d d22d 6cbd 1eb8 70bd
000000d0: e69a b3bd 6ce6 a0bb 2a2b e03b de6d 17bd
000000e0: 63b7 7abd b654 e8bc 3628 3a3d fb85 c83c
000000f0: 3a47 493d 7e0d b03d 5cbc c63d 05d2 4ebd
00000100: 15ae 7b3c 5ba7 e63c 62c1 a0bc e095 643c
00000110: 0529 cc3c e8ed e0bc fd74 1f3c 13f5 213d
00000120: c257 93bd 0637 11bd a731 893d c518 51bc
00000130: 47eb 3d3d a0e3 b3bd 51a8 29bd dc20 68bd
00000140: d544 6fbd 6817 57bd 602b d13b 4b70 23bc
00000150: db89 913d 0d65 053d d317 80bd 7a22 723d
00000160: 4b73 eabc d180 b23c 5205 263d 2954 71bc
00000170: 5a9a 4b3d 50aa ed3c cbd5 bc3d 1715 a8bb
00000180: ba7a 15bd ba92 59bd 7603 3c3d 8bd9 573d

weight f4 [50, 100]
0.0902178 0.10358015 -0.06997001 0.07912701 0.019907786 0.055302136 0.02422134 0.09218573
0.047406822 -0.018884877 0.09511441 0.074322656 -0.00048933056 0.0032695064 0.029054478 0.07416873
0.056547575 0.068548545 0.08618998 0.042027928 -0.06349737 -0.03668485 0.10328963 -0.077404544
0.06006459 -0.0060495073 -0.081456885 -0.082059644 0.09200552 -0.0037582016 -0.019459315 0.078042544
0.0887548 0.03685116 -0.012028768 0.060724758 0.066011295 -0.044576477 0.03165711 0.008723849
0.0517505 -0.04554004 -0.052180566 0.0224079 -0.03171573 0.10229628 -0.07888912 0.026939407
0.022134101 -0.07002153 0.042004086 0.030307597 0.07189574 -0.04921918 -0.037854478 0.01581644
0.030715344 0.09997785 0.07735321 -0.08630004 -0.058859196 -0.0061083566 -0.0346779 -0.050736494
0.08348338 -0.08357977 -0.04277861 -0.036479395 0.09242696 0.0655056 0.032367587 0.038286824
-0.051498283 0.027377075 0.01996493 0.09944952 -0.08028208 -0.0908204 -0.071397066 0.055798806
0.043871466 -0.08704176 -0.049670756 0.074067384 -0.076694764 0.06408549 0.004523807 0.061193783
0.094879806 -0.045620106 -0.006982197 0.054298975 0.044842184 0.043278523 0.0843365 0.029699564
0.06732234 -0.022619886 0.013831587 0.1008153 -0.046339013 0.022552308 0.089770585 -0.070131496
-0.010465472 0.00050406106 0.04325731 -0.091405965 -0.022974923 -0.056664262 0.029655442 -0.035612896
0.046498325 0.0012175653 0.08487228 0.04347874 -0.030825814 0.07696341 0.088535726 0.04147724
0.09315144 0.050450865 -0.07356593 -0.03127247 0.021870876 -0.017806754 -0.0065421024 -0.094695844
0.06655112 -0.0403681 -0.085566804 -0.035695836 -0.028805038 0.027099643 0.013429973 -0.08111537
0.026207935 0.08344129 0.07381351 -0.02513517 0.03822222 -0.012546981 0.03035243 -0.08462559
-0.09402302 0.04580258 -0.094353355 0.051932916 -0.03690302 -0.06986143 0.035915904 -0.019384341
0.065503046 -0.06930421 -0.043756694 -0.03554455 0.026059333 -0.04997786 -0.0847129 -0.011747312
-0.10474397 -0.017216392 -0.051210526 -0.04288635 0.0017264333 0.014251901 0.06163831 -0.06752651
-0.06913306 0.063426666 0.010501538 0.035932273 0.03898752 0.022151357 0.05431401 -0.019756341
0.0917215 0.035666637 0.02673871 0.048857477 -0.06075979 -0.010538331 0.07294474 -0.066126436
0.08975375 -0.009275358 -0.09725672 -0.039266985 0.036522903 0.063569166 -0.0084556695 -0.05430681
-0.038542524 -0.024101904 0.002569658 0.09097745 0.059067395 0.042134836 0.032940384 0.08970503
-0.02447974 0.018861253 -0.02923781 -0.0852253 0.079805374 0.027800195 0.022909107 -0.04247681
0.045744203 0.010349814 -0.053427223 -0.041634534 0.07006996 -0.017053593 0.031225944 -0.063306704
0.047237378 0.03543698 0.00852144 0.0140808 0.0485504 0.09232951 0.08634893 0.09333791
0.06768195 0.065582186 0.033705954 -0.022667022 -0.0133649865 0.09964224 -0.03969148 0.053414892
-0.0619998 0.070645295 -0.08305736 0.09479676 -0.010275405 -0.011040575 0.030779364 0.029866816
0.02423121 0.024658104 0.08060188 -0.041022114 0.102180876 0.045738738 0.03875609 -0.030556291
-0.052331235 -0.012188357 -0.07285132 0.031187594 0.024446765 -0.02324539 -0.06540456 -0.0138423415
00000000: 1cc4 b83d d421 d43d 704c 8fbd 580d a23d
00000010: a715 a33c 7e84 623d d56b c63c dfcb bc3d
00000020: a82d 423d 75b4 9abc 58cb c23d 7a36 983d
00000030: 6b46 00ba 3745 563b a803 ee3c c6e5 973d
00000040: 6e9e 673d 2e63 8c3d 5f84 b03d 7a25 2c3d
00000050: e90a 82bd da42 16bd 8389 d33d 4686 9ebd
00000060: 4a06 763d f23a c6bb ded2 a6bd e30e a8bd
00000070: 646d bc3d 294c 76bb 2469 9fbc c5d4 9f3d
00000080: 14c5 b53d 3ef1 163d 4f14 45bc 86ba 783d
00000090: ee30 873d d395 36bd e3aa 013d 7aee 0e3c
000000a0: 55f8 533d 3188 3abd 4abb 55bd c690 b73c
000000b0: 5ae8 01bd b680 d13d 9e90 a1bd 08b0 dc3c
000000c0: 9352 b53c 7367 8fbd 7a0c 2c3d a347 f83c
000000d0: 133e 933d 0d9a 49bd 4c0d 1bbd 7b91 813c
000000e0: bf9e fb3c 30c1 cc3d 5c6b 9e3d 13be b0bd
000000f0: 5716 71bd 9c28 c8bb 6a0a 0ebd 12d1 4fbd
00000100: 56f9 aa3d df2b abbd a038 2fbd 6b6b 15bd
00000110: 594a bd3d cd27 863d e093 043d a5d2 1c3d
00000120: ddef 52bd e345 e03c 7e8d a33c 31ac cb3d
00000130: ee6a a4bd 0c00 babd a038 92bd 4a8d 643d
00000140: 91b2 333d f342 b2bd 9073 4bbd a4b0 973d
00000150: 2512 9dbd 413f 833d 723c 943b 55a6 7a3d
00000160: 5850 c23d 26dc 3abd eaca e4bb 9a68 5e3d
00000170: 70ac 373d d244 313d 9db8 ac3d 804c f33c
00000180: 4ce0 893d 574d b9bc e19d 623c 4178 ce3d
00000190: facd 3dbd 9ebf b83c a4d9 b73d 1aa1 8fbd
000001a0: 5f77 2bbc f722 043a 942e 313d 0d33 bbbd
000001b0: e835 bcbc c918 68bd f8ef f23c d4de 11bd
000001c0: 0775 3e3d b696 9f3a 85d1 ad3d c316 323d
000001d0: 6b86 fcbc fe9e 9d3d 3852 b53d 0ae4 293d
000001e0: 2fc6 be3d 91a5 4e3d bca9 96bd 9017 00bd
000001f0: 8d2a b33c 78df 91bc 225f d6bb e5ef c1bd
00000200: f44b 883d 0559 25bd a63d afbd cc35 12bd
00000210: 8bf8 ebbc 1200 de3c 6409 5c3c d11f a6bd
00000220: 06b2 d63c 44e3 aa3d 8a2b 973d 46e8 cdbc
00000230: e78e 1c3d da91 4dbc a9a5 f83c 2e50 adbd
00000240: 248f c0bd 7c9b 3b3d 553c c1bd 9cb7 543d
00000250: 9f27 17bd 8213 8fbd 8e1c 133d e9cb 9ebc
00000260: 7626 863d 5eef 8dbd 383a 33bd 2997 11bd
00000270: 627a d53c 96b5 4cbd f57d adbd cc77 40bc
00000280: 0284 d6bd 6409 8dbc 21c2 51bd 99a9 2fbd
00000290: 7d49 e23a ce80 693c 7478 7c3d 574b 8abd
000002a0: a295 8dbd d7e5 813d a50e 2c3c b82d 133d
000002b0: 61b1 1f3d c376 b53c 5e78 5e3d 0dd8 a1bc
000002c0: 7bd8 bb3d 2e17 123d 240b db3c c71e 483d
000002d0: 42df 78bd f7a8 2cbc 0d64 953d 4c6d 87bd
000002e0: d0d0 b73d acf7 17bc 882e c7bd 6bd6 20bd
000002f0: 0a99 153d 8d30 823d a689 0abc d170 5ebd
00000300: c4de 1dbd 5b71 c5bc b567 283b 6352 ba3d
00000310: a7f0 713d 9495 2c3d 7fec 063d 45b7 b73d
00000320: bc89 c8bc ea82 9a3c 2284 efbc 9a8a aebd
00000330: 0071 a33d 3cbd e33c e1ab bb3c 2afc 2dbd
00000340: 465e 3b3d 4492 293c 81d6 5abd f988 2abd
00000350: d780 8f3d fab3 8bbc 8dcd ff3c f2a6 81bd
00000360: fb7b 413d 5e26 113d 839d 0b3c 28b3 663c
00000370: c9dc 463d 4117 bd3d b5d7 b03d f227 bf3d
00000380: d69c 8a3d f44f 863d 410f 0a3d 31b0 b9bc
00000390: d1f8 5abc 3b11 cc3d 8993 22bd 93c9 5a3d
000003a0: 81f3 7dbd 7bae 903d fa19 aabd ce24 c23d
000003b0: 2c5a 28bc 87e3 34bc 0125 fc3c 41ab f43c
000003c0: 8880 c63c cbff c93c 9912 a53d ce06 28bd
000003d0: 3544 d13d 8b58 3b3d b5be 1e3d 3051 fabc
000003e0: 4759 56bd adb1 47bc 1333 95bd 207d ff3c
000003f0: 9544 c83c 1e6d bebc d3f2 85bd fdca 62bc

bias f4 [50]
-0.02402942 -0.008478368 -0.08283245 0.058619257 0.10729584 -0.06711874 0.10631687 -0.0012027462
-0.030721225 0.08835213 0.049305968 -0.031397536 0.050461516 0.02790114 0.016534157 0.083465055
-0.07862045 -0.03317947 -0.017884893 0.04009663 0.015696064 -0.062449146 0.08789989 0.021382766
-0.102554984 0.02821617 -0.06372487 -0.043176245 -0.028329814 0.0045474255 -0.056298986 -0.10247485
0.048004825 -0.014698319 -0.06902315 -0.09794206 -0.042441107 0.07339977 -0.031616475 0.048058055
0.026269706 0.00588668 0.037191648 0.01382615 0.032531492 -0.061852727 -0.043300066 0.08055599
0.053866636 -0.009890343
00000000: 59d9 c4bc dae8 0abc 0fa4 a9bd bf1a 703d
00000010: ecbd db3d 8d75 89bd a9bc d93d 77a5 9dba
00000020: 14ab fbbc f6f1 b43d 0ef5 493d b49a 00bd
00000030: bcb0 4e3d ee90 e43c a472 873c baef aa3d
00000040: c203 a1bd 32e7 07bd 5783 92bc 5d3c 243d
00000050: 0895 803c adca 7fbd dc04 b43d e92a af3c
00000060: 5908 d2bd 9925 e73c 2f82 82bd 93d9 30bd
00000070: ed13 e8bc 9202 953b c499 66bd 56de d1bd
00000080: b5a0 443d 38d1 70bc 025c 8dbd d995 c8bd
00000090: bad6 2dbd 9e52 963d 4780 01bd 86d8 443d
000000a0: 9133 d73c 0de5 c03b 4556 183d 1487 623c
000000b0: be3f 053d 4959 7dbd 695b 31bd 8afa a43d
000000c0: 43a3 5c3d 1b0b 22bc

weight f4 [1, 50]
-0.05379572 0.07102177 -0.115662746 -0.032187063 -0.028426971 0.11906337 -0.01837053 0.12564126
0.12380798 -0.08605503 0.04979487 -0.082543954 -0.052049164 0.002391368 0.06825957 -0.14621837
-0.07096208 0.12368264 -0.0024122621 -0.101164594 0.12119291 0.062273927 -0.04859208 0.03506772
0.06958254 0.0976073 0.12882875 -0.1063667 -0.120572306 0.02669046 0.038213905 0.070239335
-0.12161229 0.06613495 0.09786222 0.12431805 0.066449955 -0.041665617 -0.00072782615 -0.116128586
0.07063055 0.12502639 0.011472638 0.1205875 0.09330241 0.047633544 -0.12078062 0.015560805
0.089958265 0.03776139
00000000: e758 5cbd dd73 913d 97e0 ecbd 95d6 03bd
00000010: aedf e8bc 7fd7 f33d cb7d 96bc 1aa8 003e
00000020: 0a8f fd3d 9f3d b0bd b5f5 4b3d ce0c a9bd
00000030: 8131 55bd 7fb8 1c3b accb 8b3d 45ba 15be
00000040: 9154 91bd 534d fd3d 0b17 1ebb 622f cfbd
00000050: fd33 f83d f212 7f3d 7d08 47bd 2ba3 0f3d
00000060: 4a81 8e3d 56e6 c73d afeb 033e c9d6 d9bd
00000070: 9dee f6bd f4a5 da3c 2f86 1c3d a4d9 8f3d
00000080: dd0f f9bd c371 873d fd6b c83d 769a fe3d
00000090: ea16 883d 91a9 2abd 96cb 3eba d3d4 edbd
000000a0: c0a6 903d eb06 003e bbf7 3b3c 94f6 f63d
000000b0: 5515 bf3d 641b 433d d45b f7bd bff2 7e3c
000000c0: 0a3c b83d b0ab 1a3d
