client/model.pth (torch, 74932 bytes, 5 tensors)

weight f4 [100, 125]
0	0x3d5f047f	0.054447647
1	0xbd3483ad	-0.04407089
2	0xbd10e5d2	-0.035375424
3	0x3c849fe4	0.016189523
4	0xbdb133cb	-0.08652457
5	0xbb9dd812	-0.0048170174
6	0x3d80b39f	0.0628426
7	0xbd8d68e9	-0.06904776
8	0x3db651d0	0.08902323
9	0xbe09fcb5	-0.13475306
10	0xbdc12a67	-0.09431916
11	0xba82f754	-0.0009991922
12	0x3d1a1be2	0.037624247
13	0xbd99190d	-0.07475481
14	0x3dc43764	0.095808774
15	0x3bb12077	0.0054054814
16	0xbd0cd881	-0.03438616
17	0xbd88225c	-0.066471785
18	0xbd776bec	-0.060405657
19	0xbd8269b9	-0.06367821
20	0x3de35590	0.11100304
21	0x3d836cb2	0.06417216
22	0xbdb016d1	-0.08598102
23	0xbd2518b8	-0.040306777
24	0xbdc3f487	-0.09568124
25	0x3d8b1bf1	0.06792439
26	0x3cd4fdf0	0.025999993
27	0xbd00170f	-0.03127199
28	0x3da4c119	0.08044643
29	0x3d17cc51	0.037060086
30	0x3de784b6	0.113046095
31	0xbcb53f7a	-0.022124995
32	0xbd731904	-0.05935003
33	0x3da54b5d	0.08071015
34	0x3cd397f8	0.0258293
35	0x3bfb4524	0.0076681543
36	0xbd26f39d	-0.04075967
37	0x3d80d497	0.06290548
38	0xbcb4d2fa	-0.022073258
39	0xbd049c76	-0.032375775
40	0x3cedf446	0.029047143
41	0x3d5f04fb	0.05444811
42	0xbb3f106d	-0.0029154078
43	0x3d243ebf	0.0400989
44	0xbd9bd283	-0.07608511
45	0xbd9db77c	-0.077010125
46	0x3da02dbc	0.07821223
47	0x3c4b4754	0.012407143
48	0xbc74f8f2	-0.014951931
49	0x3d272d95	0.040814955
50	0xbc4677f6	-0.012113562
51	0xbb9e52f1	-0.0048316647
52	0xbb3a3e50	-0.0028418489
53	0xbd9f1842	-0.07768299
54	0x3d2a88f9	0.041634534
55	0xbc74938f	-0.014927759
56	0xbc93a29c	-0.018021874
57	0x3c8b61ad	0.017014349
58	0x3c78cd1c	0.015185621
59	0x3cba36f8	0.02273129
60	0xbc8d6104	-0.017258175
61	0xbd071066	-0.032974623
62	0x3dc175ba	0.09446283
63	0x3d12b7f3	0.03581996
64	0xbda9bca5	-0.08287934
65	0x3ccdf35b	0.025140455
66	0x3dad3025	0.084564485
67	0x3c942593	0.018084323
68	0x3d85add2	0.06527294
69	0x3c9a8532	0.01886234
70	0x3d617c8a	0.05505041
71	0x3d9de5fa	0.0770988
72	0x3d04b4d9	0.032399032
73	0xbd8a65b6	-0.06757681
74	0x3df74b4a	0.12074907
75	0x3d160717	0.036627855
76	0xbce0f422	-0.027460162
77	0x3cdf9ee4	0.027297445
78	0xbd760b63	-0.060069453
79	0xbd33e20e	-0.043916754
80	0x3d696a45	0.056986112
81	0x3d824aa8	0.06361896
82	0x3d9b702c	0.075897545
83	0xbc36fccb	-0.011168669
84	0x3c3a7f88	0.011382945
85	0xbd804e73	-0.06264963
86	0x3dbf7d52	0.09350075
87	0x3d8053d1	0.06265987
88	0xbe0b3e30	-0.13597941
89	0xbcdfb198	-0.027306363
90	0xbda526b7	-0.08064025
91	0xbcc5ebd3	-0.024160301
92	0x3d1a2e67	0.03764191
93	0x3d9367fb	0.07197567
94	0xbca872eb	-0.02056261
95	0xbc86d323	-0.0164581
96	0x3d8f25ca	0.069896296
97	0x3c05b43c	0.008160647
98	0xbd469d19	-0.048489664
99	0x3d97fadc	0.074208945
100	0x3d7e5ebc	0.062102064
101	0x3c3d926a	0.011570552
102	0x3d9d9690	0.07694733
103	0xbd89ec21	-0.06734491
104	0x3d7d46a3	0.061834943
105	0x3d8437b1	0.06455935
106	0xbc14bc59	-0.009078109
107	0x3d42dbfd	0.04757308
108	0x3d9501a8	0.072757065
109	0x3dbf2b6f	0.09334456
110	0xbd20c65c	-0.03925167
111	0xbc920a19	-0.01782708
112	0x3cc2fbe3	0.02380175
113	0xbcbdca93	-0.023167884
114	0x3d791c42	0.060817964
115	0xbd19426c	-0.03741686
116	0xbdc08e6d	-0.094021656
117	0x3d72dee5	0.0592946
118	0xbd29c1bc	-0.041444525
119	0x3db96daf	0.090541236
120	0xbd98a737	-0.07453769
121	0xbdde33f8	-0.10849756
122	0x3daf1ce0	0.08550429
123	0x3c8b873f	0.017032264
124	0xbd7edbd6	-0.06222137
125	0x3c957ba6	0.018247437
126	0xbd5434fb	-0.05180834
127	0xbdd7903d	-0.10525558
128	0x3c950af3	0.018193698
129	0x3d283f96	0.041076265
130	0x3d8ceafe	0.06880759
131	0xbd83b90b	-0.064317785
132	0x3d914ecf	0.0709511
133	0xbd231745	-0.039817113
134	0x3c1b77ed	0.009489042
135	0xbd5b121f	-0.05348408
136	0xbd409ec5	-0.047026414
137	0x3a36e600	0.00069770217
138	0xbc315244	-0.010822836
139	0x3c4453a2	0.01198283
140	0xbd8374e9	-0.06418783
141	0x3ca75431	0.020425888
142	0x3befa0eb	0.007312884
143	0x3d40b9b2	0.047052093
144	0xbd05eb97	-0.03269538
145	0x3d3be666	0.045874022
146	0xbc2aecd7	-0.010432444
147	0x3d932418	0.07184619
148	0xbdc76d4d	-0.09737644
149	0xbd6d9763	-0.0580057
150	0xbd95c2d9	-0.07312555
151	0xbd987b55	-0.07445399
152	0xbcadc651	-0.021212729
153	0x3c30e873	0.010797608
154	0x3dd088fc	0.10182378
155	0x3e222dcc	0.15837783
156	0xbd5ad0e4	-0.05342187
157	0xbd8c5aa6	-0.06853227
158	0xbd7410f1	-0.05958647
159	0x3df07965	0.11741904
160	0x3c8c45d6	0.017123144
161	0x3c287599	0.010281944
162	0x3dd8c3f9	0.10584254
163	0x3d6d0955	0.057870228
164	0xbd5c2ad4	-0.05375178
165	0xbd85d477	-0.06534665
166	0xbdb45e0a	-0.08806999
167	0xbdb1acdd	-0.08675549
168	0xbdb7f193	-0.089816235
169	0xbce006f2	-0.027347062
170	0x3d4f1219	0.05055437
171	0xbd53fe0f	-0.05175596
172	0xbd94347a	-0.072365716
173	0x3d949d60	0.072565794
174	0xbd4dc32b	-0.050234955
175	0xbdb9b1da	-0.090671256
176	0x3dafc61f	0.085827105
177	0xbcd09237	-0.025460346
178	0xbcdb6f75	-0.026786545
179	0x3d9bf87a	0.076157525
180	0x3c120e18	0.008914493
181	0x3d02406e	0.031799726
182	0xbcb21d53	-0.021742499
183	0x3cf69758	0.030101463
184	0x3b12a0b0	0.002237361
185	0x3d85f785	0.06541351
186	0xbd50aba8	-0.050944954
187	0x3d6a8881	0.057259087
188	0xbd2a25fd	-0.041540135
189	0x3d7d13a2	0.0617863
190	0x3db10395	0.08643261
191	0x3db014b6	0.085977
192	0xbdecf967	-0.11571007
193	0x3d0374f4	0.032093957
194	0x3d2e4cd4	0.042553738
195	0x3d0245a4	0.031804696
196	0xbb4c48aa	-0.003117124
197	0xbd597833	-0.053093147
198	0x3cdcf9df	0.026974617
199	0xbca089fe	-0.01959705
200	0x3da09410	0.07840741
201	0x3cb82dc9	0.02248277
202	0xbd068ecb	-0.03285102
203	0xbbecfa6f	-0.0072320024
204	0x3d347436	0.04405614
205	0x3c8c79d4	0.017147936
206	0xbcf2e575	-0.02965043
207	0xbc9ab2cb	-0.018884083
208	0x3d0e4482	0.034733303
209	0x3d0b8a0c	0.0340672
210	0x3c838956	0.016056698
211	0xbd2dd450	-0.042438805
212	0xbce04ce2	-0.02738041
213	0x3d8251ab	0.06363233
214	0x3b331080	0.0027323067
215	0xbcda4afa	-0.02664708
216	0x3dad481f	0.08461022
217	0x3b229342	0.002480701
218	0x3ce2bd89	0.027678268
219	0xbd8cdffc	-0.06878659
220	0x3d5e279c	0.054236993
221	0x3c32fb2e	0.010924144
222	0x3d4fb581	0.050710205
223	0xbd9d79ec	-0.076892704
224	0x3d2fea9c	0.04294835
225	0x3d22f987	0.03978875
226	0x3da3c050	0.07995665
227	0xbd019015	-0.031631548
228	0xbd3895ee	-0.04506486
229	0xbd275251	-0.040849987
230	0xbdbbea8c	-0.09175596
231	0x3bf4c933	0.007470274
232	0xbd3c3ce8	-0.045956522
233	0x3d003973	0.031304788
234	0xbd5be1c7	-0.053682115
235	0x3d1684d3	0.036747765
236	0x3dc1ed7b	0.09469124
237	0x3cea76a2	0.028621022
238	0x3d8856ef	0.06657206
239	0x3d258f80	0.040420055
240	0x3dd9ef58	0.10641354
241	0x3ca5e684	0.02025152
242	0x3ddffd62	0.10937001
243	0x3c3cc69c	0.011521962
244	0xbd1c115c	-0.038102493
245	0x3d3a7c73	0.04552884
246	0xbcd4336f	-0.025903432
247	0x3d36ea85	0.04465725
248	0xbd854482	-0.065072075
249	0x3cc8548e	0.024454381
250	0x3cfdd8df	0.030987201
251	0x3de17840	0.11009264
252	0x3d1f131b	0.03883658
253	0x3dde2a92	0.108479634
254	0x3df8b95c	0.121447295
255	0x3cb4316f	0.021996228

bias f4 [100]
0	0x3e018888	0.12649739
1	0x3d9e1934	0.07719651
2	0xbda2c569	-0.07947809
3	0x3d934b52	0.071921006
4	0xbd0fd972	-0.03511948
5	0x3caf82fc	0.021424763
6	0x3d923f8b	0.07141026
7	0x3cc2674e	0.0237309
8	0x3e111302	0.14167407
9	0x3d799c83	0.060940277
10	0xbd783ae8	-0.060603052
11	0x3dde459e	0.10853122
12	0xbd7c6337	-0.061618056
13	0x3d17434a	0.036929406
14	0x3cd51ea8	0.026015595
15	0x3d5acc71	0.053417627
16	0x3dc5e312	0.09662451
17	0xbce32320	-0.02772671
18	0x3df29efe	0.118467316
19	0x3d1a0f37	0.037612166
20	0xbb75a669	-0.0037483221
21	0x3d848c46	0.064720675
22	0x3db6a19e	0.08917545
23	0x3d89a434	0.067207724
24	0xbd8442cb	-0.06458052
25	0x3d88cd9e	0.06679843
26	0x3c3f25dc	0.011666741
27	0xbda4c884	-0.08046058
28	0xbc192f98	-0.009349726
29	0x3dc8a959	0.097979255
30	0x3d9356db	0.07194301
31	0x3d7d5ac8	0.061854154
32	0xbca38275	-0.019959668
33	0xbcc58529	-0.024111347
34	0x3d1c4917	0.03815564
35	0xbbb0603a	-0.005382565
36	0xbcb9e08d	-0.022690082
37	0xbc96a6bf	-0.018390058
38	0xbccf5362	-0.025308315
39	0x3dc2eceb	0.09517845
40	0x3dbaf226	0.091282174
41	0xbd3a8140	-0.04553342
42	0xbca9a4bf	-0.02070844
43	0x3d37d8bf	0.04488444
44	0x3d5f6ff1	0.054550115
45	0xbd238666	-0.039923094
46	0x3db1636c	0.08661541
47	0x3d0395b0	0.032125175
48	0x3cb8dec6	0.022567164
49	0xbd14c0fa	-0.03631685
50	0xbdbc5a80	-0.09196949
51	0x3d937ab4	0.07201138
52	0x3d3d12ce	0.04616051
53	0x3dfbbb4b	0.12291583
54	0x3c3a515d	0.011371938
55	0xbc9ba395	-0.0189989
56	0xbcc9105d	-0.024543935
57	0xbd838572	-0.06421937
58	0xbd1e9052	-0.038711853
59	0xbd387e9b	-0.045042615
60	0xbd604de9	-0.0547618
61	0xbc530c89	-0.012881407
62	0xbcf1d9db	-0.029522827
63	0xbd486493	-0.04892404
64	0x3e035763	0.12826304
65	0x3d3a9e69	0.045561228
66	0xbc8644e5	-0.016390273
67	0x3d90f50c	0.07077989
68	0x3dd0c0c5	0.10193018
69	0x3dac5a4c	0.0841566
70	0xbd40afe7	-0.047042754
71	0x3c64c2f2	0.013962494
72	0x3cd937c4	0.026515849
73	0xbd1d4dd9	-0.03840432
74	0x3dab5cfa	0.08367343
75	0x3d7d2ca3	0.061810147
76	0xba85fad4	-0.0010221847
77	0x3db08fa2	0.08621146
78	0x3dba738e	0.091040716
79	0x3d808125	0.06274632
80	0x3cdcf553	0.026972448
81	0xbd5ea5b3	-0.05435724
82	0x3dca7758	0.09886044
83	0x3d172f78	0.036910504
84	0xbd5ecb9f	-0.054393407
85	0xbd3d9247	-0.04628208
86	0x3dbba7e9	0.09162886
87	0x3d563fbd	0.05230688
88	0x3da6a6b3	0.08137264
89	0x3bd12ed3	0.0063837557
90	0x3c4699b0	0.012121603
91	0x3debb067	0.115082555
92	0x3db94117	0.09045618
93	0x3de2798e	0.11058341
94	0x3d84708c	0.06466779
95	0xbc1342d6	-0.008988103
96	0x3c49af7e	0.012309907
97	0xbd301125	-0.0429851
98	0x3d5da64e	0.05411368
99	0x3c3c1104	0.011478666

weight f4 [50, 100]
0	0x3df3e34b	0.11908587
1	0x3d942049	0.072327204
2	0x3c8dfb87	0.017331852
3	0x3c8dc025	0.017303536
4	0x3d4519aa	0.04812018
5	0x3ca2a7f9	0.019855486
6	0xbd8bc085	-0.068238296
7	0x3d14de52	0.036344834
8	0x3deb7e30	0.11498678
9	0x3d3da316	0.04629811
10	0x3a95fb6e	0.001144273
11	0x3e02223b	0.1270837
12	0xbdbef247	-0.093235545
13	0x3dc78d4d	0.09743748
14	0x3da81329	0.082067795
15	0x3dcff00c	0.10153207
16	0x3d892829	0.06697113
17	0x3bfdeb9a	0.007749033
18	0x3dabd9e8	0.08391172
19	0x3d4d63e9	0.05014411
20	0x3ddd37ec	0.10801682
21	0x3d452ff5	0.04814144
22	0x3dcf57e2	0.10124184
23	0x3ba60a1c	0.005067123
24	0xbd8f6b3a	-0.07002874
25	0x3c8747fa	0.016513813
26	0x3d15e67f	0.03659677
27	0x3d86d7fd	0.06584165
28	0x3dc5f989	0.09666736
29	0x3cc8b9cc	0.024502657
30	0x3d8f6226	0.07001142
31	0xbc8f415c	-0.01748722
32	0xbce81f55	-0.028335253
33	0xbd2519f8	-0.04030797
34	0x3d95ec2a	0.07320435
35	0x3b1333dc	0.002246133
36	0x3dc0da71	0.094166644
37	0x3df99c97	0.1218807
38	0x3e0601dd	0.13086648
39	0xbd0e2c8a	-0.034710445
40	0x3df7153d	0.12064598
41	0xbd94270e	-0.072340116
42	0x3dbbe120	0.091737986
43	0x3da9daaa	0.0829366
44	0x3dfa070a	0.12208374
45	0xbd9e0fa0	-0.07717824
46	0x3da150dc	0.07876751
47	0xbd6eed96	-0.05833205
48	0xbcd482ce	-0.025941279
49	0x3d03740b	0.03209309
50	0xbd68f279	-0.056871865
51	0x3de66bda	0.1125104
52	0xbc3bfe22	-0.011474164
53	0x3d927872	0.07151879
54	0x3de11aef	0.10991465
55	0x3d6cd4a6	0.057819985
56	0x3c5f4c80	0.013629079
57	0x3daef7e5	0.08543376
58	0xbcebd18d	-0.028786445
59	0x3db2b990	0.087267995
60	0xbd8eb924	-0.069689065
61	0x3dc92876	0.098221704
62	0x3e0c161b	0.13680308
63	0x3d3e53e2	0.046466716
64	0x3dfc0081	0.123047836
65	0xbd3bb1ae	-0.045823745
66	0x3e05d76e	0.13070461
67	0x3dbbef1c	0.09176466
68	0xbcc220f0	-0.023697346
69	0x3deeefc3	0.11666825
70	0x3b9c32fd	0.0047668205
71	0x3de0b49e	0.1097195
72	0xbc8a0bf9	-0.016851412
73	0xbce2d8ff	-0.027691362
74	0x3e0110b8	0.12604034
75	0xbcdb40b3	-0.02676425
76	0xbbf8e701	-0.007595897
77	0x3d7518bf	0.059838053
78	0x3c9d560f	0.019206075
79	0xbd632948	-0.05545929
80	0x3b84a23d	0.0040476606
81	0xbd1d1c89	-0.03835729
82	0x3de07665	0.10960082
83	0x3d06193b	0.032738905
84	0x3c56de80	0.013114572
85	0x3dbf441f	0.09339165
86	0x3d725fbd	0.059173334
87	0x3c81911c	0.015816264
88	0x3bef2c4b	0.0072989813
89	0xbd3caf02	-0.046065338
90	0xbd10a989	-0.03531793
91	0x3ce1219a	0.027481843
92	0x3c8a06ec	0.016849004
93	0xbceb6fc4	-0.028739817
94	0xbd28fd78	-0.04125735
95	0xbc991b8e	-0.018689897
96	0xbd5b2ca6	-0.053509377
97	0xbdcbaa9c	-0.099446505
98	0x3dde9eec	0.10870156
99	0xbbb19f4f	-0.0054206024
100	0x3dee84c5	0.116464175
101	0x3e051af9	0.1299857
102	0x3dd2df37	0.10296481
103	0x3dd4296a	0.103594616
104	0x3d88887c	0.06666657
105	0x3dac3c9e	0.08409999
106	0x3bfd2760	0.007725641
107	0xbd31870d	-0.043341685
108	0x3ddd8436	0.10816233
109	0x3d53abfa	0.05167768
110	0xbcd275b3	-0.025690889
111	0xbced870d	-0.028995061
112	0x3dbda2dc	0.092595786
113	0x3d13b574	0.03606172
114	0x3c51000b	0.012756358
115	0x3db62832	0.088943854
116	0xbccbfba1	-0.02490026
117	0x3d725c9b	0.059170347
118	0x3d975057	0.073883705
119	0xbbac1731	-0.005251788
120	0x3d2ff2f4	0.042956308
121	0x3d0a2e27	0.03373542
122	0x3c54022b	0.01293997
123	0x3e0b2e54	0.13591892
124	0xbd251756	-0.040305458
125	0x3dc8c52a	0.09803231
126	0x3cb258fd	0.021770949
127	0xbd180ee0	-0.03712356
128	0x3c8ec8f5	0.017429808
129	0xbd0bbe1b	-0.034116846
130	0x3e07fc88	0.13279927
131	0xbd838173	-0.06421175
132	0x3dd79d52	0.10528053
133	0x3ceced02	0.028921608
134	0x3e01b5bb	0.12666981
135	0x3d33e3fb	0.04391859
136	0x3d851bd1	0.06499446
137	0x3d2fc859	0.042915676
138	0x3d9e691a	0.0773489
139	0xbcca9eed	-0.024733985
140	0xbc7de89b	-0.015497352
141	0xbc4fe1b9	-0.012688094
142	0xbbe240c7	-0.0069046947
143	0xbd02bd99	-0.031919096
144	0xba11814e	-0.0005550579
145	0x3d8d1baf	0.06890046
146	0x3e0d6847	0.1380931
147	0xbdc647bd	-0.09681652
148	0x3d6b8b1c	0.057505712
149	0x3d505e14	0.05087097
150	0xbd20996b	-0.03920881
151	0x3d1d9f4d	0.038482
152	0x3d7bf67e	0.06151437
153	0x3c985938	0.01859723
154	0x3d514cc3	0.051098596
155	0x3de9e408	0.11420447
156	0xbd847a30	-0.06468618
157	0x3cf44d6a	0.02982207
158	0x3d5eaa31	0.054361526
159	0x3da2a1bd	0.079410054
160	0xbcd89d66	-0.02644224
161	0xba08af06	-0.0005214069
162	0x3e07688e	0.13223478
163	0x3d5170ba	0.051132895
164	0xbd72fa2f	-0.059320625
165	0x3c527b43	0.012846771
166	0x3d2377b1	0.03990907
167	0x3dcec769	0.10096628
168	0x3d8999d1	0.06718791
169	0x3c987f6d	0.018615449
170	0xbc1b617c	-0.009483691
171	0x3deb12d8	0.114782035
172	0xbd62cc6c	-0.055370733
173	0x3d1b0f96	0.03785666
174	0x3cefd859	0.029277967
175	0x3c36db65	0.011160706
176	0xbda5a925	-0.080889024
177	0x3ca394c2	0.019968394
178	0xbc958907	-0.018253816
179	0xbc92a82b	-0.017902454
180	0x3d625ec6	0.055266164
181	0xbd5443d3	-0.051822495
182	0xbd99fa66	-0.07518463
183	0x3dbc17c3	0.0918422
184	0xbc954c1b	-0.018224766
185	0xbd42f923	-0.047600877
186	0x3da718ea	0.08159049
187	0x3d799b94	0.060939386
188	0x3dcbc3bf	0.09949445
189	0x3e05aa00	0.13053131
190	0xbda79af6	-0.08183853
191	0x3d147f9c	0.03625451
192	0x3c5c2e96	0.013438841
193	0x3dd0c859	0.10194463
194	0xbd54dfd6	-0.05197128
195	0xbd51ff02	-0.051268585
196	0xbde1a32a	-0.11017449
197	0xbda5d09c	-0.0809643
198	0x3dfe2881	0.12410069
199	0x3d942801	0.07234193
200	0xbc8b907b	-0.017036667
201	0x3ddbe005	0.10736088
202	0xbd694ba7	-0.056956913
203	0xbd868632	-0.065685645
204	0xbcf83106	-0.030296814
205	0x3db2b0a5	0.087250985
206	0xbd9748d4	-0.07386938
207	0x3d0e9f37	0.034819808
208	0x3af6e542	0.0018836635
209	0x3dde565b	0.10856315
210	0xbbc6a0ab	-0.0060616336
211	0x3d629192	0.055314608
212	0x3ccd07e9	0.025028186
213	0xbc9810ec	-0.018562756
214	0x3d60764f	0.054800328
215	0x3dca9061	0.09890819
216	0xbc33c0b4	-0.010971237
217	0x3cf93389	0.030420082
218	0x3db4433c	0.088018864
219	0x3da5f278	0.08102888
220	0x3e024fcd	0.12725754
221	0x3dc09858	0.09404057
222	0x3da53280	0.08066273
223	0xbbf8e209	-0.007595305
224	0x3cd05f41	0.025436046
225	0x3da71033	0.08157387
226	0x3d67dd0a	0.056607284
227	0xbd913869	-0.070908375
228	0x3dfd4438	0.12366527
229	0xbd7b40f7	-0.061341252
230	0x398825a3	0.00025967983
231	0xbd28a71f	-0.041175004
232	0xbbc54d9b	-0.006021214
233	0x3bfe0225	0.0077517205
234	0x3d5bde31	0.053678695
235	0xbdb4f464	-0.08835676
236	0x3d2b9422	0.041889317
237	0x3cd20eb7	0.025641782
238	0xbd183a13	-0.03716476
239	0x3e02904d	0.12750359
240	0xbd72bdde	-0.059263103
241	0x3d8c7745	0.06858686
242	0x3df0b3b2	0.11753024
243	0xbd598d20	-0.053113103
244	0x3c53e277	0.012932411
245	0xbd29d716	-0.041464888
246	0x3dcae8f4	0.099077135
247	0x3d673003	0.056442272
248	0x3df80343	0.12109997
249	0x3d0695ac	0.032857582
250	0x3cd69614	0.02619461
251	0x3ddb6821	0.107132204
252	0xbd80c93c	-0.062883824
253	0xbcfa2f0b	-0.03054001
254	0x3d6f1ffc	0.058380112
255	0x3d36cf43	0.044631254

bias f4 [50]
0	0x3dd9c68d	0.10633574
1	0x3dc35a4c	0.09538707
2	0xbd9424b4	-0.07233563
3	0x3c66412d	0.014053625
4	0x3d170e27	0.03687873
5	0x3dc01e27	0.09380751
6	0x3ded6ea1	0.115933664
7	0xbc9e3366	-0.019311618
8	0xbc1b20d4	-0.009468276
9	0x3d2df15e	0.042466514
10	0x3d97776f	0.07395827
11	0x3c2208a3	0.0098897545
12	0x3d309721	0.043112878
13	0x3db7c258	0.08972615
14	0x3d952f97	0.07284468
15	0x3d04a53c	0.032384142
16	0x3db56b2a	0.088583305
17	0xbd2972d2	-0.041369267
18	0xbd809e47	-0.06280189
19	0x3c5db53e	0.013531981
20	0x3de00a7f	0.10939502
21	0x3dc0c231	0.09412039
22	0x3cc08629	0.023501473
23	0x3dcab319	0.098974414
24	0xbd814874	-0.063126475
25	0x3db93fa0	0.09045339
26	0xbd7fbb52	-0.062434502
27	0x3dd3633e	0.10321663
28	0x3d4927aa	0.049110092
29	0xbdaa2159	-0.08307142
30	0xbcad2f85	-0.021140823
31	0xbdfbdd35	-0.12298051
32	0x3d81909a	0.06326409
33	0x3db72ab5	0.089436926
34	0xbc83afda	-0.016075063
35	0x3dc98e7d	0.098416306
36	0xbd732496	-0.059361063
37	0x3cc10b33	0.02356491
38	0x3d2b42a0	0.041811585
39	0x3cb30b50	0.02185598
40	0x3dc06127	0.0939353
41	0x3dc920b4	0.09820691
42	0xbd7a487f	-0.061104294
43	0x3d3d0597	0.04614791
44	0xbd863ade	-0.06554197
45	0x3d085879	0.0332875
46	0xbdc32970	-0.09529388
47	0x3e046849	0.12930407
48	0xbd719bb1	-0.05898637
49	0x3e0189bd	0.12650199

weight f4 [1, 50]
0	0xbe2b101c	-0.16705364
1	0xbe2b500c	-0.16729754
2	0xbd9c1346	-0.076208636
3	0xbdbae044	-0.091248065
4	0x3d7c5607	0.06160548
5	0xbd362c77	-0.044476
6	0xbd5c0aac	-0.053721115
7	0x3d1b6747	0.03794029
8	0x3dee7112	0.1164266
9	0xbe39cebe	-0.18145272
10	0x3e1da9fd	0.15396877
11	0xbe3791a7	-0.17926656
12	0xbe032638	-0.12807548
13	0xbdbc1bcd	-0.0918499
14	0xbcf68b1d	-0.030095631
15	0xbdc3cb6a	-0.095602825
16	0x3d17ecc2	0.037091024
17	0xbd908ef3	-0.070585154
18	0x3d445fce	0.04794293
19	0x3e279c6b	0.16368262
20	0xbe30e0a6	-0.17273197
21	0x3d99710a	0.074922636
22	0x3ddec812	0.10878004
23	0xbd1c283e	-0.038124315
24	0x3d983b87	0.07433229
25	0xbe3936ab	-0.1808726
26	0xbe04a2fa	-0.12952796
27	0xbdc15b01	-0.09441186
28	0xbdfd53e2	-0.12369515
29	0x3d927871	0.071518786
30	0xbe242e44	-0.16033274
31	0x3aaf10fb	0.0013356501
32	0xbe118052	-0.14209107
33	0x3daafded	0.08349214
34	0xbd28a089	-0.041168723
35	0xbde8f702	-0.11375238
36	0xbd4889ea	-0.04895965
37	0xbdce6251	-0.10077346
38	0x3dc63389	0.09677798
39	0xbdd87dc3	-0.10570862
40	0xbe1f00c4	-0.15527636
41	0xbe101229	-0.14069428
42	0xbd735296	-0.059404932
43	0xbd3d281e	-0.046180837
44	0xbd88528a	-0.06656368
45	0x3e159df0	0.1461103
46	0x3c8a8a26	0.016911577
47	0xbd28f86d	-0.041252542
48	0xbe2bb0a7	-0.16766606
49	0xbda11f35	-0.078672804
