client/model.pth (torch, 170932 bytes, 5 tensors)

weight f4 [100, 365]
0	0xbd3fcb36	-0.046824656
1	0x3c9378bf	0.018001912
2	0x3bbc3b2f	0.00574436
3	0xbd1bb82e	-0.038017444
4	0x3c444852	0.011980133
5	0xbb9fb6f2	-0.0048741037
6	0x3d43b63d	0.047781218
7	0xbca98132	-0.020691488
8	0x3d0c0dcf	0.034192856
9	0xbcff13e4	-0.031137414
10	0x3985c3f5	0.00025513736
11	0x3d3dab2d	0.046305824
12	0xbc9d12b8	-0.019173965
13	0x3d32a7ce	0.043617062
14	0x3ab4242b	0.0013743689
15	0xbba0aa70	-0.0049031302
16	0x3a94692d	0.0011322849
17	0x3c86a6bf	0.016436933
18	0xbc610888	-0.013734944
19	0x3cddb8ac	0.027065597
20	0x3bd0135c	0.006349964
21	0x3c4e4ae1	0.012591095
22	0x3cf2fff5	0.029663065
23	0xbc931470	-0.017954081
24	0xb9ab2d9b	-0.0003264964
25	0x3b3e2658	0.0029014554
26	0x3a814cd9	0.0009864821
27	0xbd482cdc	-0.048870906
28	0xbc723971	-0.014784203
29	0x3b13d164	0.0022555226
30	0x3c515482	0.012776496
31	0xbd4e1b0c	-0.050318763
32	0x3d3c0861	0.04590643
33	0xbd41ff58	-0.047362655
34	0x3b710d30	0.0036781542
35	0x3cd30bf0	0.025762528
36	0x3c2ab0fb	0.010418172
37	0xbc9f6ead	-0.019461954
38	0x3cf4dc5b	0.02989023
39	0x3d192a03	0.03739358
40	0xbb1b69ba	-0.002371414
41	0xbb10b009	-0.0022077581
42	0xbcb79174	-0.022408225
43	0xbd27d8b5	-0.040978152
44	0x3cd7c08a	0.026336927
45	0x3d38d28b	0.045122664
46	0xbaf6eefe	-0.0018839536
47	0x3bb96558	0.005657833
48	0x3d2b1ebc	0.041777357
49	0xbc69a2dd	-0.014260021
50	0xbd312f21	-0.043257836
51	0xbd34efbc	-0.04417394
52	0xbc7a9aed	-0.015295726
53	0xbd42bdda	-0.047544338
54	0xbcb4f1b1	-0.022087904
55	0xbd544436	-0.051822864
56	0xbcb309fe	-0.02185535
57	0x3d090fbd	0.033462275
58	0x3cbb3516	0.022852462
59	0x3b96414f	0.004585422
60	0x3b82b8c8	0.003989313
61	0x3ae10e18	0.0017170338
62	0xbcbb7a93	-0.022885596
63	0xbcc17d70	-0.023619384
64	0x3afaf0f6	0.0019145298
65	0x3d42732d	0.04747312
66	0xbcc59417	-0.024118466
67	0x3cd80490	0.026369363
68	0x3d4f766b	0.05065004
69	0xbcbbd959	-0.022930788
70	0xbba5b371	-0.0050567915
71	0xbd2be353	-0.04196484
72	0xbd1f177c	-0.038840756
73	0x3d517585	0.051137466
74	0x3cadd610	0.021220237
75	0xbb8dcca1	-0.004327372
76	0xbc6ae2ea	-0.014336327
77	0xbd18a490	-0.037266314
78	0xbb10f5ad	-0.002211909
79	0xbca46192	-0.020066056
80	0xbb7bfa6a	-0.003844882
81	0xbd013ea6	-0.031553887
82	0xbd4d4214	-0.050111845
83	0xbcc55502	-0.024088386
84	0x3d2d091a	0.042245008
85	0x3c30a2a3	0.010780963
86	0x3ba37e76	0.0049894406
87	0xbc9b93fe	-0.018991467
88	0x3d1c3628	0.038137585
89	0x3ca92ccc	0.020651244
90	0x3ca0c2bc	0.019624107
91	0xbc7e0a9d	-0.01550546
92	0x3d255a18	0.040369123
93	0x3cbe9c2d	0.02326783
94	0x3cae14f0	0.021250218
95	0xbb0c8e20	-0.0021447018
96	0x3c5dacc0	0.013529956
97	0xbcd8f4f1	-0.026483985
98	0x3ccaae04	0.02474118
99	0xbc31dc9b	-0.010855819
100	0xbc7175f0	-0.014737591
101	0xbd21e330	-0.039523304
102	0x3d443823	0.0479051
103	0xbd4834de	-0.048878543
104	0xbcbc40cb	-0.022980114
105	0xbc8929c2	-0.016743544
106	0xbc86e3ac	-0.016465984
107	0x3c7d239a	0.015450383
108	0xbc91f611	-0.017817529
109	0xbd04aa22	-0.032388814
110	0xbcb0d93d	-0.021587962
111	0xbd405eb1	-0.046965305
112	0xbce7e55e	-0.028307613
113	0x3d364389	0.044498
114	0x3cbfcec9	0.023414033
115	0x3d101fb6	0.035186492
116	0xbc24ca04	-0.01005793
117	0x3d3dbe95	0.04632433
118	0x3ced827b	0.028992882
119	0x3c9ca95e	0.01912373
120	0xbcb95939	-0.022625552
121	0x3d2716f0	0.04079336
122	0xbd1aadc2	-0.037763365
123	0x3c8ba222	0.017045084
124	0x3cd9b631	0.026576133
125	0xbb83ecfc	-0.0040260535
126	0x3a131312	0.00056104467
127	0xbd4ec0ad	-0.05047672
128	0xbaf825c0	-0.0018932149
129	0x3c33bca0	0.010970265
130	0x3c44eda0	0.012019545
131	0x3bbd7e73	0.005782896
132	0x3cbf96ac	0.023387276
133	0xbcb74a21	-0.022374215
134	0xbc25f5c5	-0.010129397
135	0xbd037e96	-0.032103144
136	0xbcbb776c	-0.022884093
137	0xbd16356c	-0.03667204
138	0x3cffa3b5	0.031205991
139	0xbd3d8106	-0.046265624
140	0xbc8f7ef0	-0.017516583
141	0x3d30f75c	0.04320465
142	0x3c73ef30	0.01488857
143	0x3d004d2f	0.031323608
144	0xbcee17ca	-0.029064078
145	0xbd1632fc	-0.036669716
146	0x3c5b4f7a	0.013385648
147	0xbc8668d4	-0.016407408
148	0x3d02a1cf	0.031892594
149	0x3c3487f2	0.01101874
150	0x3d277835	0.040886123
151	0x3d1d14c3	0.038349878
152	0xbccdfc75	-0.025144795
153	0x3ba286c2	0.004959912
154	0x3d21fcf8	0.03954789
155	0x3d2f916a	0.042863287
156	0xbd2d3643	-0.042288076
157	0x3c97b518	0.01851897
158	0x3d2486cf	0.040167626
159	0x3d3bc3c2	0.045840986
160	0x3d01ec63	0.031719577
161	0xbd2259d2	-0.03963644
162	0x3c7547a3	0.014970693
163	0xbb80c13c	-0.0039292853
164	0xbcc2fd94	-0.023802556
165	0xbcf4655f	-0.029833494
166	0x3cba96c3	0.022776967
167	0x3d24b5db	0.040212493
168	0xbd377790	-0.044791758
169	0xbd101dbd	-0.03518461
170	0xbd40c05b	-0.047058444
171	0x3d124e1c	0.035719022
172	0x3c6c5af3	0.014425981
173	0x3cf5149f	0.02991706
174	0x3d00b015	0.031417925
175	0x3ad3de1b	0.0016164215
176	0x3d2de86b	0.04245798
177	0xbd2cead0	-0.042216122
178	0x3c1be99f	0.009516149
179	0x3c26a8fa	0.010172123
180	0xbd477a3e	-0.048700564
181	0x3b20bb61	0.002452575
182	0x3acdfa1c	0.0015714797
183	0xbbcebe37	-0.0063092965
184	0x3d46d689	0.04854444
185	0x3caf58ad	0.021404589
186	0x3c05c96e	0.0081657
187	0xbd10b2a8	-0.03532663
188	0x3cdb5d3e	0.02677786
189	0xbb867483	-0.0041032447
190	0xbd34c015	-0.044128496
191	0x3cf55f56	0.029952686
192	0xbce2cb45	-0.027684817
193	0xbc871bf3	-0.01649282
194	0x3ca45cb0	0.020063728
195	0xbb912ff0	-0.0044307634
196	0x3c186e10	0.009303585
197	0xbc5e1850	-0.013555601
198	0x3d559203	0.0521412
199	0x3d2dfe4d	0.04247885
200	0xbc82988f	-0.015941886
201	0x3c854c0e	0.016271617
202	0xbbed748b	-0.007246559
203	0x3cb18c94	0.021673478
204	0x3c9b58dc	0.01896327
205	0x3cc96b76	0.024587374
206	0xbbfb6542	-0.007671983
207	0xbab2ad09	-0.0013631891
208	0xbd3a161b	-0.045431238
209	0xbd1d0974	-0.038339093
210	0xbbcc6f82	-0.0062388787
211	0xbd017943	-0.031609785
212	0xbd30f1d9	-0.043199394
213	0x3c95db9e	0.018293198
214	0x3a50c6c5	0.0007964189
215	0x3d404185	0.046937484
216	0xbd48cb72	-0.049022146
217	0xbca470a2	-0.020073239
218	0x3c162c42	0.009165825
219	0x3d20c5a6	0.039250992
220	0xbaf8292a	-0.0018933166
221	0xbca4f0ec	-0.020134412
222	0xbce657a7	-0.028117968
223	0xbc28a0d7	-0.010292253
224	0xbd18faec	-0.037348673
225	0x3b557e3d	0.0032576465
226	0x3b3a7624	0.0028451765
227	0x3cc57dba	0.024107803
228	0x3ca16830	0.019703
229	0xbd1ef51b	-0.03880797
230	0xbcb0b601	-0.021571161
231	0x3bd9ddf3	0.006648773
232	0xbc89454e	-0.01675668
233	0xbd075120	-0.03303635
234	0x3d135e1a	0.035978414
235	0xbd07972d	-0.033103157
236	0x3cbc5172	0.022988055
237	0xbb0bbb28	-0.002132127
238	0x3c7dae79	0.015483492
239	0x3bc7a0ee	0.0060921824
240	0x3d324676	0.043524228
241	0xbcde9ffa	-0.027175892
242	0x3d273dbf	0.04083037
243	0xbcdad62c	-0.026713453
244	0x3d172e82	0.036909588
245	0xbd35ad05	-0.044354457
246	0x3d216303	0.039401066
247	0x3ce9cad4	0.028539099
248	0x3c17f38d	0.009274376
249	0xbd0f4626	-0.03497901
250	0x3caee3d2	0.021348868
251	0xbc847a30	-0.016171545
252	0x3d5ef92c	0.054436848
253	0x3cbfd64f	0.02341762
254	0x3d15938f	0.036517676
255	0x3c494970	0.012285575

bias f4 [100]
0	0x3d0ff7ef	0.035148557
1	0x3d5cd29f	0.0539118
2	0x3c1247c7	0.008928246
3	0x3a2be603	0.0006557407
4	0x3d0b72eb	0.03404514
5	0x3d2c5ebb	0.04208253
6	0x3c3285e1	0.010896177
7	0x3d3b8cc4	0.04578854
8	0xbc253fd5	-0.0100860195
9	0x3ccdc2e7	0.02511735
10	0x3d7bec14	0.06150444
11	0x3d32bc92	0.043636866
12	0x3d691ddd	0.056913245
13	0x3cb171f5	0.021660784
14	0x3d4c101d	0.049820054
15	0xbc14cd23	-0.0090821115
16	0x3b0650d0	0.0020494945
17	0xbce88a3e	-0.028386232
18	0x3cc81fc8	0.024429217
19	0xbd00cf95	-0.031447966
20	0x3c4c723f	0.01247841
21	0x3d1556d1	0.036459748
22	0xbc18c223	-0.00932363
23	0x3d417a32	0.047235675
24	0x3c9e43e5	0.019319484
25	0xbcf35785	-0.029704819
26	0xbc9ee874	-0.019397952
27	0x3d368f2d	0.044570137
28	0x3cd4cb51	0.025975855
29	0xbd2b28c8	-0.04178694
30	0x3d4199b2	0.047265716
31	0xbd6371e1	-0.055528525
32	0xbb05a642	-0.0020393287
33	0x3d1e5b45	0.03866126
34	0xbd4c70e9	-0.049912367
35	0x3ce0e160	0.027451217
36	0xbd640d68	-0.055676848
37	0xbc8a7ef1	-0.016906234
38	0xbccdd61a	-0.025126506
39	0xbcac1f57	-0.021011038
40	0xbc1d587b	-0.009603615
41	0x3d3677a9	0.04454771
42	0xbd1491d3	-0.03627188
43	0xbcf21284	-0.029549845
44	0xbc81c03b	-0.015838733
45	0xbbdeb6ce	-0.0067966944
46	0x3c3be063	0.011467072
47	0x3cf59311	0.029977353
48	0xbd09f313	-0.03367908
49	0x3c511d90	0.012763396
50	0xbcdff060	-0.0273363
51	0xbc518336	-0.012787631
52	0xbcb8590b	-0.022503396
53	0xbceac70b	-0.028659364
54	0xbd283da3	-0.041074406
55	0xbcf2aa40	-0.029622197
56	0x3d44a7fc	0.048011765
57	0x3c351a95	0.011053701
58	0xbbe2f063	-0.006925629
59	0xbcdf0c6f	-0.027227608
60	0xbceb387e	-0.028713461
61	0xbcab2449	-0.020891326
62	0xbc55fad0	-0.013060287
63	0xbce89e64	-0.028395839
64	0xbd33fdf3	-0.043943357
65	0xbd758ebc	-0.059950575
66	0xbcb5effb	-0.022209158
67	0x3c1e04fd	0.009644744
68	0xbd2ec047	-0.04266384
69	0xbd08d7b8	-0.03340885
70	0xbd6ec323	-0.058291566
71	0xbd1d239b	-0.038364034
72	0x3cb81adb	0.022473743
73	0x3c6c13ad	0.014408988
74	0x3d3d7b10	0.04625994
75	0x3c6ede07	0.014579303
76	0xbce33fa1	-0.027740302
77	0xbc40956a	-0.011754373
78	0x3d1a9ca3	0.037747037
79	0x3d66f788	0.056388408
80	0xbc341c3e	-0.010993062
81	0xbcb4248b	-0.021990081
82	0xbcc0e02c	-0.023544393
83	0x3cff3d38	0.031157121
84	0xbd224f88	-0.03962663
85	0xbccb6c3f	-0.02483189
86	0xbb5b1406	-0.0033428683
87	0x3d6fac45	0.0585139
88	0x3d65d9cd	0.056115914
89	0x3c2ca88b	0.010538231
90	0x3d54a20c	0.051912352
91	0x3cb82962	0.02248067
92	0x3d0b2025	0.033966202
93	0xbd158120	-0.036500096
94	0x3cbef734	0.023311235
95	0x3d24969c	0.040182695
96	0xbd29c81d	-0.04145061
97	0x3d68d8e2	0.05684746
98	0x3c4ea098	0.012611531
99	0xbcd2f128	-0.025749758

weight f4 [50, 100]
0	0x3ad5ddd6	0.0016316723
1	0xbcfb2cfa	-0.030661095
2	0xbc1dfb2b	-0.009642403
3	0xbda450d7	-0.080232315
4	0xbc9d1e92	-0.019179616
5	0x3db6d55a	0.08927412
6	0x3d80727c	0.06271836
7	0x3d512acd	0.05106621
8	0x3c5a4a6e	0.0133234095
9	0x3d88c908	0.06678969
10	0x3d4f3899	0.050591085
11	0x3c0a0fc5	0.008426611
12	0xbdbac175	-0.0911893
13	0x3c8f60ab	0.01750215
14	0xbb9b1a00	-0.004733324
15	0xbc242056	-0.010017475
16	0x3cf37b8f	0.029722003
17	0xbd85dcd6	-0.06536262
18	0xbca543b2	-0.020173881
19	0xbdaec9be	-0.08534573
20	0xbd0f459a	-0.034978487
21	0xbda75d92	-0.08172144
22	0xbd91043b	-0.07080885
23	0xbdad5be2	-0.08464791
24	0xbcc21efc	-0.023696415
25	0x3d508268	0.050905615
26	0x3db9edd4	0.09078565
27	0x3d333bc4	0.04375817
28	0xbdc8f895	-0.09813038
29	0x3d227348	0.039660722
30	0x3d305b5a	0.04305587
31	0x3c693e0e	0.014235986
32	0xbc21cb99	-0.009875202
33	0x3cb55af3	0.022138095
34	0x3da10936	0.07863085
35	0x3d8ee331	0.06976927
36	0xbd1b81a5	-0.037965436
37	0xbcf20844	-0.029544957
38	0xbdc73d80	-0.09728527
39	0xbdc3a415	-0.095527805
40	0xbd9a8cba	-0.07546373
41	0xbdc59284	-0.09647086
42	0xbc9a85fc	-0.018862717
43	0x3d9bdedd	0.07610867
44	0xbd144323	-0.03619684
45	0xbc1990d2	-0.009372907
46	0x3d1743c6	0.03692987
47	0xbdc964fa	-0.09833713
48	0xbd77e785	-0.06052353
49	0x3dbb12bc	0.09134433
50	0xbc944a52	-0.018101845
51	0x3d41ddec	0.04733078
52	0xbcc874c1	-0.024469735
53	0xbd94970c	-0.072553724
54	0x3d0508d1	0.03247911
55	0x3c9c4725	0.019076893
56	0x3d8dc046	0.06921439
57	0x3d4d35ed	0.050100256
58	0xbdcfad36	-0.10140459
59	0xbdbcfec2	-0.09228279
60	0x3d123273	0.035692643
61	0xbd3ba2d5	-0.045809586
62	0x3d00668c	0.031347796
63	0x3c328939	0.010896974
64	0x3d43f337	0.04783937
65	0x3daf43b6	0.08557837
66	0x3db602fe	0.088872895
67	0x3da1c2f6	0.07898514
68	0xbc7103c7	-0.014710373
69	0xbc08f378	-0.008358829
70	0x3da49c62	0.0803764
71	0x3da12a32	0.07869376
72	0x3d8b68e2	0.06807114
73	0xbd0eb20e	-0.034837775
74	0x3b48edea	0.0030659386
75	0x3d422050	0.047394097
76	0xbd8deb69	-0.069296665
77	0x3cf8d0a7	0.03037293
78	0x3da7c827	0.08192473
79	0xbda10873	-0.0786294
80	0xbd2b8144	-0.041871324
81	0xbc38f946	-0.0112899
82	0xbbbe1b82	-0.005801619
83	0x3d82d456	0.06388156
84	0xbd0bc7ff	-0.034126278
85	0x3d327166	0.043565176
86	0x3d3af3bc	0.0456426
87	0x3bfddc92	0.0077472413
88	0x3d36674b	0.0445321
89	0x3d8c3996	0.06846921
90	0x3d966001	0.0734253
91	0xbda69dda	-0.081355765
92	0x3d0aff84	0.033935085
93	0x3d8b075f	0.06788515
94	0xb9d6c91d	-0.00040967102
95	0xbdd3c864	-0.10340956
96	0x3d9aa824	0.075516015
97	0xbcd5161c	-0.02601152
98	0x3d457615	0.048208315
99	0x3bae7419	0.0053238985
100	0x3da97880	0.08274937
101	0xbdb85c5c	-0.09001991
102	0x3da22ea8	0.07919055
103	0xbbb4e79f	-0.0055207754
104	0x3bf3a948	0.0074359514
105	0x3d68e6b6	0.056860648
106	0x3db2b0e0	0.087251425
107	0x3d929267	0.0715683
108	0x3b028412	0.0019915146
109	0x3d21e356	0.039523445
110	0xbceb71f9	-0.02874087
111	0x3d94d845	0.07267813
112	0x3c82e796	0.01597957
113	0xbd1e0bfc	-0.038585648
114	0x3db966ec	0.09052834
115	0xbc9b8d2f	-0.01898822
116	0x3d5325b9	0.051549647
117	0xbd3a53d5	-0.045490105
118	0x3da59557	0.08085125
119	0xbd8d83ac	-0.0690988
120	0x3dc85f98	0.09783858
121	0x3dc0cd4a	0.09414156
122	0x3d769fca	0.06021098
123	0xbc9c856e	-0.019106593
124	0x3da9e588	0.08295733
125	0xbd6d160d	-0.057882357
126	0xbd891dfa	-0.06695171
127	0xbcc06f96	-0.023490708
128	0xbb46ba41	-0.0030323418
129	0x3db39238	0.087681234
130	0x3cf65c6e	0.03007337
131	0xbc918cdb	-0.01776736
132	0x3dbaa449	0.09113366
133	0x3d9a0b0d	0.07521639
134	0x3d9bef68	0.076140225
135	0x3d341e64	0.043974295
136	0xbdb31d4a	-0.08745821
137	0x3d40fd6c	0.047116682
138	0xbd638ffc	-0.055557236
139	0xbc4e9749	-0.012609311
140	0x3cdf4848	0.027256146
141	0x3d081327	0.03322139
142	0x3da946e9	0.08265478
143	0x3db155c1	0.086589344
144	0xbd20da5f	-0.039270755
145	0xbd1261a3	-0.035737645
146	0xbd97e692	-0.07417025
147	0x3d87efaa	0.06637509
148	0x3c185215	0.009296914
149	0xbdb5116d	-0.08841214
150	0x3c63fd1b	0.0139153255
151	0x3dae6041	0.08514453
152	0x3dd7d60c	0.10538873
153	0x3dcc86ed	0.099866726
154	0x3c33f81f	0.01098445
155	0x3d711839	0.05886099
156	0xbd33043e	-0.043705218
157	0x3cb37058	0.021904156
158	0xbd92d9b3	-0.07170429
159	0xba829b12	-0.0009964427
160	0x3d894a9f	0.06703686
161	0xbd55429e	-0.052065484
162	0xbd5e0e58	-0.054212898
163	0x3dcac390	0.09900582
164	0xbd969ae2	-0.0735376
165	0x3dc368e7	0.09541493
166	0x3d63c26e	0.055605344
167	0x3d22db87	0.03976014
168	0xbd8aa277	-0.06769269
169	0xbd7b92e7	-0.061419394
170	0x3d8fd135	0.07022325
171	0x3d23ca5a	0.0399879
172	0xbd63785a	-0.055534698
173	0xbd26ac7a	-0.04069183
174	0x3d1f78e2	0.038933642
175	0x3c836d5d	0.01604336
176	0xbb8ef641	-0.004362852
177	0x3ca6f707	0.020381464
178	0x3c36c46a	0.011155227
179	0xbd0cb229	-0.034349594
180	0x3d6b2b31	0.057414237
181	0xbcf3e4dc	-0.029772215
182	0x3d89e103	0.06732371
183	0xbd0d5b03	-0.034510624
184	0x3dcd1916	0.100145504
185	0x3dd381d0	0.10327494
186	0x3cdbd5ff	0.02683544
187	0x3b989907	0.004656914
188	0x3d7d7acf	0.061884698
189	0x3d2c007d	0.041992653
190	0x3c0fcf80	0.008777499
191	0x3cfad428	0.030618742
192	0xbca248f7	-0.019810183
193	0xbd85ea67	-0.06538849
194	0x3d0a9ead	0.03384273
195	0xbb2b253f	-0.002611473
196	0xbdb79d56	-0.08965556
197	0x3d9773a6	0.07395105
198	0x3d7612d8	0.060076565
199	0x3d73bda7	0.05950704
200	0x3c01ac9f	0.007914691
201	0x3dc5bc10	0.09655011
202	0x3dc8cd9b	0.09804841
203	0x3d9c84f5	0.07642547
204	0x3d5e63cd	0.054294396
205	0x3dbf16d4	0.09330526
206	0x3ce0f9d2	0.027462874
207	0x3dab7e39	0.083736844
208	0xbd34aafc	-0.044108376
209	0x3dbcbf7f	0.092162125
210	0xb93ac898	-0.0001781307
211	0xbb9be04e	-0.004756964
212	0x3ddcd75a	0.107832626
213	0x3dc58a34	0.09645501
214	0xbd7514e6	-0.059834383
215	0x3d749171	0.059709016
216	0x3cc30b2e	0.023809042
217	0x3c877aae	0.01653799
218	0x3dbbd8ce	0.091722116
219	0xbdb4d5b5	-0.08829824
220	0x3d2f9e7f	0.042875763
221	0xbbb40b80	-0.005494535
222	0x3d9ceefd	0.07662771
223	0x3dbbc11b	0.09167691
224	0xbc3736b5	-0.011182477
225	0xbc7c5101	-0.015400172
226	0x3da3188b	0.079636656
227	0x3d38fc3d	0.04516243
228	0x3d0e27de	0.03470599
229	0x3c7aa3b7	0.015297822
230	0x3dc09d3b	0.09404989
231	0x3d9cf0a9	0.0766309
232	0xbdbb5587	-0.091471724
233	0x3d318205	0.043336887
234	0x3b95361c	0.0045535695
235	0x3d775540	0.060384035
236	0x3c68fa2c	0.014219802
237	0x3d92a2b6	0.07159941
238	0xbdb3964f	-0.087689035
239	0x3cfe7e0f	0.031065969
240	0x3d719aea	0.05898563
241	0xbce6f566	-0.028193187
242	0x3dd75718	0.10514659
243	0xbc4e8f2d	-0.012607378
244	0xbd166791	-0.036719862
245	0x3c05fe3d	0.008178291
246	0x3ddc9dcf	0.10772287
247	0xbc17fd4e	-0.009276701
248	0x3b70afaa	0.0036725798
249	0xbbd07dc3	-0.006362648
250	0xbd64a2d3	-0.055819344
251	0x3d9d2aff	0.076742165
252	0x3d968d0f	0.073511235
253	0x3d3e58fd	0.046471585
254	0x3b4cf21d	0.003127224
255	0x3d685570	0.056722105

bias f4 [50]
0	0xbd8c8e40	-0.068630695
1	0x3d565e50	0.052336037
2	0x3bdfa52b	0.0068251095
3	0x3da24960	0.079241514
4	0xbd438995	-0.04773863
5	0xbcc160e4	-0.023605771
6	0xbcc0b220	-0.023522437
7	0xbc875b9a	-0.016523171
8	0xbd66553f	-0.05623364
9	0xbcb87f3b	-0.022521606
10	0xbd98f32d	-0.07468257
11	0xbd0c482b	-0.034248512
12	0x3da9cc4e	0.08290921
13	0x3d0ea86c	0.03482859
14	0xbd8b3c2c	-0.06798586
15	0xbd885ea7	-0.066586785
16	0x3cbffb51	0.023435267
17	0xbdb7ef97	-0.08981245
18	0x3d6d8e61	0.05799711
19	0x3d470907	0.048592594
20	0xbd275a53	-0.040857624
21	0x3d292c73	0.041302156
22	0xbc5950e9	-0.013263919
23	0xbd6b0b67	-0.05738392
24	0x3d8b84c4	0.068124324
25	0x3b4402c6	0.002990888
26	0xbcc2c6f2	-0.023776505
27	0xbc9cacfa	-0.01912545
28	0x3d06309d	0.032761205
29	0xbcf9158c	-0.030405782
30	0xbc6cf7c5	-0.01446337
31	0x3d43caff	0.047801014
32	0xbdb01620	-0.0859797
33	0xbcabf3b2	-0.020990226
34	0xbdc760c9	-0.09735257
35	0x3d8a4831	0.06752051
36	0xbc71c33a	-0.014756018
37	0xbc412b9e	-0.011790184
38	0x3d33b985	0.043878097
39	0xbd4e56bc	-0.050375685
40	0x3d99ca8b	0.07509335
41	0xbd40b48c	-0.047047183
42	0x3c553057	0.013012013
43	0x3cbc8915	0.023014585
44	0xbd1b2488	-0.037876636
45	0x3d49cabf	0.04926562
46	0xbb70cf5a	-0.0036744685
47	0xbd71c556	-0.059026085
48	0xbdcedcce	-0.10100709
49	0x3d9124a8	0.0708707

weight f4 [1, 50]
0	0x3dea8faa	0.11453183
1	0xbd4c7ca2	-0.049923547
2	0xbd12d522	-0.03584779
3	0x3d2467d8	0.040138096
4	0x3d9827d5	0.07429472
5	0x3dbbcd4b	0.09170016
6	0xbe097a56	-0.13425574
7	0xbe1a7c82	-0.15086558
8	0xbddeebcf	-0.10884821
9	0x3dafcc17	0.08583849
10	0xbd1aedd1	-0.037824456
11	0xbe17be0b	-0.1481859
12	0x3e053aca	0.13010707
13	0xbd0824d0	-0.033238232
14	0x3d55292f	0.05204123
15	0xbcd997de	-0.026561674
16	0xbe0df11c	-0.13861507
17	0x3dd8b22b	0.10580858
18	0x3d2d04de	0.04224097
19	0xbe101557	-0.1407064
20	0xbdab9139	-0.083773084
21	0xbcb2b5e9	-0.021815257
22	0x3c77f588	0.015134223
23	0xbde72a40	-0.112873554
24	0x3d8cd86e	0.06877218
25	0x3d8b5500	0.06803322
26	0xbd0da912	-0.034585066
27	0x3da04b7e	0.07826899
28	0xbdd891e1	-0.10574699
29	0xbe1a2800	-0.15054321
30	0xbe1635e9	-0.14669003
31	0xbdaeb285	-0.08530144
32	0x3c65e834	0.014032412
33	0xbdc9802a	-0.098388985
34	0x3b97cc62	0.0046325186
35	0xbdabd120	-0.08389497
36	0x3e06bc81	0.13157846
37	0xbd4aacd2	-0.04948122
38	0xbd37550e	-0.04475885
39	0xbd50f4ad	-0.05101459
40	0x3d2cd86f	0.042198595
41	0xbda4e5de	-0.08051656
42	0xbddb8be7	-0.10720044
43	0x3dddc31c	0.1082823
44	0xbd2fa141	-0.042878393
45	0x3cd384bf	0.025820134
46	0xbe056897	-0.13028179
47	0x3ba9399e	0.005164339
48	0x3dc4e4bd	0.09613941
49	0x3dc8bb53	0.09801354
