client/model.pth (torch, 74932 bytes, 5 tensors)

weight f4 [100, 125]
000000 d1 53 a5 bd e5 7f 91 bd e1 9c 37 3d 42 bc 4e 3d
       -0.08072627 -0.07104472 0.044827346 0.050472505
000010 20 28 4c 3d 0b 68 8e bd c4 07 34 bd 32 a6 f9 3c
       0.049842954 -0.06953438 -0.04395272 0.030474756
000020 4f 8c aa 3d 49 18 2d b9 01 a6 a6 bd 35 30 54 bd
       0.08327543 -0.00016507613 -0.081371315 -0.051803786
000030 20 5e 1f bc 5f 49 96 bd c8 f9 90 bd d7 0a c1 3d
       -0.009727031 -0.07338213 -0.07078892 0.09425896
000040 6e 27 c5 bd 1a 39 75 3d b2 13 a9 3d 0d ce cb bc
       -0.09626661 0.05986891 0.0825571 -0.024878526
000050 24 31 bc bd a2 2d 59 3d 04 50 2f 3d 28 b3 4b bd
       -0.0918906 0.053022034 0.04280092 -0.049731404
000060 67 d5 47 3c 2c e6 b6 bd f4 27 0e 3d 7c 69 b8 3c
       0.012196875 -0.089306206 0.03470607 0.022511236
000070 9d 9f 53 3d fd 61 21 3d 65 85 1e 3e 30 92 7a 3d
       0.05166589 0.03940009 0.15480573 0.06117457
000080 a1 05 cf bc 0f e5 70 3d 63 45 36 bc e6 29 5a bc
       -0.025271239 0.058812197 -0.0111249415 -0.013315653
000090 63 2e 2d bd e4 16 58 3d 8c 8f 51 3d 8c 79 d1 3a
       -0.042280566 0.052756205 0.051162288 0.0015981658
0000a0 29 6e c2 3d 05 f7 a6 3c 30 46 b2 bd 27 10 94 3d
       0.09493668 0.02038146 -0.087047935 0.07229643
0000b0 b2 27 37 bc 36 20 99 3d 71 91 88 bb 26 36 c8 3d
       -0.011178898 0.07476847 -0.0041677286 0.09775953
0000c0 41 b7 80 3d 4e 65 49 3d c2 cd ab bd 89 ec 57 3d
       0.06284953 0.049168877 -0.083888546 0.052715812
0000d0 8d 4e 29 3d ba 44 46 bc 4b 7b bb 3d 96 56 8e 3d
       0.041334677 -0.012101347 0.09154376 0.06950109
0000e0 84 5e 16 3d 53 76 8b bd 7d 02 48 3d 21 db 95 3d
       0.03671123 -0.06809678 0.048830498 0.07317186
0000f0 d1 c6 a8 3d bd 5f 35 3d e4 54 ab bd 5d 48 5c bd
       0.08241046 0.044280756 -0.08365801 -0.05377995
000100 0d cc a8 bd da ed 44 bb 3e 2f a7 bc 76 98 85 bc
       -0.082420446 -0.0030048997 -0.020408269 -0.01630805
000110 0f 69 71 3d 35 f8 0a bc 75 f4 19 3d 75 d9 51 bd
       0.058938082 -0.008482029 0.037586648 -0.051232774
000120 8d 6f 19 3d a6 4b 41 3d bb 88 36 bd 2b 42 95 bd
       0.0374599 0.047191285 -0.04456399 -0.07288011
000130 bd e0 9d bd a5 0a 12 bc b2 45 72 bd 58 1b 16 3d
       -0.07708881 -0.008913671 -0.059148498 0.03664717
000140 9e 37 d4 3d 0c d8 02 be b4 e4 83 bd 5f e5 39 bd
       0.10362171 -0.12777728 -0.06440106 -0.04538476
000150 0f d8 2f bb ef ef 96 bd 30 ca cd 3c 56 3a 1b be
       -0.0026831662 -0.073699825 0.025120825 -0.15158972
000160 ca 0a 1f be 99 9e a5 3d cc 53 ae bb d6 1b 2e 3a
       -0.1553146 0.08086891 -0.005320048 0.0006641721
000170 7b 93 08 be 8c 23 a6 3d 98 62 12 be a3 93 4f 3d
       -0.1333751 0.08112249 -0.14295423 0.050677907
000180 0d a6 0b be 2e 0b 07 be 36 c1 a2 bd 22 19 35 bd
       -0.13637562 -0.13187858 -0.07947008 -0.04421342
000190 24 bd c1 3c ed d8 4e bc d6 b9 5c bd b2 d7 a5 bd
       0.02364976 -0.012624961 -0.053888164 -0.08097781
0001a0 70 34 a7 3c 6c 8d bf 3d da 8b 1d bd 91 a3 7d 3d
       0.020410746 0.09353146 -0.03846345 0.061923567
0001b0 40 16 90 3d 78 e9 20 bd d3 f3 78 bd df ee 3b bd
       0.07035494 -0.039285153 -0.060779404 -0.045882102
0001c0 13 3c 12 3e f2 9d 4a bc 1a 59 57 3d 7c d7 6b 3c
       0.14280729 -0.012366759 0.05257521 0.014394637
0001d0 67 9f 0d bc 70 c7 41 ba 5d 5a 5f bd 2b 7d e1 3d
       -0.0086439615 -0.0007392084 -0.054529537 0.11010202
0001e0 f9 4d 9f 3d 6b 74 57 bd a7 91 1b bd 6f 88 11 3c
       0.07778544 -0.05260126 -0.0379807 0.008882626
0001f0 7d f5 7e bd 1e 4f 8f bd 26 32 47 3d df bf b6 bc
       -0.062245835 -0.06997512 0.04863181 -0.022308288
000200 f3 99 5e 3c fb 50 87 3d ce ed d2 bb dd 20 91 3c
       0.013586509 0.06607243 -0.00643704 0.017715866
000210 2c a3 f4 bc 26 d6 ea 3c 90 65 89 3d b5 16 e3 bc
       -0.029862963 0.028666567 0.06708825 -0.027720788
000220 62 ee e1 bd dc 62 08 3d 88 3b 34 3d dc 69 b4 3c
       -0.11031796 0.033297405 0.044002086 0.022023134
000230 45 7d 27 3e cf ee e5 3c 59 a9 99 bd c4 78 e2 3c
       0.1635638 0.028067974 -0.075030036 0.027645476
000240 ba 6c 06 bd 6f d6 2b 3c 87 13 db bb ac 5d 0c bc
       -0.032818533 0.010488137 -0.0066856775 -0.008567255
000250 a7 8d 3f 3d 90 4e c9 bd 32 09 b0 bd 46 bb c9 bd
       0.04676595 -0.09829438 -0.08595504 -0.09850173
000260 6e cc 8a bd 0d cc be 3d 93 f9 de 3d 42 1c d6 3d
       -0.06777273 0.09316263 0.10887446 0.104546085
000270 bb 17 2d bb 02 56 7a 3d 55 5c 23 bd 12 d0 60 bc
       -0.002641185 0.06111718 -0.039882977 -0.013721483
000280 f5 f9 85 3d 62 87 bc bc 67 10 00 3d ab b1 15 3d
       0.06541816 -0.023013774 0.031265642 0.03654639
000290 86 9a 9b 3d 43 70 98 3d b6 13 77 bc 32 fd 0e bc
       0.075978324 0.07443287 -0.015080383 -0.008727359
0002a0 67 e5 83 bd 08 2b 70 bd d1 48 5c bd c6 9f 99 bd
       -0.064402394 -0.058634788 -0.05378038 -0.075011775
0002b0 e3 ad 86 3d 8f 2b b2 3d d4 77 46 3b 91 ed 67 3d
       0.06576135 0.086997144 0.0030283825 0.056623045
0002c0 35 cd 51 3d 09 96 a0 bc 18 8e 00 3d 60 9a 98 bd
       0.05122109 -0.019602792 0.03138551 -0.0745132
0002d0 ff 22 01 bd 52 d8 e7 bb 90 cb 20 bd c2 5e 08 bc
       -0.031527516 -0.007075348 -0.039256632 -0.008323373
0002e0 72 88 07 bd cc 42 55 3d 52 85 b2 3d f0 f3 7d 3d
       -0.03308911 0.052065656 0.08716835 0.062000215
0002f0 bc f0 91 bc 4a be 09 3c 7a f8 8d bd 1d 82 87 39
       -0.017814986 0.008407185 -0.06932159 0.00025846148
000300 81 4a 54 3d 33 79 42 bd f2 b8 92 bd 32 56 7b 3d
       0.051828865 -0.047478866 -0.07164182 0.0613615
000310 4b 99 86 3d 8e 19 73 bd 47 11 0a 3d ee 77 52 bd
       0.06572207 -0.059350543 0.033707883 -0.051383905
000320 ec 73 89 bd 57 45 9b 3d 22 70 7f 3d 9d b2 61 bd
       -0.067115635 0.07581585 0.062362798 -0.05510198
000330 02 65 66 3d 19 6b b4 3d ad d1 2e bd ea ff 0d bd
       0.056248672 0.0880949 -0.04268043 -0.034667887
000340 44 43 8e bd 9c 83 f6 3c 2b 1d 0c 3d 33 5c 37 3d
       -0.06946424 0.030092053 0.034207504 0.044765662
000350 a8 16 22 be b0 cb 8d bd 2c 27 34 bd 76 be 6f 3d
       -0.15828955 -0.06923616 -0.04398267 0.058531247
000360 af 8b 31 3d d9 a2 a5 3d 65 9f a3 3c ee 5f 0b be
       0.043346103 0.08087701 0.019973466 -0.13610813
000370 f1 22 8c 3d 4b ac d8 bd ba 0c 12 3d 3a 78 e1 bd
       0.06842602 -0.10579737 0.03565667 -0.110092595
000380 d8 03 72 bd 80 4b 99 3c 3c a4 9d 3d 1c 7d c9 bd
       -0.059085697 0.018712759 0.07697341 -0.09838316
000390 fb 70 f8 3c c6 09 20 bd 15 10 fe bc 4f 21 27 3d
       0.03032731 -0.03907182 -0.031013528 0.04080325
0003a0 64 bd 26 3d b5 c3 86 3d b7 65 a0 3b d1 55 e9 bb
       0.04070796 0.06580297 0.004894938 -0.007120826
0003b0 e7 fb 21 3d 48 10 a6 bd 3f df c3 bd d0 43 dd bd
       0.039546873 -0.08108574 -0.09564065 -0.1080395
0003c0 f3 db 9f 3d be 9d 6f 3d 27 45 95 3d 07 b1 ba bd
       0.07805624 0.058500044 0.072885804 -0.091157965
0003d0 46 a6 10 ba 00 8a 16 3d f8 ed 85 3c f5 a1 e7 bd
       -0.0005517941 0.0367527 0.016348824 -0.11310188
0003e0 fe 28 e0 bd 48 30 13 bc 91 02 cb 3c b4 b8 86 bb
       -0.10945319 -0.008983679 0.024781497 -0.004111374
0003f0 31 b1 df bc f7 ef c0 bd c3 de 87 3c 26 de 7c bd
       -0.027306171 -0.0942077 0.016585713 -0.061735295

bias f4 [100]
000000 3b 78 69 3d 05 a9 fd 3d 09 b5 c3 3d b9 42 14 3e
       0.056999426 0.123857535 0.09556014 0.14478578
000010 0b 33 15 bd 4f 9f 82 3d 3a 69 1c 3e f5 41 f4 3c
       -0.03642563 0.06378042 0.15274516 0.029816607
000020 c4 0f 9c bc 15 c6 74 3b 32 d5 1a 3e 2d b6 11 3e
       -0.019050486 0.0037349511 0.1512039 0.14229651
000030 65 c5 70 3d b9 6d b9 3d 9b b7 14 bc 68 7d a9 3d
       0.058782 0.09054131 -0.009076978 0.082758725
000040 fc 6c a6 3d ef 70 bc 3d a2 eb 0f 3e cc 26 8f bb
       0.08126256 0.09201228 0.1405473 -0.0043686386
000050 e9 f9 5c 3d 4e 45 01 3e ef ec fc 3c b6 c5 8a 3b
       0.05394927 0.12624094 0.030874697 0.0042349948
000060 7b c2 b5 3d 2a d4 ee 3d dc c9 36 bd c9 25 03 3b
       0.08874985 0.11661561 -0.0446261 0.0020011535
000070 a1 79 94 bd c2 1e d8 3a eb 0e 97 bd 18 59 68 3d
       -0.072497614 0.0016488659 -0.07375892 0.05672559
000080 37 4e ba bb d1 35 b5 3d f8 32 b1 bb 8d 5a 52 bc
       -0.0056855935 0.08848155 -0.0054076873 -0.012838972
000090 83 11 9a bc 08 88 d1 3b 60 1c 74 bc 0c c8 a4 3d
       -0.018807178 0.00639439 -0.014899343 0.080459684
0000a0 86 0d 11 bd b0 2e ba 3a 12 55 d7 3c cc 84 f9 3a
       -0.035413288 0.0014204588 0.026285682 0.0019036769
0000b0 93 e0 0f 3e ef 81 a0 3d 8b 5a d0 3d 7a f6 af 3d
       0.14050512 0.07837283 0.1017352 0.085919335
0000c0 87 d6 06 3e bc 64 e0 bc 8e 14 17 3e 4f b1 c3 3d
       0.13167773 -0.027391784 0.14753935 0.09555303
0000d0 d2 f0 e5 39 2a f9 21 3d de 01 ba 3d 65 4a 01 3e
       0.0004385771 0.039544262 0.090823874 0.12626036
0000e0 c1 a5 d2 3d ec 16 61 3b 88 5c 43 bb 01 d8 08 3e
       0.10285521 0.0034345938 -0.0029809792 0.13363649
0000f0 52 f0 6a 3d c5 2a bc bc d7 87 db 3d 39 5f 35 3d
       0.057358094 -0.022969613 0.10719269 0.044280265
000100 23 7c f1 3c 84 78 92 3d b6 ba 08 3e 35 8f 7f 3c
       0.029478138 0.07151893 0.13352475 0.015598108
000110 ab d0 dd 3c da 34 69 3a fc e1 e4 bc 6e ab aa 3b
       0.02707704 0.000889612 -0.027939789 0.0052084243
000120 d9 75 bc bc 00 22 18 3e ff f3 c1 bc d5 61 01 3e
       -0.023005413 0.1485672 -0.023675917 0.12634976
000130 d5 85 bf 3c 38 b8 52 3d d8 68 65 3d af 5b 46 bd
       0.023379246 0.051445216 0.05600819 -0.04842728
000140 57 9b 96 bb a1 e6 8a 3b 75 a1 a5 bb 6e 8a d8 bd
       -0.0045961547 0.004238919 -0.0050546476 -0.10573278
000150 0d cb f7 3d 83 ca ed 3d 6c 42 ee 3b 37 4e 51 bd
       0.12099276 0.11610892 0.0072711017 -0.051099982
000160 40 6d 98 bb 53 d4 b1 bc d4 52 b2 3d f1 c4 0d bd
       -0.0046516955 -0.02170769 0.087072045 -0.034611646
000170 61 aa e1 3d 22 2d c5 3c 5f f1 e2 bc 8d 17 16 bd
       0.11018825 0.024069373 -0.027702985 -0.036643554
000180 21 fd e7 3c f0 d5 2a 3d d2 37 1e 3d 09 e3 75 3d
       0.028318943 0.041707933 0.038627453 0.06003097

weight f4 [50, 100]
000000 67 1c a2 bc 28 d4 f5 bc 68 35 a7 3d d7 a9 92 3c
       -0.019788934 -0.03000839 0.08164483 0.017903252
000010 23 b2 07 3d 07 f0 e8 3d 75 e1 9a 3c 5f 4d 1a 3e
       0.03312887 0.113739066 0.018906334 0.15068577
000020 94 a9 12 bc 93 3f 36 bd 41 4c 1d 3d 05 b5 9a 3d
       -0.008951563 -0.044494223 0.0384028 0.07554058
000030 81 85 24 3d e2 f0 b4 3d 37 bc 10 bd a0 22 fb 3d
       0.04016638 0.08835007 -0.035335746 0.122624636
000040 cd 1a 19 bb 5d 64 89 3c a3 bd 8f 3d 62 91 c1 3d
       -0.0023361922 0.01677149 0.07018592 0.09451558
000050 c3 01 0b 3e 7d a7 9b bd 37 51 ae 3d a0 13 a4 bd
       0.13574891 -0.07600305 0.08511584 -0.08011556
000060 74 a8 10 3e 80 2f 0b bc 7f b1 76 bd 57 ac f5 bc
       0.1412676 -0.008495212 -0.060227867 -0.029989405
000070 2a 17 10 bd 9b c0 c4 3d 07 54 f5 3d 5d 0a d5 3c
       -0.03517834 0.09607049 0.119789176 0.026005918
000080 71 5b bb 3d 4b 01 81 3b cb 9b 31 bd 52 20 97 bd
       0.091483004 0.0039369217 -0.043361466 -0.073792115
000090 41 55 ca 3d d8 74 83 bd f0 f5 a2 bc 05 a7 38 bd
       0.09879542 -0.064187706 -0.019892663 -0.045081157
0000a0 b7 89 3e bd 77 14 8a 3c 12 dd a3 3c 6b a8 cf 3d
       -0.046518054 0.016855462 0.020002875 0.10139545
0000b0 39 50 db 3d c0 3f ea 3d 7c e1 93 bd a2 78 93 3d
       0.10708661 0.114379406 -0.07220742 0.07200743
0000c0 72 52 05 3e eb ca 07 bd f9 c4 a7 ba 76 2d 1e bd
       0.13019732 -0.033152502 -0.0012799791 -0.038617574
0000d0 58 2b 20 bd 74 98 84 3d ac 20 16 3e 76 4e 72 3d
       -0.039103836 0.064743906 0.14660901 0.059156857
0000e0 6f 2e b7 3d 28 91 6e bd 78 68 60 bd db 74 b7 3d
       0.089444034 -0.0582439 -0.05478713 0.08957835
0000f0 ac d0 e4 3d 4a ce f4 3c 38 df e7 3b 31 4f a5 3c
       0.111726135 0.029883523 0.0070761703 0.020179363
000100 bf 11 a1 bd 79 3a a0 3d bf e9 3f 3d 4d 30 25 3d
       -0.07864713 0.07823653 0.046853777 0.040329266
000110 49 ab 7f 3d 5b 4a 48 3d f8 8e 15 bd 2f c7 2b 3c
       0.06241921 0.048899036 -0.0365133 0.010484501
000120 b0 23 1c bc 5d da d1 3d b3 6e 0e 3d da 9a d6 3c
       -0.009529993 0.102467276 0.03477354 0.026196886
000130 ec 38 17 3d 9f 31 86 3d 09 34 21 bd db d5 d9 3d
       0.03691952 0.06552433 -0.039356265 0.10636493
000140 48 74 15 3d 62 d7 6c bd 2b 20 05 3e 21 bd 14 3d
       0.036487848 -0.057822593 0.13000552 0.03631318
000150 e9 24 28 bd e3 18 cd 3d b6 a1 db 3d df 74 c1 bc
       -0.041050825 0.100145124 0.10724203 -0.023615299
000160 f7 18 4f 3d 89 0d 60 3d 5d b4 a0 3d 09 f7 35 3c
       0.050560918 0.054700408 0.078469016 0.011106261
000170 dc 17 45 3d dc 6b b4 3d 98 3e c9 3d e9 72 85 3c
       0.048118457 0.08809635 0.09826392 0.016290145
000180 ac 97 24 3d 93 8f 73 3d 3b e6 a1 bd 1e 78 f4 3d
       0.040183708 0.059463095 -0.07905241 0.11936973
000190 36 88 66 3d 69 34 cf bd e9 8b 6b 3d ef 9c 19 3d
       0.056282245 -0.10117418 0.057506476 0.03750318
0001a0 b7 0e 4a bd 82 4b 97 bd 6b 20 bb bd 01 da f0 bc
       -0.04933044 -0.07387449 -0.091370426 -0.029400827
0001b0 2f 82 b4 bd 42 3b d0 bd 7d 0b 03 bd 45 9c d4 3b
       -0.08813893 -0.101675525 -0.031993378 0.0064883553
0001c0 79 e2 27 3c ed c0 c4 bd 62 34 d2 bc 2c 11 6e 3d
       0.010246866 -0.0960711 -0.025659744 0.058121845
0001d0 c3 79 09 bd 15 f1 8f bd ff 9e 9d bd 12 13 99 bd
       -0.033563387 -0.070284046 -0.07696342 -0.074743405
0001e0 dc 83 17 3d ec ee 5f bd d5 31 05 bd 46 83 bf bd
       0.036990985 -0.054671213 -0.032518227 -0.0935121
0001f0 e9 2c 71 3d 81 10 84 3c 7c 69 a8 3d 87 d8 90 3d
       0.05888072 0.01612115 0.082232445 0.07072549
000200 7b ef 57 bd 72 68 90 3d 21 86 89 3a 50 8e af 3c
       -0.05271862 0.07051171 0.0010492244 0.021430165
000210 b0 88 e4 bd 64 db 32 bd db 5f db bd e6 9c 48 bd
       -0.111588836 -0.04366626 -0.10711642 -0.048977755
000220 ef 61 41 3d 6c cf c0 bd 3d 48 bb bc 1b 86 8a 3d
       0.047212537 -0.094145626 -0.022861594 0.0676386
000230 ea d6 4e 3d 50 1f 4f 3c 38 82 43 3c 41 01 96 3d
       0.050497927 0.012641743 0.011932902 0.07324458
000240 66 e8 a0 bd 50 f7 ad bd 75 b3 05 3d 00 3d 67 3d
       -0.078568265 -0.08494437 0.032641847 0.05645466
000250 95 d0 86 3d 07 06 9a bd 48 48 99 bc 2b b7 c6 bb
       0.065827526 -0.07520681 -0.018711224 -0.006064316
000260 48 c0 c0 3c 49 7e 1b bd f7 12 76 bd ad 82 4e bd
       0.023529187 -0.03796223 -0.06007668 -0.05041759
000270 56 2a 55 bd ac 22 33 3d e5 85 d6 3c eb 2a 85 3d
       -0.052042328 0.043734238 0.026186893 0.065023266
000280 c9 63 94 3d a3 7e ec bd 4b fd b3 3d ae 09 9d bc
       0.07245595 -0.115475915 0.08788546 -0.019169655
000290 07 42 2c 3d 0d 2c 72 3d d5 7a 89 3d 36 b4 ab bd
       0.042055156 0.05912404 0.067128815 -0.08383982
0002a0 2a 06 68 bc e4 9b 20 3d 1a e1 2a bd 6d 85 2d bb
       -0.014161626 0.03921117 -0.04171858 -0.0026477233
0002b0 81 ba ec bd 2f 7e 78 bd b4 34 ed bd 81 a6 e6 3c
       -0.1155901 -0.060667213 -0.11582318 0.028155567
0002c0 9a 53 00 3d 54 a8 53 3d 7c 8a a0 3d f7 15 d1 bd
       0.03132973 0.051674202 0.07838914 -0.102092676
0002d0 9d 45 a3 bc 20 e9 6c 3d 36 64 3f bd ba 88 ae 3d
       -0.019930655 0.057839513 -0.046726428 0.08522172
0002e0 ff 68 c7 3c d2 36 91 3d ad de 6c 3d b3 db 89 3d
       0.024342058 0.07090534 0.057829548 0.067313574
0002f0 65 8f 02 bc bc bb b3 3d 36 25 4f bd 64 98 a6 bd
       -0.007968758 0.08776042 -0.050572596 -0.08134535
000300 60 49 ab bb 66 f0 96 3d ac 3f 82 3d 1e 30 fa bc
       -0.005227253 0.07370071 0.06359801 -0.030540522
000310 1b 33 83 3d 32 37 8d 3c b7 59 ee bc 78 36 28 3d
       0.06406232 0.017238233 -0.029095514 0.04106757
000320 30 37 7a bc 7b 0d c4 3d 6c 68 9f bc 31 c5 75 3d
       -0.015271947 0.09572884 -0.019458972 0.06000251
000330 eb 15 3f 3d 3f 18 17 bd 5e 3a 9e 3d 8e 2e ad 3d
       0.046651762 -0.036888357 0.077259764 0.08456145
000340 99 0c f4 3d 9a 1c 04 3d 09 9a 90 3d 85 1d 88 bc
       0.11916465 0.03225384 0.0706063 -0.016615639
000350 b8 04 06 3e 17 1a a3 3d c2 71 a1 3d e0 3c e1 bc
       0.13087738 0.079639606 0.07883026 -0.027494848
000360 52 47 07 bd 6f 80 9d 3b 2f d5 95 3d 2c d4 22 bd
       -0.033027 0.0048065702 0.07316052 -0.039753124
000370 dc f9 80 3d 9e 25 79 3d 4f 53 91 bd 5a 73 e1 bc
       0.06297657 0.06082689 -0.07095968 -0.027520824
000380 c6 c9 5e 3c 46 91 8d bd 3c 97 85 bd 63 f2 5d 3c
       0.013597911 -0.06912474 -0.06522986 0.013546559
000390 6c be 40 3d d3 c9 a1 bd 8e 31 ba bc f8 e8 89 bc
       0.0470566 -0.07899823 -0.022728708 -0.016834721
0003a0 30 f3 b9 3d f7 86 9d 3d e6 87 db bc cf 4e 20 bd
       0.090795875 0.07691758 -0.0267982 -0.039137658
0003b0 22 a4 6a bd 6e 4f 42 bd a6 97 29 bd 9e 88 62 3d
       -0.057285435 -0.04743903 -0.04140439 0.05530607
0003c0 15 ec fa bb e5 9d 65 3d 22 9e 88 bd df da 03 3d
       -0.0076575377 0.056058783 -0.066707864 0.032191154
0003d0 62 08 ae 3d a4 a1 96 bd 42 ec 11 bd 89 47 16 3d
       0.08497693 -0.07355049 -0.035625704 0.036689315
0003e0 c0 71 ee 3d 84 ae 10 bd 7d 21 75 bd df 5b 42 3c
       0.1164279 -0.03532268 -0.05984639 0.011862724
0003f0 f1 e0 07 bc 80 9e ec 3c ff 23 a5 bc 2a f4 4d bd
       -0.008293376 0.028884172 -0.020158766 -0.05028168

bias f4 [50]
000000 9d f4 f7 3d f1 10 77 3d 51 f2 f4 3d 3d 9c bd bd
       0.12107203 0.06031889 0.11960281 -0.09258316
000010 a3 17 c7 bd 30 62 ea 3d 8e bc 85 3c ad 0f e1 3c
       -0.09721305 0.11444509 0.016325261 0.027473295
000020 98 b7 43 3c 54 10 99 3d ea 72 35 bd ba 41 a9 bd
       0.011945628 0.074738175 -0.044299044 -0.082644895
000030 c2 37 ae 3d 19 c2 3b 3d d1 74 90 bd cb e9 59 3c
       0.08506729 0.045839403 -0.07053531 0.0133003695
000040 f2 bd 16 bd 6a a2 95 bc 96 f4 ff 3c f3 d6 ae bc
       -0.03680224 -0.018265922 0.031244557 -0.02134273
000050 c1 ee 9a 3d ac 95 44 bc cc 87 01 3e 9a 1e c5 3d
       0.0756507 -0.011998575 0.12649459 0.096249774
000060 11 d1 de 3d 62 82 78 3d e6 63 18 3d 43 30 8b bc
       0.1087972 0.060671218 0.037204646 -0.016990786
000070 ae de 94 3c 10 21 36 3d e5 e4 4f bc eb 25 a2 3d
       0.018172588 0.044465125 -0.01268885 0.079173885
000080 c1 9d db bc 9d f3 1e bd 13 77 26 bd 8b c5 9e bc
       -0.026808621 -0.038806546 -0.0406409 -0.019381305
000090 30 e2 1c 3d 6b 81 32 bd 0b c9 c8 bd 64 60 5a 3a
       0.038301647 -0.043580454 -0.09803971 0.00083304034
0000a0 27 2b cf 39 2d 23 00 3e a1 4b e8 bd 22 02 50 3d
       0.00039514268 0.12513418 -0.1134255 0.050783284
0000b0 be cb ab 3d be 95 ae bc d1 61 a6 3d 0a 10 5b 3d
       0.0838847 -0.021311637 0.08124126 0.053482093
0000c0 92 ae a0 bd 71 66 80 3a
       -0.07845797 0.0009796155

weight f4 [1, 50]
000000 b3 ae ec bd 3f c8 89 3d c1 03 cf bd 57 a3 06 3e
       -0.11556759 0.06727647 -0.10108138 0.13148247
000010 6e 0d 6a 3d 03 24 1d be 02 a1 72 bd d3 0f 08 bd
       0.057141714 -0.15345769 -0.05923558 -0.033218216
000020 ef 72 d7 3d 79 b0 d2 bb 20 48 ce 3c 94 ea 64 3d
       0.10519969 -0.0064297286 0.025180876 0.055887774
000030 e9 16 35 be 36 d8 ee 3d 42 c4 b3 ba 8f 7d 34 be
       -0.17684521 0.11662333 -0.0013715106 -0.17626022
000040 8a 9c 20 3d 8e 83 4c bd 54 01 ce 3c 0b 00 03 be
       0.039211787 -0.049930148 0.025147118 -0.12792985
000050 72 cb 06 3e 1e d1 9f bd fa 25 27 be a5 cc 36 be
       0.13163546 -0.07803558 -0.1632308 -0.17851503
000060 43 4c d2 bd 36 29 e3 bd 57 33 8a bd 93 e1 cf 3d
       -0.10268452 -0.11091845 -0.067480735 0.10150447
000070 04 d7 26 be 95 13 8b bd 6f 0c 18 3c fa 40 e0 3c
       -0.1629296 -0.06790844 0.009280308 0.027374733
000080 df 9c 31 be 6e 53 65 3d ec c3 1f 3d 71 1b 2a be
       -0.17344998 0.055987768 0.039005205 -0.1661203
000090 22 c6 5f 3d de f1 bb 3d 81 32 b9 3d ab 03 f2 bd
       0.054632314 0.09176992 0.09042836 -0.11817106
0000a0 f5 cf 2d be 66 85 15 be d1 93 ff 3d b8 08 d5 3d
       -0.1697386 -0.14601669 0.124793656 0.104020536
0000b0 00 b1 3b be 69 17 f7 3d fc 6f 26 be ef 1a f0 bd
       -0.18329239 0.12065012 -0.16253656 -0.11723887
0000c0 4e 40 0b 3e 6e e9 05 3e
       0.13598749 0.13077328
