client/model.pth (torch, 158132 bytes, 5 tensors)

0.weight f4 [100, 337]
000000 00 c6 4a 3d b7 2e ff 3b c6 1e b1 3c 69 85 c2 bc
       0.049505234 0.0077875513 0.02162112 -0.023745256
000010 47 fa 12 bd 5e f7 e4 bc ea 6a 82 3c 02 7d eb bc
       -0.035883214 -0.027949985 0.015920121 -0.028746132
000020 2a a2 2f 3d 05 9a a3 3b 67 3d b8 3c 8d 56 f4 bc
       0.04287926 0.004992726 0.022490216 -0.029826427
000030 b7 de df 3b 98 dc 26 3c 87 96 de bc 16 61 2e 3d
       0.0068319696 0.01018443 -0.027171386 0.042573057
000040 4e 01 01 bc f7 cb 26 3d a0 bf 9b bb c3 66 c0 3c
       -0.007873846 0.04072186 -0.004753068 0.0234865
000050 39 1f aa 3c 0f d6 11 bd ad a9 e6 bc 10 38 24 3d
       0.020766841 -0.035604533 -0.02815708 0.040092528
000060 ea 6b 12 38 08 da 3e ba 1a 00 28 bd 39 52 95 bc
       3.4909615e-05 -0.0007280414 -0.04101572 -0.018227683
000070 80 b4 98 bc a9 91 3a 39 7e f3 d9 3c 2b a5 25 bd
       -0.018640757 0.00017792605 0.026605364 -0.04044072
000080 9b 5a 5c bc 51 c3 3f bd 15 17 0e 3d 57 d1 0e 3d
       -0.013449336 -0.046817128 0.03468998 0.03486761
000090 b3 f0 0d 3d f0 77 e5 ba 15 36 d7 bb 11 a8 a8 3c
       0.034653377 -0.0017507058 -0.0065677264 0.020587953
0000a0 d2 ca 35 bd 1d 6b d5 3c f3 e4 e3 3b 7e 48 a3 bc
       -0.044382878 0.026052052 0.006954783 -0.019932028
0000b0 58 0a 3d 3c 7a d1 0a 3c c1 d1 d8 3a c8 50 90 bb
       0.011538111 0.008472795 0.0016542004 -0.004404161
0000c0 3c fd 92 b9 7f e1 3f 3d c1 5f 24 bd d1 36 d3 bc
       -0.00028035964 0.04684591 -0.04013038 -0.025782974
0000d0 0b f8 64 bc 28 e9 24 bd c9 42 2e bd 52 ef 74 bc
       -0.013975154 -0.040261418 -0.04254416 -0.0149496365
0000e0 92 37 92 3c 0f bd 95 bc 95 bf 88 3c 0a 35 78 3c
       0.017848764 -0.018278627 0.016692916 0.015149364
0000f0 4d e6 ae 3c 2c 05 24 3c b7 f8 26 bd 9e 81 1c 3d
       0.02135005 0.010010999 -0.040764537 0.03820955
000100 28 2a 0f 3c 1a 14 38 3c 8c 14 4c 3c e1 72 d2 ba
       0.008738078 0.011235261 0.012456071 -0.0016055965
000110 7e 9a 1c 3d cd 35 3b 3d 0c d3 2c bd 04 62 82 bb
       0.038233273 0.045705605 -0.042193457 -0.0039789695
000120 40 d8 93 3b dd cb fe bb e7 a4 d7 3c f0 af f0 bc
       0.004511863 -0.0077757672 0.026323749 -0.029380769
000130 70 fd 6c 3c dc c6 ff b9 dd 0e b9 39 e8 37 7e bc
       0.014464721 -0.00048785552 0.00035297024 -0.015516259
000140 cb b6 2c 3d ac e5 3b bd 6b f2 cc bc ff cb 3c bd
       0.042166512 -0.04587333 -0.025017938 -0.046092983
000150 cd 44 8e bc dd b9 53 3d 32 5f 39 3d 8f 20 f8 ba
       -0.017366791 0.051690925 0.0452568 -0.0018930602
000160 06 49 3b bc 87 bb a6 bc 0d 2f 69 bd 1c 8f 95 bb
       -0.011430984 -0.020353092 -0.056929637 -0.004564179
000170 00 77 c1 bb 8c 49 21 bc 50 67 26 3d 1d 3a 50 3d
       -0.0059040785 -0.009844195 0.04062587 0.05083667
000180 ac 3b 6c 3d e4 bf d2 bc e5 96 44 bd bc dd 60 bd
       0.057674095 -0.025726266 -0.047995467 -0.054898962
000190 78 61 f4 3a 74 80 c4 3c f1 7f ac 3c 07 47 59 bc
       0.0018644771 0.023987032 0.021057101 -0.013261563
0001a0 72 e0 b7 bb f5 70 0c bd 9e e7 1f bd 75 82 04 3d
       -0.0056114728 -0.03428741 -0.039039247 0.032350976
0001b0 2d 5e 62 3d 58 96 b0 bb 56 fb 3f bd 3b 29 0f 3c
       0.055265594 -0.005389016 -0.046870552 0.008737857
0001c0 6a 17 2b 3d cd 8b 15 3d b8 13 05 bd 40 05 fb 3c
       0.041770376 0.036510278 -0.03248951 0.030642152
0001d0 3a 32 bd 3c 52 2a 16 3c b7 a6 1d 3d 19 c9 3b 3d
       0.023095239 0.009165363 0.03848907 0.04584608
0001e0 58 05 4c 3d 03 a5 af bc 17 f7 d5 bc d8 50 3b bd
       0.049809784 -0.021440988 -0.026118798 -0.045731395
0001f0 9a d7 87 3c b9 cf 23 3d a6 5d e9 bc 33 21 44 bd
       0.016582299 0.03999302 -0.028487038 -0.047883224
000200 10 5b c4 bc bd 6d 90 bc bb c3 dc bc e2 cf 4c 3c
       -0.023969203 -0.017630452 -0.0269488 0.012500735
000210 a3 79 be bc 28 8b 3a 3d 20 ca a3 3a b8 c6 44 3d
       -0.02325136 0.045542866 0.0012496151 0.048041075
000220 f1 3c d0 3c f7 b7 7c 3c 3d be 4d bd f4 0b dd 3c
       0.025419684 0.01542472 -0.050230253 0.026983239
000230 a4 d0 d4 3c 3d d5 57 bd 14 5e 04 bd 20 5d 34 3d
       0.025978394 -0.052693594 -0.032316282 0.044034123
000240 e1 7c 42 3d 60 f4 53 bd 91 e7 34 bd 7d a9 63 bd
       0.047482375 -0.051746726 -0.04416615 -0.05558156
000250 5e ee 10 3c 3d 5a 57 3d 39 5c 00 bd 0d ca bd 3b
       0.008845894 0.052576292 -0.03133795 0.0057919086
000260 39 3f 1b bc c7 14 38 3d c2 c5 0b 3d 39 9b 05 3d
       -0.009475523 0.04494169 0.034124143 0.032618735
000270 d8 91 9d bb e0 34 6c bd 7f d9 48 3d 5d 8e 47 3d
       -0.0048086457 -0.057667613 0.049035545 0.048719753
000280 a0 65 b9 bc ff 9e 57 bc 82 42 63 bd 4c a9 30 3d
       -0.022631466 -0.013160466 -0.05548335 0.043130204
000290 8a 50 1f 3c aa 6b f5 bc 5a 4b 82 3c d8 04 4c 3b
       0.009723792 -0.029958565 0.015905071 0.0031130817
0002a0 ac 60 b7 bb b7 df cd 3b 91 b6 01 bd 11 da 38 bd
       -0.005596241 0.0062827724 -0.03166825 -0.04512984
0002b0 1b 27 59 bd 43 e7 27 bd 01 fc f0 bb 47 e3 99 bc
       -0.05301581 -0.040992033 -0.00735426 -0.018785132
0002c0 ce 75 24 bd 44 b3 d1 3c 3d 96 63 bc 7e 85 a8 bc
       -0.04015141 0.025598176 -0.0138908 -0.020571467
0002d0 95 e3 0a bd 50 fd 48 3d fc 0b 26 bd bd 72 68 bc
       -0.033908445 0.049069703 -0.040538773 -0.014187512
0002e0 6d 91 20 3d 4e ca fe bb 40 50 81 bb 5e 3d 50 bd
       0.03920119 -0.0077755814 -0.003946334 -0.050839774
0002f0 3b c6 cc 3c 76 2f 07 3d c5 9a 38 bd 09 13 1e 3d
       0.024996867 0.033004247 -0.045069475 0.038592372
000300 91 cd af bc 85 12 61 3b d8 c3 55 bc 6e ad 26 3c
       -0.021460326 0.0034343314 -0.013047181 0.010173185
000310 45 e3 34 bd c8 8b a2 bb 23 10 ee 3c b5 a1 46 3d
       -0.044162054 -0.004960511 0.029060429 0.04849406
000320 0f 35 68 3d 17 b9 30 bc f3 6d ea 3c fb 16 c3 bc
       0.056691226 -0.010786316 0.028616881 -0.023814669
000330 74 8b 11 3d 4a a3 f6 bb d5 bc 57 3c d8 46 40 bc
       0.035533383 -0.00752679 0.01316758 -0.0117356405
000340 3a bd 25 3c cf 01 44 3d d1 3b 54 bd ab 33 81 bc
       0.010115916 0.047853287 -0.051814858 -0.015771708
000350 8b 72 b6 bc 78 32 0f 3c 23 fe 27 bd 63 be 4b bd
       -0.022271415 0.00874006 -0.041013848 -0.049742114
000360 e9 d9 ac bc 42 b3 57 bd d5 4c 2e 3d cf f8 2a bd
       -0.021100001 -0.052661188 0.04255374 -0.04174119
000370 dc b5 ed bc 7a 4b b3 bc fd f0 ec 3b fa b7 cc 3a
       -0.029017381 -0.021886576 0.0072308765 0.0015618794
000380 50 e4 3a 3c 15 b9 1d bd c9 59 21 3d 0d 7a 03 3d
       0.011406973 -0.038506586 0.039392266 0.03209882
000390 62 84 86 bc c9 b8 40 bc 09 5d 1e bd 14 7b a1 3c
       -0.016420547 -0.011762806 -0.038662944 0.019712009
0003a0 f6 a5 8e bc d0 09 8a bb 71 05 16 bd b0 8f 16 3d
       -0.01741312 -0.0042125955 -0.036626283 0.036758125
0003b0 59 12 67 bd f7 3e 33 3b 03 f0 69 ba 03 45 dd 3c
       -0.056413982 0.0027350762 -0.0008924009 0.027010446
0003c0 a7 e6 9a 3c ce 61 95 bb 82 2f 43 3d 47 23 c9 3c
       0.018908812 -0.0045587784 0.04765273 0.024552954
0003d0 2e e0 1c 3d 41 e5 b7 3b c9 a4 4d 3d 4b f5 41 bd
       0.038299732 0.005612046 0.05020598 -0.04735307
0003e0 6f ed ae bc 0d db e0 bc 25 07 b6 3c 67 2e 0d bb
       -0.021353452 -0.027448202 0.022220204 -0.002154255
0003f0 51 94 60 bd 96 87 c6 bc e7 ca 97 3c 8a dd b6 bc
       -0.054828946 -0.024234574 0.018529369 -0.022322435

0.bias f4 [100]
000000 4e 3e 23 bd c5 79 b8 3c 42 ec 31 3d bf 81 a6 bc
       -0.03985434 0.022519002 0.043438204 -0.02032554
000010 46 0c f7 3c a5 f7 48 bd 4b da eb 3c 7d 00 20 bd
       0.03015722 -0.049064297 0.028790614 -0.039062966
000020 d2 46 1b 3d a3 6e 58 bd e4 29 47 bd 53 c3 1e bd
       0.037909336 -0.052839886 -0.048623934 -0.038760494
000030 ab fb 2d bc 71 8b d6 3c 56 fc 38 3d b5 d2 30 3c
       -0.010619084 0.026189538 0.04516252 0.010792424
000040 0d 36 28 3d 30 91 e2 3c 0a 3d 17 bd 04 e3 0e bd
       0.04106717 0.027657121 -0.036923446 -0.034884468
000050 57 13 2e bd fd a4 0d 3c 4d f0 b4 bb 5a 99 59 bc
       -0.042498913 0.008645293 -0.00552181 -0.013281191
000060 14 37 db bb 0e b6 23 3d 2f 52 35 bd 87 51 1a bd
       -0.0066899154 0.039968543 -0.04426783 -0.037675407
000070 fd 58 32 3d d7 b9 19 3c 0a 4e 41 3d c2 b1 9a 3b
       0.043541897 0.009382687 0.047193564 0.0047208974
000080 07 5b 17 3d 57 d1 6c 3d 4e a7 c0 3c 67 f0 06 3c
       0.036952045 0.05781683 0.023517277 0.008236027
000090 ad 08 42 3d 9a f4 67 bd 17 cf 27 bd a9 bd 24 bd
       0.047371555 -0.056629755 -0.04096898 -0.040219937
0000a0 74 03 9b bc 7f 04 ff 3c 73 df 17 3d 8c 4f f9 bc
       -0.018922545 0.031130074 0.037078332 -0.030433439
0000b0 11 ea d1 3c 79 60 23 3d 29 32 76 3c 49 5d 3a 3d
       0.025624307 0.039886925 0.015026608 0.04549912
0000c0 91 25 cc bc 03 35 36 bd a5 9b 9c 3c fc d2 3f 3c
       -0.024920257 -0.04448415 0.019117186 0.011708017
0000d0 56 08 50 3d 04 b6 4f bd 16 8e 37 3d 44 fd fe 3c
       0.0507892 -0.050710693 0.044813238 0.031126626
0000e0 57 33 dd 3c 41 f3 20 3d 83 57 6d bd d7 83 df 3b
       0.02700202 0.039294485 -0.057944786 0.0068211365
0000f0 69 32 37 bc 87 15 52 3d 39 7b 0a 3d e4 97 b7 3c
       -0.011181452 0.05129006 0.03380892 0.022411294
000100 02 1e 17 bc 48 b6 40 bc a1 d0 88 bc 9d fe a1 3c
       -0.009223463 -0.011762209 -0.016701045 0.01977473
000110 16 a4 8c bc 56 e9 18 3d c3 59 42 bd 59 0a c3 bc
       -0.017168086 0.0373319 -0.047448885 -0.023808645
000120 6c ed f2 3c a6 52 37 3c 9c ff 1a bd a2 15 91 3c
       0.029654227 0.0111891385 -0.037841424 0.01771051
000130 ef 8b 9b bc 25 a3 c1 3c 6c 6d db 3c 72 f6 50 3d
       -0.018987624 0.023637364 0.026785575 0.05101628
000140 a0 6f db bb bb f9 6c 3d 4b b6 1f bd 70 19 6d bd
       -0.0066966563 0.05785535 -0.038992207 -0.057885587
000150 39 51 29 3d 1d 1c 25 bd ac 52 3f 3d f1 c9 00 3d
       0.041337226 -0.040310014 0.0467097 0.031442586
000160 9c 4d 79 bc e1 59 0d bc 8e f5 9c 3c 2f 4b 24 3d
       -0.015216257 -0.008627386 0.019160058 0.040110763
000170 0b 4c 46 bd 9c 94 ee bc 12 29 e4 bc bd 86 10 bb
       -0.048412364 -0.029123597 -0.027851615 -0.0022052967
000180 d7 dc 54 bd 78 e5 bf 3c 4c 18 5f 3d 70 fa 1a bd
       -0.05196842 0.023424849 0.05446653 -0.037836492

2.weight f4 [50, 100]
000000 a3 a4 27 3d b8 f8 19 bd be 89 29 bd fb c8 a7 3c
       0.040928494 -0.037590712 -0.041391127 0.020481577
000010 8d b9 4b 3d 59 25 8c bc f0 06 8e bd 12 56 54 3c
       0.049737502 -0.017107653 -0.06934917 0.012959974
000020 6c 4c a9 bc 4a 26 1d 3c f7 f5 c8 bd 8e ec b1 bc
       -0.020666324 0.009591648 -0.09812539 -0.021719243
000030 45 46 23 bb f3 93 1f bd 70 af b2 3d f4 42 02 3a
       -0.002491371 -0.038959455 0.08724868 0.0004969083
000040 80 63 5c 3d b9 6c a8 3d 2e 7d b6 bd 78 2a 31 3d
       0.053805828 0.08223862 -0.08910595 0.043253392
000050 4e 4d 3f 3d 9e c2 c3 3d 57 7a 16 bd b7 4c 3b bd
       0.046704583 0.09558605 -0.036737766 -0.045727458
000060 c2 a8 ac bc d0 e2 a6 bc 0c 63 a9 bd c0 87 a0 3d
       -0.021076564 -0.020371825 -0.08270845 0.07838392
000070 5c ff 49 3d 11 58 95 bd 25 d0 77 bd 2c 37 28 bd
       0.049315795 -0.07292188 -0.060501236 -0.04106824
000080 48 af 8c bd 85 5e 80 bd 7e 6a 47 bd 28 bb d3 bc
       -0.0686937 -0.06268028 -0.048685543 -0.025846079
000090 cf cc b4 bd 4b d3 8d 3d 8f e1 e3 bc 3c 7e 5d bd
       -0.08828127 0.069250666 -0.027817516 -0.054075465
0000a0 39 71 bb 3d e0 49 49 3c 9f 80 98 bd f8 d8 84 bd
       0.09152455 0.01228568 -0.074464075 -0.06486696
0000b0 78 20 a0 bc e2 05 2e bc 93 15 80 bd 05 e9 85 bd
       -0.019546732 -0.01062152 -0.06254115 -0.065385856
0000c0 34 24 b7 bd 98 d7 6d bd 72 fc a9 3d 21 f0 76 3d
       -0.08942452 -0.058066934 0.08300103 0.0602876
0000d0 a5 28 af bd 43 e7 f4 3b ee 08 a1 bd 51 8e b7 3d
       -0.08552674 0.0074738576 -0.07863031 0.089626916
0000e0 a2 b2 d3 bd 19 d5 0f 3d 88 50 a8 3d 9c c8 9e bd
       -0.10336806 0.035115335 0.08218485 -0.07753107
0000f0 4a 26 a2 bb 85 73 cc bd c1 4a 1b 3d 2e 3a 9f bd
       -0.004948412 -0.09982971 0.037913088 -0.07774769
000100 a9 42 18 3d f1 64 ca 3c 2e bf a5 3c 74 15 a1 3d
       0.037172947 0.024706336 0.020232763 0.0786542
000110 37 5b 9c 3d 4b 2b 1d bd 89 b6 a4 3d 5e 7b c4 bd
       0.07634585 -0.038371366 0.08042628 -0.09593843
000120 d7 4a 5e bd 00 0d c7 bd 4a 0b 06 3d c6 e2 bd bd
       -0.05427059 -0.097192764 0.03272561 -0.09271769
000130 7f 7f 8c 3d 11 84 43 3d 85 33 b0 bd e3 43 a5 3d
       0.068602555 0.04773337 -0.086035766 0.08069589
000140 d6 7e ef bc fe 0b ba 3d 5a 50 f0 bc 8c 44 06 3d
       -0.029235285 0.090843186 -0.02933519 0.032780215
000150 2a 36 ac 3c 3f 48 b4 3d cb d2 92 bc 67 c9 33 bc
       0.021021921 0.08802842 -0.01792278 -0.010973311
000160 5b 61 b6 bd ca 0f 7a bd 9a 6d 55 bd 7f 75 3a 3d
       -0.08905288 -0.061050214 -0.052106477 0.04552221
000170 4b b1 fc 3b aa 6f b8 bd a5 cd 4f bd 51 6e a7 bc
       0.0077115647 -0.09005673 -0.050733227 -0.020438345
000180 5b 5c cd bd 2d c2 d4 bb d2 3a d7 bb 1b 68 c4 bc
       -0.10027381 -0.006492874 -0.006568291 -0.023975423
000190 f1 4f b2 3d b3 52 95 bd cd fb 45 bd f0 4b 18 bb
       0.08706654 -0.07291164 -0.04833584 -0.0023238622
0001a0 cc 93 83 bd eb 28 d0 3d 2d 5b a6 3c 60 f7 4b bd
       -0.064246744 0.101640545 0.020307148 -0.049796462
0001b0 19 86 92 bc 50 a8 56 bd 16 2b 8e bc 23 3e 4f bc
       -0.017886208 -0.05240661 -0.01735453 -0.012649092
0001c0 de b3 32 bd 15 99 d1 3d 8a 14 f1 3c 93 5a db 3b
       -0.043628566 0.10234276 0.02942874 0.006694147
0001d0 ba 46 31 bc 86 24 e5 bc 11 a9 2d bd 80 5f b0 3d
       -0.010820085 -0.027971517 -0.042397562 0.08611965
0001e0 3d 26 44 bd 32 44 cf 3b b8 bd 9f 3d de df 76 3d
       -0.04788803 0.006325268 0.07799858 0.06027209
0001f0 40 7b 6a bd c0 1b a3 bd d3 bf 6f 3d 9f c4 c0 bd
       -0.057246447 -0.07964277 0.058532547 -0.094125025
000200 d5 36 45 3d ca 9c b5 bc 78 db bb bb 43 80 a6 bd
       0.048147995 -0.02216949 -0.00573295 -0.08129933
000210 a6 88 59 bd a4 8d c9 3d fd 58 bb bd cb 1a e3 3c
       -0.053108834 0.09841469 -0.091478325 0.027722737
000220 2d bd 79 3d bc ec 0b bd 44 35 a3 3d 43 5b 51 bd
       0.060971428 -0.034161314 0.07969144 -0.051112425
000230 5b bf 2c bd ab 5b 93 bd fd 4e fc 3c 03 40 a4 3c
       -0.04217468 -0.07195219 0.030799383 0.020050054
000240 a3 ef 9a 3d 4d 8a cb 3d ae b0 c3 3a c5 b3 7e bd
       0.07565238 0.09938488 0.0014929974 -0.06218316
000250 08 3f fd bb 23 59 0d bd cd d5 3d bc ba c8 8b bd
       -0.007728461 -0.034508836 -0.011586619 -0.06825395
000260 70 0c 78 bd 6e 84 2f bc 86 4b d3 3d d7 b2 a2 bd
       -0.060558736 -0.010712726 0.10317139 -0.07944267
000270 fc 9a 51 3d b8 f6 81 3d 16 2c c6 3c a8 52 2f bc
       0.051173195 0.06345886 0.024190944 -0.010700859
000280 df 5c 86 bd 9a 6f 95 3d aa 4c 0b 3d 61 17 0f 3d
       -0.065606825 0.07296677 0.03400866 0.034934405
000290 fc be 08 3d e8 2e 85 3d 99 d5 a2 bd 04 ec a6 bd
       0.033385262 0.06503087 -0.07950897 -0.08150485
0002a0 e3 ad 2b bd f0 18 ff 3c 53 9d 55 bd 40 15 99 bd
       -0.04191388 0.03113982 -0.05215199 -0.07474756
0002b0 e0 d4 5b 3d 19 d2 87 bd 60 ee 81 3d 0f 7b 67 3c
       0.05366981 -0.0663187 0.063442945 0.014128461
0002c0 4a 69 79 3d 1d a2 b5 3d 25 fe 86 bd 3d 81 2f bd
       0.060891427 0.08868811 -0.06591443 -0.04284786
0002d0 1e a2 ee ba ee de e8 bc 67 2b 26 3b 20 5c d4 3d
       -0.0018206274 -0.028426614 0.002535546 0.10369134
0002e0 36 21 e4 3c b4 8a c4 3d 29 49 70 bd 44 f3 54 3d
       0.027847867 0.09596768 -0.05866352 0.05198981
0002f0 75 f1 61 bc 95 a2 98 bd 79 3b 08 bd 90 71 8b 3d
       -0.013790478 -0.07452885 -0.033259843 0.0680877
000300 13 c8 98 3d 94 e7 cf 3d a3 6e b8 3c e0 02 8b 3d
       0.07460036 0.10151592 0.022513693 0.06787658
000310 0d 95 15 3c f1 ca a0 bd 1e 04 a5 bd d9 25 84 bd
       0.009129775 -0.07851208 -0.08057426 -0.06452531
000320 d0 65 01 bd 03 94 78 3d 8e 94 cd bc 9b 56 8a 3d
       -0.031591237 0.06068803 -0.02509525 0.067548
000330 57 a4 54 bc ec 3b a0 bd 01 d2 36 3d ce 86 9b bd
       -0.012978635 -0.07823929 0.04463387 -0.07594071
000340 22 f9 61 bd 1d c5 51 bd f4 3d cb 3d 51 af 2f 3d
       -0.055169232 -0.051213372 0.09923926 0.042891804
000350 6d 60 55 3d c4 0b 36 3d c3 ec 21 3c 7c ed a5 bc
       0.052093912 0.044444814 0.009883109 -0.020254843
000360 d7 be 9d bd 7d 5d cb 3d c6 c3 c1 3d b9 5e 3f bd
       -0.077024154 0.09929941 0.09461169 -0.046721194
000370 e5 fd 01 bd 07 b8 18 3d 6b 23 c1 bd d3 cf cf 3d
       -0.031736273 0.037284877 -0.094305836 0.10147061
000380 e2 df 65 bd 77 e9 d4 3d 0f 25 c8 3d 41 45 49 bd
       -0.056121714 0.103960924 0.09772693 -0.04913831
000390 2a 0a 88 bd 83 42 71 bd 64 94 ac 3c fe 1f 87 bd
       -0.06642564 -0.05890132 0.021066852 -0.06597899
0003a0 2a 87 24 3d 6f ad c4 3d de c9 77 bd 97 a5 d1 3c
       0.040167965 0.09603392 -0.06049525 0.025591655
0003b0 d8 79 b6 3d f2 9b 83 bd 89 d0 74 bd 41 4b 8b 3d
       0.089099586 -0.064262286 -0.059769187 0.06801463
0003c0 59 d9 59 3d 13 f9 d1 3d cf 46 c1 ba db 03 d9 bb
       0.053185795 0.10252585 -0.0014745834 -0.006622774
0003d0 60 6a 14 bd ca e5 31 bd 2f b5 6d bd 97 a7 96 3c
       -0.03623426 -0.043432035 -0.05803412 0.01839046
0003e0 c6 5f c1 3d f3 6e fb bc 20 be bf bd da e2 21 bb
       0.094420955 -0.030692553 -0.09362435 -0.0024701864
0003f0 d7 bf 13 3d 1a d3 82 bd ad 25 92 bd ae 16 6d 3d
       0.036071625 -0.06387921 -0.07136092 0.057882957

2.bias f4 [50]
000000 de 12 cd 3c 5b 5e b5 3d 35 c2 b1 bd 3e 06 bc 3d
       0.02503341 0.088558875 -0.0867962 0.09180878
000010 df a0 81 bb eb 10 1e bd 00 1c da 3c f4 85 8f 3d
       -0.003955945 -0.038590353 0.02662468 0.070079714
000020 ec 87 7a bd bb 21 7a bd 2d 00 ba bd da 26 b3 3d
       -0.06116478 -0.061067324 -0.09082065 0.08747645
000030 ad 13 1d bc 86 61 7b 3d 83 e8 48 3d 77 3b 8b 3c
       -0.009587211 0.061372302 0.049049865 0.016996128
000040 ed cc 82 3d 8b 92 18 bd a5 04 61 3d 4c f9 c0 3d
       0.06386743 -0.03724913 0.05493607 0.094225496
000050 7e fe 05 3d 91 a2 39 3d 90 ca 80 3d 20 51 a9 3d
       0.032713406 0.04532105 0.06288636 0.082674265
000060 7f 00 08 ba d4 96 3b bd 1c 39 88 3d 69 b0 96 bd
       -0.0005188062 -0.045798138 0.06651518 -0.07357866
000070 eb 51 43 bd d2 5f b6 3d 25 1b 22 3d a2 3e c0 bd
       -0.047685545 0.08904995 0.03957667 -0.09386946
000080 79 aa 0f bd a3 d1 c9 3d b4 db 91 bd 75 47 b0 3d
       -0.035074685 0.09854438 -0.07121983 0.08607379
000090 15 8b 15 3c 06 67 66 3c f4 71 b0 3c 68 05 1d 3d
       0.009127398 0.014062649 0.021538712 0.038335234
0000a0 0d 99 41 bd e4 05 38 bc ce 95 9b bd 54 5b 6c 3d
       -0.0472651 -0.011231873 -0.07596932 0.057704285
0000b0 48 9c be 3d 89 eb b1 bd a5 6e d2 bd 44 83 1d bd
       0.09307152 -0.08687503 -0.1027501 -0.038455263
0000c0 d8 7a b5 3d 09 d3 af 3d
       0.08861321 0.08585174

4.weight f4 [1, 50]
000000 55 81 02 3c 07 96 b8 bd b4 71 e1 bd 72 6c 45 bd
       0.0079654055 -0.090129904 -0.11008015 -0.048199125
000010 c8 6f be bd f4 3a 9d bd 34 df 73 3b 10 d9 0b 3e
       -0.09298664 -0.0767726 0.0037211897 0.13657022
000020 c5 31 fc 3d 45 db f6 3d f3 6a a3 3d e6 64 db 3c
       0.1231418 0.12053541 0.07979383 0.02678151
000030 12 7f 9a 3b a1 a2 29 3c 80 84 c6 3d 92 41 cf bd
       0.004714855 0.010353715 0.09693241 -0.101199284
000040 1a 9b 5a bd 1f 36 0e 3d db 61 75 bd 1f e6 bc 3d
       -0.053370573 0.034719583 -0.059907775 0.092235796
000050 90 32 af bd 10 8f cc 3d 5a d5 aa 3a e2 2d 05 be
       -0.08554566 0.099882245 0.0013033554 -0.13005784
000060 8e ce 75 bd da e6 ca bd cf cc b8 bd 33 b1 03 3e
       -0.06001144 -0.09907313 -0.09023439 0.12860565
000070 c9 77 8e 3d 55 eb 0a 3d a4 60 02 be 5e 8a 0a be
       0.06956441 0.033915836 -0.12732178 -0.13529345
000080 96 1b d3 3d 75 41 f9 bb df e9 0f 3d ba f3 ac 3d
       0.10307996 -0.00760668 0.035135146 0.08444925
000090 6c 18 e9 bd fc 08 fc 3d c0 dd 71 3d 70 82 b8 bd
       -0.11381611 0.12306401 0.059049368 -0.09009254
0000a0 c8 09 7d bd 80 47 b3 3d d1 e0 cf bd c1 99 e4 bd
       -0.061776906 0.08753872 -0.10150302 -0.11162139
0000b0 35 d3 32 bd ac 26 d3 bd 3d da a5 3c 1c cd 8c 3d
       -0.043658454 -0.103101104 0.020245666 0.06875059
0000c0 82 09 ee bc 95 c7 86 ba
       -0.029057268 -0.0010282869
