client/model.pth (torch, 74932 bytes, 5 tensors)

weight f4 [100, 125]
-0.09109305 -0.09077871 -0.068609565 0.0015241659 0.027117219 -0.0761774 0.049787268 -0.038328964
0.07364483 -0.031319216 0.06949145 0.08386556 0.07176227 0.07721872 -0.052556753 -0.02818488
-0.06141825 -0.004901026 0.07976708 -0.03995745 0.02852525 -0.05588355 -0.018305186 -0.08186138
-0.036009632 -0.08400885 -0.079967126 -0.037873928 -0.027971352 -0.068694994 0.04654836 0.07050012
0.037614435 0.054771613 0.07933167 -0.08618462 -0.027323008 -0.07813576 0.07891483 0.08178924
0.08155031 -0.04510601 -0.04691517 -0.07551788 -0.031459596 0.017425846 -0.0070876856 0.037061606
0.08866964 0.0048832884 0.074832186 -0.04065232 0.06860687 -0.0069144093 -0.034857087 0.03028253
0.007922869 0.061140608 -0.07274224 0.036678337 -0.027046006 -0.06946584 -0.065518044 0.052015003
0.065768234 0.089430206 -0.04510912 0.019488832 0.011899949 0.07149416 -0.04817653 -0.048645563
-0.04645849 -0.059203286 -0.038321458 0.048070844 0.022369683 0.07451208 -0.013089945 0.05620893
-0.07732431 0.011122806 -0.08206001 0.009429495 0.05485829 -0.044158846 -0.09655253 -0.08400572
-0.049611945 -0.028415807 -0.019081503 -0.03246411 -0.019703992 0.050992936 0.051159725 0.013600921
-0.0019201711 -0.097278796 0.08746888 -0.058044393 0.039725725 -0.037976168 -0.056694664 -0.0961043
-0.08376112 0.03421707 -0.064003386 0.027575603 -0.021634692 -0.005848087 -0.029371196 -0.08652678
0.05399373 0.06988783 -0.025589485 -0.011988877 -0.017238865 -0.032892983 -0.01978387 -0.0018799915
-0.03262004 0.005522802 0.04362391 0.010807491 0.0135496175 0.020235451 0.0050623016 0.030895898
-0.036162358 0.041707627 -0.090174325 -0.06445295 0.026750552 -0.061736427 -0.035943422 0.01339923
-0.037380386 0.057757147 0.0077934447 -0.09368659 0.005259998 0.05818925 -0.06044595 -0.006396672
0.045674063 -0.08528481 0.059970215 -0.022517448 -0.004300552 0.036355108 -0.0708338 -0.03427683
0.00526783 0.028226119 0.0068140207 -0.0674144 0.0022647784 -0.06363743 -0.082334585 0.090395115
-0.0055388003 0.06255533 -0.00943365 0.07117717 0.06788965 -0.062147863 0.03594255 -0.06453933
0.04439459 0.072353266 0.00979614 -0.055983223 -0.06497568 0.07340797 -0.038464077 -0.0064253616
-0.04638264 0.017020706 -0.06681789 -0.009560306 -0.048870504 0.07311264 0.022803962 0.022985268
0.04174966 0.0070041064 -0.061831616 -0.065588266 0.0145181045 0.08996188 0.018687354 0.010832081
-0.064824864 -0.06604575 0.08192175 -0.013651405 0.02960872 -0.013374193 -0.0067791524 -0.051440988
0.07128778 0.06660698 0.060926493 -0.0063427915 -0.06675829 -0.0051388955 0.016255202 0.0037051814
0.070290074 -0.06939867 0.07570347 0.039891917 0.07283928 -0.011548257 -0.03803399 0.07589586
0.077868454 0.061250485 -0.045233894 0.02939316 0.062833756 0.019706652 0.037100583 -0.08773097
-0.059666455 0.04935548 0.008835409 -0.029208725 -0.07384123 0.012160521 0.07681339 0.045991056
0.07102052 -0.048399307 0.05607921 0.08690975 -0.026747419 -0.020386286 -0.07742218 -0.04201867
-0.072384894 -0.08190513 -0.07094158 0.0846765 -0.066548996 0.031600583 -0.06806192 -0.03268865
-0.014685149 -0.011695141 0.005643003 0.078162335 0.083025575 0.010620776 0.037384324 -0.030177152
00000000: fe8e babd 30ea b9bd 2c83 8cbd 85c6 c73a
00000010: ee24 de3c e602 9cbd bced 4b3d d5fe 1cbd
00000020: 1ad3 963d 9448 00bd 8951 8e3d b5c1 ab3d
00000030: 19f8 923d d924 9e3d c045 57bd fae3 e6bc
00000040: b491 7bbd c998 a0bb ec5c a33d 6caa 23bd
00000050: c9ad e93c 26e6 64bd c2f4 95bc f0a6 a7bd
00000060: d67e 13bd d50c acbd cec5 a3bd b121 1bbd
00000070: 2d24 e5bc f6af 8cbd 7ea9 3e3d 5e62 903d
00000080: 9811 1a3d 3358 603d a578 a23d 9081 b0bd
00000090: 80d4 dfbc a405 a0bd 199e a13d 1e81 a73d
000000a0: d903 a73d 14c1 38bd 1f2a 40bd 1ea9 9abd
000000b0: c7db 00bd a6c0 8e3c d13f e8bb e9cd 173d
000000c0: 6e98 b53d fe03 a03b 9e41 993d 0c83 26bd
000000d0: c281 8c3d 4592 e2bb 4ec6 0ebd 1113 f83c
000000e0: ecce 013c 936e 7a3d e2f9 94bd 063c 163d
000000f0: 968f ddbc 1b44 8ebd 532e 86bd af0d 553d
00000100: 7fb1 863d 2f27 b73d 57c4 38bd 0ba7 9f3c
00000110: 01f8 423c 886b 923d c154 45bd 9240 47bd
00000120: 424b 3ebd 257f 72bd f6f6 1cbd efe5 443d
00000130: a040 b73c ca99 983d 3577 56bc 563b 663d
00000140: 355c 9ebd 6e3c 363c 140f a8bd 2b7e 1a3c
00000150: 16b3 603d e8df 34bd 55bd c5bd 310b acbd
00000160: e535 4bbd 44c8 e8bc d050 9cbc 16f9 04bd
00000170: 446a a1bc f8dd 503d dc8c 513d 66d6 5e3c
00000180: 40ae fbba 1b3a c7bd e222 b33d f5bf 6dbd
00000190: 71b7 223d e68c 1bbd aa38 68bd 55d2 c4bd
000001a0: f38a abbd 3327 0c3d 3514 83bd 3be6 e13c
000001b0: 3d3b b1bc 4fa1 bfbb dd9b f0bc f434 b1bd
000001c0: 8828 5d3d 5a21 8f3d 0aa1 d1bc ff6c 44bc
000001d0: 8538 8dbc cbba 06bd c811 a2bc 0c6a f6ba
000001e0: 979c 05bd 9ff8 b43b fcae 323d e711 313c
000001f0: 37ff 5d3c d1c4 a53c aae1 a53b 6519 fd3c
00000200: fb1e 14bd 9ed5 2a3d 51ad b8bd e9ff 83bd
00000210: f923 db3c 56df 7cbd 6939 13bd 7288 5b3c
00000220: 2d1c 19bd c292 6c3d 2760 ff3b c1de bfbd
00000230: 105c ac3b da57 6e3d 2c96 77bd 2d9b d1bb
00000240: ba14 3b3d cda9 aebd 54a3 753d 8376 b8bc
00000250: a5eb 8cbb 18e9 143d 5011 91bd dc65 0cbd
00000260: c39d ac3b 763a e73c 2648 df3b 9010 8abd
00000270: ad6c 143b 5754 82bd 099f a8bd 1321 b93d
00000280: d37e b5bb 021d 803d 998f 1abc 56c5 913d
00000290: bb09 8b3d c28e 7ebd 7f38 133d 322d 84bd
000002a0: 1ad7 353d f32d 943d fd7f 203c aa4e 65bd
000002b0: f811 85bd eb56 963d 828c 1dbd d78b d2bb
000002c0: b9fb 3dbd 026f 8b3c d1d7 88bd d4a2 1cbc
000002d0: 702c 48bd 14bc 953d 60cf ba3c 9a4b bc3c
000002e0: b101 2b3d b482 e53b 2643 7dbd 2453 86bd
000002f0: 58dd 6d3c ef3d b83d 3916 993c 0a79 313c
00000300: e6c2 84bd ff42 87bd 97c6 a73d 25aa 5fbc
00000310: fd8d f23c 6e1f 5bbc a723 debb c9b3 52bd
00000320: 54ff 913d 3e69 883d 0f8e 793d 31d7 cfbb
00000330: 92b8 88bd 2e64 a8bb a129 853c a1d2 723b
00000340: 3ef4 8f3d e420 8ebd 6c0a 9b3d b565 233d
00000350: c32c 953d e734 3dbc 87c9 1bbd 4a6f 9b3d
00000360: 7f79 9f3d cae1 7a3d 2d47 39bd edc9 f03c
00000370: fcae 803d d86f a13c c8f6 173d 4bac b3bd
00000380: d064 74bd f928 4a3d 64c2 103c 2347 efbc
00000390: 123a 97bd ec3c 473c 5750 9d3d 1e61 3c3d
000003a0: 3573 913d 5a3e 46bd 50b3 653d bdfd b13d
000003b0: 671d dbbc 2401 a7bc 858f 9ebd c51b 2cbd
000003c0: 883e 94bd e0bd a7bd d249 91bd df6a ad3d
000003d0: d74a 88bd 9d6f 013d 0c64 8bbd 89e4 05bd
000003e0: fb99 70bc fa9c 3fbc f1e8 b83b 9313 a03d
000003f0: 5009 aa3d c302 2e3c 4e20 193d 1336 f7bc

bias f4 [100]
-0.048288666 0.085154146 0.04520104 0.042952433 -0.012431448 0.10450615 -0.0014978008 -0.078054436
0.08858369 0.048265923 0.013134773 0.08006075 0.021424593 0.012183966 0.055188254 0.07519382
0.08830562 0.07010856 0.08683414 0.07907109 0.07769997 0.06541465 -0.066367045 -0.07650009
0.043342516 0.050090607 0.059938364 0.02475402 -0.011982019 0.0055473913 -0.05106388 0.0005840257
0.00873629 0.002139546 -0.0028512315 -0.03331627 0.052952114 -0.028052393 0.066855945 0.09895645
0.06333187 0.0733257 0.080542326 0.07111911 0.0013941911 -0.016720265 -0.026346508 -0.027680371
-0.054156356 0.06631258 -0.025038363 -0.042346086 -0.03485682 -0.056602433 -0.021114442 0.068815164
-0.06076188 -0.016997084 0.046665076 0.036022194 -0.06068734 0.025412329 0.09101966 0.022111308
-0.018343905 -0.081728645 0.08127758 0.059183054 0.091003686 0.02807249 0.04016808 0.03839048
0.06640788 0.057615966 -0.034422785 0.07284485 -0.060433693 -0.039980486 0.04788618 0.023732329
-0.018617384 0.07467594 0.07585896 0.089851 -0.09787997 -0.061877377 -0.0052882275 -0.013483944
0.1075482 0.088821895 0.08883558 -0.08091762 -0.0411251 0.0077492814 -0.06999946 0.052268017
0.0631666 0.036599044 0.009470013 0.054330032
00000000: 56ca 45bd 4c65 ae3d ba24 393d e4ee 2f3d
00000010: 46ad 4bbc 5207 d63d db51 c4ba 01db 9fbd
00000020: 5e6b b53d 7db2 453d 3b33 573c e4f6 a33d
00000030: a182 af3c 429f 473c 140d 623d 38ff 993d
00000040: 94d9 b43d 1495 8f3d 19d6 b13d 06f0 a13d
00000050: 2921 9f3d 1ef8 853d 72eb 87bd 14ac 9cbd
00000060: ec87 313d cf2b 4d3d ee81 753d f1c8 ca3c
00000070: 3b50 44bc e4c6 b53b 5c28 51bd 4d19 193a
00000080: a822 0f3c a037 0c3b badb 3abb a476 08bd
00000090: 51e4 583d 22ce e5bc c5eb 883d aea9 ca3d
000000a0: 24b4 813d c92b 963d 60f3 a43d e5a6 913d
000000b0: 4abd b63a f0f8 88bc a2d4 d7bc f2c1 e2bc
000000c0: 0ed3 5dbd e4ce 873d 411d cdbc 1773 2dbd
000000d0: 06c6 0ebd f4d7 67bd 32f8 acbc f7ee 8c3d
000000e0: 73e1 78bd 783d 8bbc e123 3f3d 028c 133d
000000f0: 4a93 78bd 842d d03c 8468 ba3d c622 b53c
00000100: f545 96bc 5961 a7bd dc74 a63d ee69 723d
00000110: 2460 ba3d 47f8 e53c 4987 243d 563f 1d3d
00000120: db00 883d b8fe 6b3d e8fe 0cbd ae2f 953d
00000130: 5289 77bd 94c2 23bd 4d24 443d 4d6a c23c
00000140: 7c83 98bc b3ef 983d f15b 9b3d cd03 b83d
00000150: 4b75 c8bd 2273 7dbd de48 adbb c3eb 5cbc
00000160: 3b42 dc3d 41e8 b53d 6eef b53d 23b8 a5bd
00000170: cb72 28bd afed fd3b e05b 8fbd fd16 563d
00000180: 7e5d 813d e1e8 153d 1d28 1b3c 2b89 5e3d

weight f4 [50, 100]
0.049823046 -0.029816933 -0.02318897 0.061153505 0.036852013 -0.008962944 0.022921259 0.06023668
0.034738146 0.05069096 0.024271363 0.071159445 0.045968104 -0.011224237 0.050236907 -0.03529069
-0.05368618 0.055766806 0.0018290271 -0.071369566 0.008820056 0.0042863963 -0.07905789 0.068497546
0.11154064 0.046082314 -0.07414754 0.10084326 -0.0799786 0.004536525 0.013336036 0.10072895
-0.06557059 0.09316567 -0.056307252 -0.07453689 0.07141009 -0.0016243164 -0.00910906 -0.038145926
0.0003701673 0.0010859915 0.022412224 0.05349765 0.0063861064 0.04174893 -0.076440655 0.05174304
0.111371726 0.03950833 -0.031059306 0.10631079 0.07095227 -0.05957743 0.052192904 0.04435458
0.11070232 -0.06047451 0.016411154 -0.031154273 0.013075111 0.11141731 -0.007804607 -0.015185861
0.05361864 0.06861187 -0.06385482 0.08304461 -0.033354897 -0.013939939 0.07255162 -0.07078763
0.08312115 -0.0155729465 0.003395372 -0.024696494 -0.05492651 0.061379995 0.07073762 -0.07747936
0.10662802 0.029348474 -0.02696728 0.0110727195 -0.0058894423 -0.07749283 -0.014129266 -0.08242431
0.08554209 -0.025391476 -0.054110352 -0.027267428 -0.07093704 -0.015164734 0.06885469 -0.07378392
-0.030598586 0.02075918 0.0519817 0.07135882 -0.07612888 -0.047837548 -0.0074337823 -0.055413507
-0.07841215 0.068021625 -0.04110858 -0.0019198022 -0.021468988 -0.012869854 -0.03404647 -0.044450812
0.055265777 -0.055116758 -0.08944096 -0.024179306 -0.08126357 -0.006027428 0.06920888 -0.08736599
-0.07069761 0.015300985 0.012258262 -0.032065157 -0.04816064 -0.061560694 -0.061533906 -0.040031783
-0.060233064 0.078691825 0.005242372 -0.080073185 -0.06882033 -0.005719898 -0.07421533 0.05263759
-0.01500003 0.033817664 0.08677607 -0.027552275 0.015026285 -0.013825285 0.022581894 -0.031658
0.039265875 0.0659986 -0.09162991 -0.022898337 0.026254177 0.09554925 0.036101595 -0.05227249
0.0058590258 -0.058389295 -0.04058058 0.05795205 -0.0014218595 0.08655535 -0.0025676605 -0.08641989
0.08763277 -0.057526637 0.07053128 -0.0045071202 0.008868735 0.09601951 0.031602073 0.08536385
-0.028082779 0.09168076 0.06473143 0.0046973843 -0.059513327 0.070462845 -0.04879874 -0.011201077
-0.046774846 0.009016195 -0.08243487 -0.00210809 -0.08367274 0.003959511 0.013455092 0.034845453
0.020848613 0.024561249 0.02474684 -0.044331163 -0.01949488 -0.018487759 0.010879397 -0.04859042
-0.08827732 -0.035810452 -0.027211195 -0.011284828 -0.08727121 -0.100631855 -0.07909609 0.0064461106
0.045592412 0.050658584 -0.012086064 -0.07478876 -0.02381989 0.098034844 -0.043746382 -0.026079532
0.047505956 0.07961608 0.029621707 -0.00073624094 -0.014354996 0.0105715925 0.0013862397 0.03403073
0.024647359 0.029803341 -0.0095233545 -0.06999602 0.006288194 -0.06491357 -0.058911193 0.09899916
-0.059201125 0.06686226 0.09038681 0.034225814 0.02354022 -0.05498582 0.021794003 0.057002466
0.09932221 -0.058562443 0.04535993 0.054006428 -0.019525485 0.06980183 -0.047430903 -0.060898785
0.08267779 -0.030576218 -0.06404518 -0.078101225 0.051152527 0.109039985 -0.0457529 -0.041147687
0.047461443 -0.010369911 0.08135915 0.028189115 -0.053335648 -0.0454855 0.098142646 -0.014652136
00000000: 4013 4c3d a442 f4bc cbf6 bdbc 197c 7a3d
00000010: 23f2 163d 50d9 12bc 5dc5 bb3c bdba 763d
00000020: 9649 0e3d 53a1 4f3d bdd4 c63c 0bbc 913d
00000030: 0d49 3c3d dde5 37bc 37c5 4d3d f88c 10bd
00000040: 0ae6 5bbd bc6b 643d f7bb ef3a 352a 92bd
00000050: ff81 103c e674 8c3b 1ae9 a1bd 7148 8c3d
00000060: 6b6f e43d cfc0 3c3d aada 97bd e986 ce3d
00000070: d2cb a3bd 21a7 943b 647f 5a3c fb4a ce3d
00000080: e049 86bd a5cd be3d 6fa2 66bd cca6 98bd
00000090: 743f 923d 04e7 d4ba 2b3e 15bc e73e 1cbd
000000a0: 0413 c239 d457 8e3a d799 b73c 5a20 5b3d
000000b0: 8b42 d13b ed00 2b3d eb8c 9cbd 83f0 533d
000000c0: dc16 e43d 7dd3 213d 1670 febc 79b9 d93d
000000d0: 6c4f 913d 7707 74bd 3ac8 553d 26ad 353d
000000e0: e6b7 e23d 1fb4 77bd af70 863c 3f37 ffbc
000000f0: fe38 563c c22e e43d cabd ffbb 1ece 78bc
00000100: 389f 5b3d 6184 8c3d 51c6 82bd 4b13 aa3d
00000110: 259f 08bd 5864 64bc f295 943d 1bf9 90bd
00000120: 6c3b aa3d ac25 7fbc e484 5e3b 4d50 cabc
00000130: 9ffa 60bd 9769 7b3d e3de 903d 80ad 9ebd
00000140: cb5f da3d 366c f03c 7cea dcbc 5a6a 353c
00000150: 39fc c0bb 90b4 9ebd 707e 67bc 14ce a8bd
00000160: b130 af3d c901 d0bc d1a2 5dbd f15f dfbc
00000170: 7047 91bd 8175 78bc b003 8d3d 061c 97bd
00000180: e3a9 fabc 280f aa3c c3ea 543d 9324 923d
00000190: 75e9 9bbd 4ef1 43bd 1697 f3bb 46f9 62bd
000001a0: 8d96 a0bd ec4e 8b3d 7861 28bd dfa1 fbba
000001b0: bbdf afbc 15dc 52bc 5074 0bbd 0e12 36bd
000001c0: 5e5e 623d 1cc2 61bd d22c b7bd ae13 c6bc
000001d0: 846d a6bd bb81 c5bb 63bd 8d3d f1ec b2bd
000001e0: e9c9 90bd fcb0 7a3c e1d6 483c c156 03bd
000001f0: 1744 45bd 1127 7cbd fa0a 7cbd 5ef8 23bd
00000200: f2b6 76bd 2e29 a13d 34c8 ab3b 69fd a3bd
00000210: acf1 8cbd fb6d bbbb 35fe 97bd 839a 573d
00000220: b0c2 75bc 6484 0a3d a7b7 b13d 4fb5 e1bc
00000230: cf30 763c 7383 62bc aafd b83c d2ab 01bd
00000240: 41d5 203d 462a 873d 76a8 bbbd 4b95 bbbc
00000250: 0013 d73c 53af c33d 44df 133d ae1b 56bd
00000260: 12fd bf3b 9d29 6fbd d237 26bd 215f 6d3d
00000270: b05d baba ee43 b13d 3246 28bb e9fc b0bd
00000280: cf78 b33d 0da1 6bbd b472 903d 77b0 93bb
00000290: 2c4e 113c e0a5 c43d 2d71 013d 3ed3 ae3d
000002a0: db0d e6bc 1fc3 bb3d e991 843d 84ec 993b
000002b0: 3fc4 73bd d34e 903d 30e1 47bd b984 37bc
000002c0: fb96 3fbd aab8 133c 9dd3 a8bd e227 0abb
000002d0: 9d5c abbd c9be 813b bf72 5c3c 1bba 0e3d
000002e0: b6ca aa3c ac34 c93c e3b9 ca3c 9894 35bd
000002f0: bab3 9fbc a473 97bc 803f 323c c006 47bd
00000300: bdca b4bd fbad 12bd 03ea debc 00e4 38bc
00000310: 40bb b2bd 1318 cebd 21fd a1bd e539 d33b
00000320: 1cbf 3a3d 607f 4f3d a004 46bc d92a 99bd
00000330: ee21 c3bc 7ec6 c83d 682f 33bd bea4 d5bc
00000340: 9b95 423d c10d a33d 39a9 f23c 4b00 41ba
00000350: 3831 6bbc 7934 2d3c 7cb2 b53a cf63 0b3d
00000360: 42e9 c93c 2326 f43c d807 1cbc 135a 8fbd
00000370: 320d ce3b 68f1 84bd dd4c 71bd 12c0 ca3d
00000380: e17c 72bd 15ef 883d b81c b93d 5e30 0c3d
00000390: 6bd7 c03c d038 61bd 5689 b23c 6b7b 693d
000003a0: 7169 cb3d 2cdf 6fbd 55cb 393d d835 5d3d
000003b0: e9f3 9fbc 43f4 8e3d e846 42bd 0171 79bd
000003c0: f952 a93d fa7a fabc 1f2a 83bd 89f3 9fbd
000003d0: 5085 513d 5b50 df3d 6567 3bbd 7a8a 28bd
000003e0: ee66 423d 8fe6 29bc a09f a63d dcec e63c
000003f0: 7b76 5abd 014f 3abd 03ff c83d 830f 70bc

bias f4 [50]
-0.034589335 -0.066484906 0.027878491 -0.020448685 0.06798652 -3.0975034e-06 -0.050390307 -0.033348847
-0.086722165 0.061193578 0.060410023 0.02281163 0.043132 0.015218477 -0.081129774 0.047635987
-0.07506699 -0.0877595 -0.016272493 0.076095544 0.08764903 -0.09749679 0.116521694 0.11404005
0.073647276 -0.08363762 0.06193887 -0.045030847 0.015993288 -0.039812185 -0.0014174052 0.10673324
0.042112485 0.073703215 0.008430738 -0.06591156 0.11317823 0.07120308 -0.0817241 0.046265066
0.037718613 0.06259974 0.034617297 -0.042100247 -0.033057053 -0.033036064 -0.077173226 0.037194498
0.026633855 0.014647627
00000000: 8cad 0dbd 3d29 88bd 6f61 e43c 0084 a7bc
00000010: 843c 8b3d b4de 4fb6 1166 4ebd cd98 08bd
00000020: 649b b1bd 1ea6 7a3d 8070 773d 75df ba3c
00000030: 2eab 303d eb56 793c 5e27 a6bd f41d 433d
00000040: b9bc 99bd 41bb b3bd e44d 85bc fbd7 9b3d
00000050: 5681 b33d 66ac c7bd eda2 ee3d d48d e93d
00000060: 62d4 963d 334a abbd 9db3 7d3d 4472 38bd
00000070: 5b04 833c 1a12 23bd 3ac8 b9ba f596 da3d
00000080: 247e 2c3d b6f1 963d 1421 0a3c a4fc 86bd
00000090: fdc9 e73d ecd2 913d f75e a7bd 7080 3d3d
000000a0: d57e 1a3d 4b34 803d deca 0d3d 4f71 2cbd
000000b0: d566 07bd d350 07bd ff0c 9ebd 4259 183d
000000c0: 3e2f da3c 9afc 6f3c

weight f4 [1, 50]
-0.14519687 0.043240715 -0.14063063 0.08425844 -0.1208183 -0.027778508 0.051276203 0.11942105
0.008245374 -0.018931651 0.06681846 0.04054056 -0.064400285 0.01983076 0.062009733 -0.14486971
-0.13336508 -0.0006323613 -0.1198201 -0.014436798 0.09097065 -0.0013098896 -0.14609283 -0.028534357
0.0068961033 0.070958436 -0.07759167 -0.011988841 -0.15584263 0.07134513 0.10096867 -0.04762048
-0.030601427 -0.10281757 0.092677884 0.0030323595 -0.09315812 -0.01568519 0.033007372 0.059716336
-0.06540824 0.08007475 0.086356595 0.052431997 0.114643514 -0.052110735 0.062867075 -0.05981039
-0.08397881 0.04399956
00000000: 7dae 14be 2d1d 313d 7a01 10be b08f ac3d
00000010: 966f f7bd c18f e3bc ff06 523d 0693 f43d
00000020: 9b17 073c 8d16 9bbc 1ed8 883d dc0d 263d
00000030: 4ce4 83bd 1e74 a23c ebfd 7d3d ba58 14be
00000040: db90 08be 0cc5 25ba 3e64 f5bd 5288 6cbc
00000050: d24e ba3d 9ab0 abba 5c99 15be e2c0 e9bc
00000060: b5f8 e13b a852 913d 62e8 9ebd d86c 44bc
00000070: 3695 1fbe 651d 923d a9c8 ce3d b10d 43bd
00000080: d8af fabc 0592 d2bd e7cd bd3d 8dba 463b
00000090: afc9 bebd 3a7e 80bc bd32 073d 1e99 743d
000000a0: c1f4 85bd 3bfe a33d badb b03d efc2 563d
000000b0: 38ca ea3d 1172 55bd 74c0 803d bdfb 74bd
000000c0: 15fd abbd e238 343d
