client/model.pth (torch, 170932 bytes, 5 tensors)

weight f4 [100, 365]
-0.018788164 -0.033498857 0.014129097 -0.017628457 0.03912475 0.0117025385 0.0257856 -0.027630087
-0.017732745 0.012163644 0.03085925 -0.036619883 0.029581524 -0.038671587 -0.005650965 -0.018119514
-0.04711854 0.019430647 0.051065713 -0.00895331 -0.0046802964 -0.0151326945 0.02989011 -0.009673413
0.016339181 0.012812079 -0.019741146 -6.7589244e-05 0.013121552 0.049615353 0.06416741 -0.04753989
-0.016228689 0.033129 0.042424385 0.018677657 0.045266293 -0.014271771 0.013769564 -0.05237795
-0.018349987 0.029209275 -0.05207675 0.04170577 -0.046607293 -0.01968408 -0.03329283 -0.009131327
0.020300066 0.010879524 -0.02552667 -0.024118813 0.037568204 0.019421186 0.0023002415 0.041101113
0.04018134 -0.034961015 0.027076444 -0.046288624 -0.050486088 -0.03611631 -0.042409107 -0.03528779
0.012331564 -0.036972824 0.026225192 0.02070531 0.04498132 0.035889804 -0.02404503 -0.02747225
-0.052539628 -0.030429268 0.002095692 -0.03542822 -0.012249581 -0.03791023 -0.025514774 0.013592683
-0.025251351 -0.044261098 -0.029827612 -0.05098196 0.0028838143 -0.019378638 0.05221502 0.031064503
0.02862341 -0.014691316 -1.9881918e-05 -0.012520955 0.013939232 -0.04853429 0.020085596 0.042885654
-0.011894379 0.037869547 -0.0004435368 0.024294645 0.047090128 -0.0061629666 0.025919791 -0.039918657
-0.028645426 0.042536344 -0.01286373 -0.06327364 -0.060829405 0.009323403 -0.047497477 -0.012775262
0.073373966 0.0115167 -0.067364074 0.04448354 -0.032182228 -0.0107384855 -0.060704283 -0.03100357
0.019694095 0.0042149676 0.040944204 0.030605897 -0.027889783 0.039617755 0.00073555816 0.016748287
0.036359224 0.04084997 -0.021718608 -0.014844168 0.050371174 0.043111883 -0.007354698 0.005830849
-0.069166794 -0.024639236 -0.017047305 -0.055285934 -0.0017362008 0.04338894 0.0116788335 -0.05093286
0.02077853 0.0017980102 0.026892189 0.05024861 0.032516893 -0.017695934 0.017406156 0.027057756
0.05900349 -0.017126864 -0.0041238605 0.033240046 -0.019237345 0.023001414 -0.019825855 -0.0379988
-0.035800662 0.0024279803 -0.0059553175 -0.019655487 -0.06718803 -0.030328132 0.001738604 0.024410484
-0.004457516 0.046983015 -0.021790057 -0.03316714 -0.008675066 0.03173951 -0.050545607 0.035552785
-0.0236799 -0.024770748 -0.02395065 -0.03947762 0.050895482 -0.010549277 -0.054081615 0.0057958714
0.045382526 -0.009698029 -0.03662668 0.05196795 -0.04014506 -0.059341844 -0.025914747 0.017964669
-0.03832781 0.032919034 -0.03135825 0.03997622 -0.010523076 -0.06567128 0.0066499244 0.023179447
0.030680474 -0.053277414 -0.0036653539 -0.041567884 -0.0059537767 -0.035235796 0.04819658 -0.012299893
0.029582359 -0.0044079158 -0.012583132 -0.03341698 0.030498534 -0.04973636 -0.0667477 -0.04312505
0.0005207809 0.004065698 0.013509277 -0.010619116 -0.03951522 0.040612713 0.024291724 -0.032927897
-0.013662179 0.0351143 -0.018688533 0.032409225 0.040451605 0.050048646 -0.07221301 -0.074276514
-0.009316095 0.046306234 -0.06177382 -0.01285212 -0.0421716 0.003905998 -0.029346328 0.05208467
0.039105367 0.0025186844 -0.0030140516 0.0037495678 0.0031615684 -0.02953735 0.01407832 -0.0029973048
0.039571613 0.01606498 0.057548486 -0.013049951 -0.043164637 -0.010041551 0.02941311 -0.028167918
00000000: a3e9 99bc 1936 09bd ba7d 673c 8e69 90bc
00000010: 4641 203d 01bc 3f3c 533c d33c 7e58 e2bc
00000020: 4344 91bc 054a 473c 8acc fc3c bbfe 15bd
00000030: f454 f23c 1966 1ebd bb2b b9bb 606f 94bc
00000040: 5fff 40bd 052d 9f3c 482a 513d e7b0 12bc
00000050: 2c5d 99bb 1fef 77bc 1bdc f43c 3c7d 1ebc
00000060: bfd9 853c c1e9 513c 2fb8 a1bc b3be 8db8
00000070: c7fb 563c 7839 4b3d 346a 833d 30b9 42bd
00000080: 07f2 84bc 46b2 073d 31c5 2d3d e301 993c
00000090: 2669 393d 25d4 69bc bd99 613c 438a 56bd
000000a0: b652 96bc 4a48 ef3c 6e4e 55bd abd3 2a3d
000000b0: 4ae7 3ebd 8240 a1bc 105e 08bd 909b 15bc
000000c0: 534c a63c 0840 323c 4f1d d1bc d194 c5bc
000000d0: 1ee1 193d 2e19 9f3c a6bf 163b a459 283d
000000e0: 3095 243d 4833 0fbd 6bcf dd3c 2499 3dbd
000000f0: 80ca 4ebd b2ee 13bd 2cb5 2dbd ee89 10bd
00000100: 540a 4a3c d170 17bd 37d6 d63c 2f9e a93c
00000110: 553e 383d 3001 133d 15fa c4bc 7c0d e1bc
00000120: cb33 57bd cd46 f9bc e157 093b 2e1d 11bd
00000130: 77b2 48bc c247 1bbd 5c04 d1bc d8b3 5e3c
00000140: ecdb cebc 204b 35bd 0959 f4bc 76d2 50bd
00000150: 60fe 3c3b f3bf 9ebc 6bdf 553d fc7a fe3c
00000160: a47b ea3c d8b3 70bc 18c8 a6b7 b124 4dbc
00000170: 6061 643c e4cb 46bd 8c8a a43c dea8 2f3d
00000180: a4e0 42bc 191d 1b3d 808a e8b9 9005 c73c
00000190: 94e1 403d b6f2 c9bb be55 d43c bf81 23bd
000001a0: d0a9 eabc 973a 2e3d 65c2 52bc 9c95 81bd
000001b0: 4128 79bd 30c1 183c b78c 42bd 554f 51bc
000001c0: 1745 963d 8ab0 3c3c 2df6 89bd 5f34 363d
000001d0: 83d1 03bd 79f0 2fbc 0ea5 78bd 33fb fdbc
000001e0: 8355 a13c b61d 8a3b 1cb5 273d 38b9 fa3c
000001f0: 1d79 e4bc 3a46 223d 79d2 403a b433 893c
00000200: 69ed 143d 4c52 273d 39eb b1bc f434 73bc
00000210: 0152 4e3d 1696 303d aeff f0bb b510 bf3b
00000220: 52a7 8dbd 39d8 c9bc caa6 8bbc 8173 62bd
00000230: 3b91 e3ba 9ab8 313d 9458 3f3c f99e 50bd
00000240: bc37 aa3c 36ab eb3a 024d dc3c 7dd1 4d3d
00000250: 6f30 053d 10f7 90bc 5b97 8e3c 3aa8 dd3c
00000260: a5ad 713d a34d 8cbc 7321 87bb b726 083d
00000270: a397 9dbc 766d bc3c d569 a2bc a1a4 1bbd
00000280: b7a3 12bd c01e 1f3b d324 c3bb 8b04 a1bc
00000290: e199 89bd b472 f8bc dfe1 e33a 7ff8 c73c
000002a0: 5b10 92bb 4371 403d 1081 b2bc 44da 07bd
000002b0: dd21 0ebc 4a01 023d e908 4fbd cc9f 113d
000002c0: 5afc c1bc 06ec cabc 2734 c4bc 49b3 21bd
000002d0: c877 503d e0d6 2cbc af84 5dbd 4beb bd3b
000002e0: 07e3 393d 7be4 1ebc dc05 16bd 58dc 543d
000002f0: 256f 24bd 6f10 73bd 2a4b d4bc a42a 933c
00000300: 9ffd 1cbd 1cd6 063d 8271 00bd 1bbe 233d
00000310: fb68 2cbc aa7e 86bd 9ce7 d93b d3e2 bd3c
00000320: 9e55 fb3c 6b39 5abd 6f36 70bb 1643 2abd
00000330: e617 c3bb 6953 10bd c769 453d 7e85 49bc
00000340: b456 f23c 4770 90bb 7b29 4ebc 3ee0 08bd
00000350: 10d8 f93c 5ab8 4bbd 05b3 88bd e4a3 30bd
00000360: 0485 083a 8c39 853b 0456 5d3c cdfb 2dbc
00000370: b6da 21bd 8459 263d 70ff c63c 67df 06bd
00000380: 55d7 5fbc 03d4 0f3d b218 99bc 89bf 043d
00000390: 95b0 253d cfff 4c3d 6ae4 93bd 491e 98bd
000003a0: 89a2 18bc 9bab 3d3d 8c06 7dbd b391 52bc
000003b0: 21bc 2cbd c6fb 7f3b b667 f0bc bc56 553d
000003c0: f32c 203d 8310 253b 6587 45bb 4fbb 753b
000003d0: 5132 4f3b 50f8 f1bc c1a8 663c 6e6e 44bb
000003e0: d815 223d b49a 833c f6b7 6b3d 76cf 55bc
000003f0: 67cd 30bd 5185 24bc c3f3 f03c 68c0 e6bc

bias f4 [100]
-0.0094698565 0.0043241293 0.08217653 -0.010869104 0.010632972 0.002155115 0.04643559 0.031091841
0.048015717 0.059005987 0.05352433 0.051859204 0.031855 0.0003529709 0.03431356 -0.020864436
0.060533963 -0.0010566451 0.06353647 0.04894018 0.0502569 0.04235357 0.043249432 0.038311142
0.037870497 -0.018329734 -0.041447863 0.042122625 -0.012066578 -0.021558804 0.053565472 -0.0259744
-0.0343213 0.06208002 -0.0033094645 0.046714608 0.06285512 0.03485082 0.029388418 0.072741255
0.037358005 0.014069452 0.037431367 0.024081547 -0.0047574835 0.052443404 0.028747573 0.07122739
0.015787577 0.04509405 0.023308633 -0.045863606 0.045399595 -0.021194046 0.049487162 0.028551204
0.0353819 0.029021755 -0.015131524 -0.016655894 0.052537333 -0.02928964 0.005208459 -0.0055456823
0.0015263465 0.010825168 0.024196386 -0.040978707 -0.01743116 0.07383381 -0.011643785 -0.034766518
-0.001697208 -0.011339775 0.010021571 0.028474087 0.010186255 -0.014029366 0.03376029 0.060038857
-0.020234443 0.059189685 0.015098598 0.015875522 0.023134578 0.0065775015 -0.016415609 0.012402097
0.015890697 0.06475779 0.009792634 -0.0022252472 0.005402209 0.0531923 0.03770253 -0.007404248
0.08200333 -0.029381536 0.034238875 -0.048591975
00000000: 7527 1bbc 6db1 8d3b 2b4c a83d 5414 32bc
00000010: eb35 2e3c d43c 0d3b 3f33 3e3d 51b4 fe3c
00000020: 21ac 443d 43b0 713d 543c 5b3d 516a 543d
00000030: 637a 023d f40e b939 608c 0c3d e5eb aabc
00000040: 76f2 773d 207f 8aba 691f 823d 8075 483d
00000050: 2eda 4d3d f07a 2d3d 5126 313d 25ec 1c3d
00000060: 181e 1b3d 3d28 96bc 3cc5 29bd c688 2c3d
00000070: e5b2 45bc 179c b0bc 7867 5b3d 44c8 d4bc
00000080: 7e94 0cbd 9e47 7e3d 9ae3 58bb d157 3f3d
00000090: 2fba 803d bcbf 0e3d fbbf f03c 5ef9 943d
000000a0: b504 193d 8f83 663c a251 193d aa46 c53c
000000b0: aae4 9bbb e5ce 563d 0880 eb3c aadf 913d
000000c0: f354 813c 8ab4 383d bff1 be3c 7adb 3bbd
000000d0: edf4 393d 239f adbc 0db3 4a3d 37e4 e93c
000000e0: 9cec 103d 08bf ed3c 36ea 77bc f171 88bc
000000f0: 6331 573d d4f0 efbc b9ab aa3b 8eb8 b5bb
00000100: b10f c83a 0c5c 313c 8037 c63c 4ad9 27bd
00000110: cbcb 8ebc 2e36 973d 93c5 3ebc 5667 0ebd
00000120: da74 deba 77ca 39bc 8431 243c 7d42 e93c
00000130: 40e4 263c 6ddb 65bc 3b48 0a3d 4eeb 753d
00000140: b4c2 a5bc e270 723d 1c60 773c 620d 823c
00000150: ba84 bd3c 1588 d73b 077a 86bc 2a32 4b3c
00000160: 352d 823c bb9f 843d 4971 203c 74d5 11bb
00000170: 0305 b13b 2be0 593d f86d 1a3d 569f f2bb
00000180: 5df1 a73d 8cb1 f0bc 103e 0c3d 6108 47bd

weight f4 [50, 100]
-0.018999834 -0.08233331 -0.035146303 0.04589181 0.06751556 -0.09151712 0.09280484 0.020385217
0.043844704 -0.044229932 0.052369032 0.08679926 -0.0008815862 0.0862977 0.016096001 -0.013133429
-0.009882996 -0.048317146 -0.024944821 0.046314154 -0.007535346 -0.0163375 -0.06467595 -0.09707478
0.07488333 0.047116373 -0.054094072 0.06681857 -0.08614071 -0.07942218 0.035503205 0.078817084
0.018560011 -0.030285781 -0.056416772 0.07902812 0.015318412 -0.104851596 -0.09987695 0.031509712
-0.10176349 -0.024290685 0.056640618 -0.06839375 0.06814872 0.01690638 0.053358726 -0.031711496
-0.091340624 -0.083212376 -0.005496602 -0.07041135 0.04578137 -0.058730952 0.024590667 0.0031831886
0.03552298 0.049376793 -0.0044066827 -0.10100467 -0.07930046 0.086593084 -0.037493598 0.02692329
-0.01564168 0.04396787 0.030190941 -0.0921351 -0.017927019 0.06353278 -0.055239026 0.0002224535
-0.014773011 0.027258528 -0.085507795 -0.0861563 -0.014403775 -0.061591048 -0.04256329 0.055406343
-0.018507695 -0.08949239 -0.07179739 -0.09438622 0.05880654 0.038893756 0.012258125 -0.07756145
0.073456794 0.022128502 -0.08484476 0.07842816 0.04697634 -0.0567559 -0.052232035 0.040799532
0.045753196 -0.025764883 -0.09030314 0.023421628 0.004056695 -0.0005644224 0.04363631 -0.03622216
0.018261587 -0.028921362 0.02522118 -0.088954434 0.012421002 0.002165892 0.07850276 0.03249576
-0.09232581 -0.013241947 -0.08689111 -0.014849204 0.074000314 -0.065921664 -0.07958992 -0.0967969
-0.056282762 -0.053034917 -0.041842632 -0.031738196 -0.013678346 -0.06718679 0.06484144 -0.013332168
0.04862524 0.063112624 0.025633551 0.079044685 -0.078339376 -0.01280296 -0.029465402 0.05500947
0.047495607 0.0038794521 -0.040242363 0.06309001 0.034666993 0.010563327 -0.079140216 -0.077218376
0.0021940374 -0.017602341 0.03115002 0.075374156 -0.09372442 0.09244694 0.038977098 -0.09447928
0.036584515 0.03209958 0.02264671 0.040426716 -0.050642405 0.0007414212 -0.07277119 -0.008838786
0.07375834 -0.096704334 0.02919515 -0.04456737 -0.025833352 -0.024891078 -0.08833202 -0.0332081
-0.036325276 -0.070705876 -0.09738494 0.085511364 0.030600594 0.06839169 0.058984727 0.07127527
-0.07499919 0.054496285 -0.021591099 0.018999243 -0.07996279 -0.061779644 -0.078659184 0.004649433
-0.030558812 -0.08778917 0.07146686 -0.09250787 0.052268643 -0.046032537 -0.103937134 0.06321584
-0.018745326 -0.08141417 -0.082864575 -0.011888426 0.068622395 -0.056419298 -0.104372874 0.05718581
-0.022658186 -0.086473785 0.07480271 -0.08832284 -0.04955967 -0.0044941455 -0.106010064 0.035942752
0.052316695 0.011177147 -0.05806016 -0.033183496 -0.105630696 -0.07545474 0.009604634 -0.009496401
-0.088931754 0.08153385 -0.08997612 -0.1054819 0.07512273 -0.038327105 0.06374816 -0.07839054
-0.09575162 -0.09436487 0.06943661 -0.028829342 0.069510855 -0.053610023 -0.03376967 -0.00020988274
0.03550522 -0.040864225 0.03704027 0.06486697 0.071549 -0.04532262 -0.06860032 0.042623643
-0.031131867 -0.096942775 0.014054264 -0.02987969 0.058282237 0.008800245 0.0860769 -0.0035361894
-0.083043635 -0.039421786 0.039767053 -0.017135622 0.02555633 0.034957897 -0.019529609 -0.09601518
00000000: 8aa5 9bbc 5e9e a8bd 92f5 0fbd 0df9 3b3d
00000010: 9945 8a3d 546d bbbd 7710 be3d e6fe a63c
00000020: 8196 333d 722a 35bd e980 563d cfc3 b13d
00000030: 401a 67ba d9bc b03d c3db 833c 982d 57bc
00000040: 4aec 21bc 33e8 45bd 1559 ccbc e9b3 3d3d
00000050: 10eb f6bb 39d6 85bc d374 84bd 24cf c6bd
00000060: 6e5c 993d 19fd 403d bf91 5dbd 2dd8 883d
00000070: 8a6a b0bd 19a8 a2bd cf6b 113d da6a a13d
00000080: 2a0b 983c e319 f8bc 4615 67bd 7fd9 a13d
00000090: 14fa 7a3c 6fbc d6bd 498c ccbd 5410 013d
000000a0: 6069 d0bd 42fd c6bc feff 673d 0612 8cbd
000000b0: 8e91 8b3d 407f 8a3c ae8e 5a3d eae3 01bd
000000c0: cb10 bbbd 406b aabd d71c b4bb d333 90bd
000000d0: 3f85 3b3d de8f 70bd 5e72 c93c 0b9d 503b
000000e0: 8b80 113d 523f 4a3d ef65 90bb 89db cebd
000000f0: 4868 a2bd b757 b13d e392 19bd 3b8e dc3c
00000100: fb22 80bc a717 343d fe52 f73c 54b1 bcbd
00000110: afdb 92bc 791d 823d 5142 62bd 6842 6939
00000120: 800a 72bc 474d df3c b61e afbd b772 b0bd
00000130: d0fd 6bbc e546 7cbd d856 2ebd c3f1 623d
00000140: 739d 97bc c947 b7bd 830a 93bd 904d c1bd
00000150: 20df 703d 0f4f 1f3d 4dd6 483c 8ad8 9ebd
00000160: 8470 963d d546 b53c 17c3 adbd f19e a03d
00000170: 436a 403d e078 68bd 42f1 55bd 691d 273d
00000180: b467 3b3d e010 d3bc daf0 b8bd b7de bf3c
00000190: 06ee 843b bff5 13ba fdbb 323d b05d 14bd
000001a0: 5399 953c 7eec ecbc a69c ce3c be2d b6bd
000001b0: 7581 4b3c a3f1 0d3b 0ec6 a03d 461a 053d
000001c0: 5015 bdbd c0f4 58bc f7f3 b1bd 134a 73bc
000001d0: 7a8d 973d f001 87bd 0a00 a3bd 743d c6bd
000001e0: c188 66bd 243b 59bd 2e63 2bbd e9ff 01bd
000001f0: 241b 60bc 3a99 89bd 97cb 843d 2a6f 5abc
00000200: 422b 473d 3141 813d 74fd d13c 2ee2 a13d
00000210: 6570 a0bd 82c3 51bc 6d61 f1bc 9c51 613d
00000220: c18a 423d 683e 7e3b 2dd5 24bd 5635 813d
00000230: fafe 0d3d ce11 2d3c 4414 a2bd ab24 9ebd
00000240: d7c9 0f3b c932 90bc 542e ff3c c45d 9a3d
00000250: 97f2 bfbd d254 bd3d 73a6 1f3d 5a7e c1bd
00000260: a5d9 153d d97a 033d 9885 b93c 7c96 253d
00000270: 696e 4fbd ef5b 423a 1009 95bd 8ed0 10bc
00000280: 9d0e 973d ec0c c6bd ab2a ef3c 468c 36bd
00000290: 77a0 d3bc 60e8 cbbc 6be7 b4bd 3705 08bd
000002a0: d0c9 14bd 3ece 90bd c171 c7bd 9520 af3d
000002b0: 19ae fa3c f110 8c3d f899 713d c5f8 913d
000002c0: 2d99 99bd 7f37 5f3d d1df b0bc 4da4 9b3c
000002d0: 88c3 a3bd a70c 7dbd 1118 a1bd 455a 983b
000002e0: 7956 fabc cfca b3bd 385d 923d c474 bdbd
000002f0: a517 563d 9d8c 3cbd fedc d4bd 4e77 813d
00000300: cc8f 99bc 79bc a6bd e7b4 a9bd acc7 42bc
00000310: e689 8c3d ec17 67bd 72c1 d5bd ab3b 6a3d
00000320: a99d b9bc 2b19 b1bd 2a32 993d 9be2 b4bd
00000330: 15ff 4abd a043 93bb ce1b d9bd b538 133d
00000340: 084a 563d 5a20 373c 7ed0 6dbd 6beb 07bd
00000350: e854 d8bd 0488 9abd c15c 1d3c cb96 1bbc
00000360: da21 b6bd 38fb a63d 6645 b8bd e506 d8bd
00000370: f2d9 993d e2fc 1cbd 658e 823d 388b a0bd
00000380: 6d19 c4bd 5e42 c1bd c834 8e3d 832b ecbc
00000390: b55b 8e3d 2f96 5bbd 1152 0abd f813 5cb9
000003a0: ec6d 113d 3f61 27bd 8ab7 173d f9d8 843d
000003b0: 4888 923d 36a4 39bd 537e 8cbd 2196 2e3d
000003c0: 4208 ffbc ef89 c6bd db43 663c 40c6 f4bc
000003d0: 5bb9 6e3d e72e 103c 1649 b03d 6abf 67bb
000003e0: c812 aabd bd78 21bd c7e2 223d 0160 8cbc
000003f0: 825b d13c 0330 0f3d 8ffc 9fbc 9ba3 c4bd

bias f4 [50]
-0.10025983 0.0021067974 -0.0076609375 0.12673019 0.06552328 -0.0422406 -0.06342422 -0.04525662
0.03222727 0.079899505 0.035686165 0.011832541 0.081407174 0.009567128 0.06169532 -0.0044648903
-0.055870973 -0.018206775 0.12946829 -0.0477293 -0.044157673 0.032834005 0.095818125 -0.010336763
0.058318537 0.03934712 0.011992188 0.0044628694 0.012294468 -0.09974625 -0.008394185 0.067916185
-0.0634544 0.07819862 -0.045892622 0.023322137 -0.03491503 -0.0055101374 -0.10294694 -0.0023183224
0.065356985 0.06819469 -0.000106124346 0.0023600599 0.060214244 -0.04835129 0.0002784437 -0.09911938
-0.015934302 0.06379676
00000000: 0755 cdbd 3212 0a3b 9a08 fbbb 8fc5 013e
00000010: 1231 863d 7b04 2dbd 8fe4 81bd 015f 39bd
00000020: be00 043d 5aa2 a33d a82b 123d 46dd 413c
00000030: ceb8 a63d 71bf 1c3c 3bb4 7c3d 374e 92bb
00000040: f6d8 64bd 6026 95bc 5693 043e cc7f 43bd
00000050: adde 34bd f37c 063d 4b3c c43d 875b 29bc
00000060: 6bdf 6e3d 722a 213d e27a 443c 433d 923b
00000070: bc6e 493c c347 ccbd c487 09bc a417 8b3d
00000080: 61f4 81bd 9926 a03d e7f9 3bbd 110e bf3c
00000090: 1003 0fbd 628e b4bb d8d5 d2bd ffee 17bb
000000a0: e2d9 853d a8a9 8b3d 138f deb8 3cab 1a3b
000000b0: 36a3 763d 010c 46bd 15fc 9139 1aff cabd
000000c0: a788 82bc e0a7 823d

weight f4 [1, 50]
0.1112469 0.011162667 0.08534059 -0.10908108 -0.1163269 -0.07697595 -0.14078164 0.12478731
0.03855126 0.061099764 -0.11560048 0.03129541 -0.09549006 0.113631845 0.0016879829 0.096741244
0.07427311 -0.054783642 -0.1162107 0.085809946 0.06602922 -0.07261659 -0.15627837 -0.12217729
-0.040749867 0.11494177 0.058867477 0.03499531 0.050921954 0.041201923 -0.110275775 0.10194224
-0.073589906 -0.08404279 0.04227711 0.115840994 -0.05222236 -0.07584705 0.10125206 -0.0481965
0.07216609 -0.16455366 -0.124643296 -0.12023468 0.007352158 0.012239363 -0.1405171 0.065160796
0.1023108 -0.13089724
00000000: 6ad5 e33d 9ee3 363c 0cc7 ae3d e765 dfbd
00000010: cc3c eebd 91a5 9dbd 1029 10be 7d90 ff3d
00000020: ede7 1d3d bf43 7a3d f2bf ecbd 9e2f 003d
00000030: 4b90 c3bd d0b7 e83d 4f3f dd3a 4620 c63d
00000040: 801c 983d d064 60bd e0ff edbd 20bd af3d
00000050: 543a 873d 02b8 94bd 7007 20be 1638 fabd
00000060: 55e9 26bd 9766 eb3d 061f 713d 3e57 0f3d
00000070: 8a93 503d 59c3 283d 44d8 e1bd 18c7 d03d
00000080: 4eb6 96bd a01e acbd c32a 2d3d 0b3e ed3d
00000090: 1de7 55bd b355 9bbd 3d5d cf3d b169 45bd
000000a0: d1cb 933d c180 28be fc44 ffbd 9a3d f6bd
000000b0: 5fea f03b 9c87 483c b7e3 0fbe 0673 853d
000000c0: 5388 d13d ed09 06be
