client/model.pth (torch, 74932 bytes, 5 tensors)

weight f4 [100, 125]
000000 76 6a 37 3d 3d 3b 42 bd f9 83 0b 3d 36 51 1b 3d
       0.044779263 -0.047419775 0.034061406 0.037919246
000010 4f 6c 7d bc 54 e4 81 3d 1b 2d 06 bd 68 1c 2c bc
       -0.015467717 0.06342378 -0.03275786 -0.010504819
000020 b1 54 8b 3d 97 36 6c 3d 7f c5 bd bc 2c 89 06 3d
       0.06803263 0.05766925 -0.023165463 0.03284566
000030 34 60 25 bd 03 7c 7a 3d 20 53 29 bd d2 5d 02 3d
       -0.04037495 0.061153423 -0.04133904 0.031827755
000040 fa 99 dc 3c 01 44 82 bd 91 58 64 bd af 66 30 3d
       0.02692889 -0.06360627 -0.055748526 0.043066677
000050 3c 8b 21 3d 8b 3d 9e 3d c4 39 20 bd 31 b3 1b 3d
       0.039439425 0.07726582 -0.03911759 0.038012687
000060 b0 ec 8f 3d 87 73 31 bd 6b 56 9a 3c fc a9 33 3d
       0.070275664 -0.043323066 0.018840035 0.04386328
000070 a4 73 e9 3c 23 1f 87 3d 78 f3 df bc ea 26 5d b9
       0.028497525 0.06597736 -0.027337775 -0.00021090699
000080 47 b1 2e bc 40 70 b2 3d 4f ae 0c bc ac 9e 83 3a
       -0.010662383 0.08712816 -0.00858648 0.0010041795
000090 4e 49 6a bd be 02 a8 3c c6 c6 9b bd 79 f9 49 3d
       -0.057198815 0.02050912 -0.076062724 0.04931018
0000a0 2b bc 8d 3c 44 89 bc 3d d3 76 2b bd cf a8 10 bd
       0.01730164 0.09205869 -0.041861366 -0.03531724
0000b0 e1 e9 1c 3d 7d 1c 8b bd 12 8f 84 3d 19 33 f2 3c
       0.03830898 -0.06792543 0.06472601 0.02956538
0000c0 95 8c a0 3c 2e a0 a0 3d 24 c4 e6 bc 8c 07 fb 3c
       0.019598285 0.07843052 -0.028169699 0.030643247
0000d0 d9 24 5a 3b 51 1a 1e bd fc c5 87 bd 0a bb 88 3d
       0.0033286123 -0.038599316 -0.066295594 0.066763
0000e0 82 62 88 3b 7c a2 96 bd 67 62 a1 3b 9b 3b 71 3d
       0.0041621337 -0.0735521 0.0049250606 0.058894735
0000f0 9f 10 c3 3b 0e b1 16 3d 6e d1 80 bd 00 1b c2 3c
       0.005952909 0.036789946 -0.062899455 0.023694515
000100 6f 67 92 bd fa c2 a7 bd 42 d7 d6 3b ba a8 b0 3d
       -0.07148635 -0.08191486 0.0065564224 0.08625932
000110 96 50 3e bd a2 92 9d bd 4d a0 c7 bc 3a 5f 56 3d
       -0.04646357 -0.076939836 -0.02436843 0.05233691
000120 b9 fb 86 3a 92 7e a0 bd 4b 42 56 bd 25 af a9 bd
       0.0010298408 -0.07836641 -0.052309316 -0.08285359
000130 e2 81 35 3c 5b 5a 7b 3d 7b 01 75 3d 68 f2 64 3d
       0.01107833 0.061365467 0.059815865 0.05589524
000140 f5 8e 2c bd 70 af e5 bb cd e2 03 3c 41 8e 1a 3c
       -0.042128522 -0.007009439 0.008049679 0.00943333
000150 cf b6 0e 3c 2a 26 90 bd 74 aa 00 3d 35 b4 7a 3d
       0.008710577 -0.07038529 0.031412557 0.061207015
000160 86 30 a1 bd d4 36 0a 3d 3d 9c 73 3d f8 b5 5a 3d
       -0.07870583 0.033743694 0.059475172 0.053396195
000170 2b 23 cd 3c 21 96 5f bd 0a 42 7d 3d 83 e6 aa bd
       0.025041183 -0.054586533 0.061830558 -0.08344748
000180 b4 cf 14 bc 8f 10 31 3d 64 eb 39 bd cc 35 2b 3c
       -0.009082723 0.043228682 -0.0453905 0.010449838
000190 ff 0e b4 3d 16 25 d7 3c cc 2f 21 b9 c4 9b eb 3b
       0.08791923 0.026262801 -0.00015371962 0.0071901996
0001a0 0c c1 8e bd 01 32 99 bd 26 06 f0 3c 85 b6 ac 3d
       -0.069704145 -0.074802406 0.029299807 0.0843325
0001b0 a4 db 3f 3d b4 5f 94 3d 6f 9d af 3d 33 03 1b bd
       0.046840325 0.072448164 0.0857495 -0.037844848
0001c0 db eb 6a 3d 13 20 9f 3c 45 82 ce bc a8 a7 2c 3d
       0.057353836 0.019424474 -0.025208602 0.042152077
0001d0 36 08 8f 3d 1e d2 91 3d e6 5d bb 3c f2 f2 65 bb
       0.06983988 0.07120155 0.022871923 -0.0035087434
0001e0 61 51 24 bd 9b c6 01 bc d1 cd 8d bd 43 c1 4e bd
       -0.04011667 -0.007920886 -0.06924022 -0.050477277
0001f0 63 df 39 3c e6 ab a5 bd e9 12 50 bd b5 84 04 3d
       0.011344763 -0.08089428 -0.050799284 0.03235312
000200 ea b7 9e 3d 97 3f 39 3d 38 63 b4 3d 89 2c 99 3d
       0.077499226 0.04522666 0.08807987 0.074791975
000210 60 be 05 3d 53 59 2c bd 04 a7 2b 3d 6d f7 93 3d
       0.03265226 -0.042077374 0.041907325 0.07224927
000220 1d 21 3d bd e6 d9 98 bd 67 b8 ab 3d a3 ea 69 3d
       -0.046174157 -0.07463436 0.08384781 0.057108533
000230 95 6f 23 3d 20 9e 65 3b d1 41 ac bc 8b 4d ea bc
       0.039901335 0.0035036877 -0.021027477 -0.028601428
000240 de c7 9c bd 91 eb d0 bb 12 2f a9 bd 88 f8 6e 3c
       -0.07655309 -0.006375738 -0.08260931 0.014585622
000250 56 6a b8 bd 24 da 2d bd 39 17 9d 3d 74 38 95 3d
       -0.09004657 -0.042444363 0.07670445 0.07286158
000260 60 ef f6 bb ca 98 4e 3d 97 f4 ae 3d 96 c3 97 3b
       -0.00753586 0.05043868 0.085427456 0.00463147
000270 b7 7d 24 3c 5b 0c 9c bd b9 dd aa bc f5 10 a9 bd
       0.010039738 -0.07619544 -0.020857679 -0.082551874
000280 da 69 ad bd 3b e9 83 3d f2 46 49 3b 20 fc 24 3c
       -0.08467455 0.064409696 0.0030712453 0.010069877
000290 4d 8a 06 3c 75 30 e4 bc a5 ad bb bc 78 47 48 bd
       0.008211684 -0.027855137 -0.022909949 -0.048896283
0002a0 7f 50 4a 3d da 65 87 3d 6c b3 a1 bc e3 19 2d bd
       0.049393173 0.066112235 -0.019738875 -0.042261016
0002b0 f2 72 49 bc d8 90 75 bd 5e e2 76 3d 3c 55 a4 bc
       -0.0122954715 -0.059952587 0.060274474 -0.020060174
0002c0 38 87 8f 3d ed 21 60 3d fd 79 90 bd bb c8 69 bd
       0.07008213 0.054719854 -0.070545174 -0.057076197
0002d0 eb 12 fe 3c 23 6c 95 bd cd a0 3e bc a4 22 fb bc
       0.03101488 -0.07296016 -0.011635018 -0.030656166
0002e0 59 31 b9 bd 60 5f 85 bd 76 cb df 3b 2e 6b 2e bc
       -0.090426154 -0.06512332 0.0068296744 -0.010645671
0002f0 8c 6a bf bb 7b 95 9f bc af 7a 53 3c 01 4c df bc
       -0.005841559 -0.019480458 0.012907668 -0.027257921
000300 a0 16 16 3c a9 1b 0b bc 73 fc 10 bd 81 79 0d 3c
       0.009160668 -0.008490481 -0.035397004 0.008634926
000310 a7 af 93 3d 7d 7f a0 bd d8 b8 9f 3d cd 7a 21 bd
       0.072112374 -0.078368165 0.07798928 -0.039423753
000320 11 88 9e bd ad 20 7a bc 48 89 b4 bd 72 98 03 bd
       -0.07740796 -0.01526658 -0.08815247 -0.032127805
000330 2d 8b 23 3d aa 3a 8c 3d 9d b0 a8 bd 01 5f 8d bd
       0.03992765 0.06847127 -0.08236811 -0.06902886
000340 00 02 3f bc 47 cf b5 bc a5 50 9b bc 55 b8 71 bd
       -0.011658192 -0.022193564 -0.018959353 -0.059013683
000350 5f 53 36 3d 9b 13 7c bd 30 b5 a6 bd f2 b7 01 bd
       0.044513103 -0.061542135 -0.081400275 -0.031669565
000360 c1 08 8b 3c a8 b7 80 3c 2d 4b 90 3b 06 ec 27 bd
       0.016971948 0.015712574 0.004403493 -0.040996574
000370 cd 8f 50 3d 7e b5 bf 3b fb 3e 96 3d 14 21 94 bd
       0.05091839 0.005850493 0.07336231 -0.07232872
000380 fe 25 35 bb a8 48 12 bd 75 07 04 3d 39 4b 88 3d
       -0.0027641053 -0.03571382 0.032233674 0.066549726
000390 19 7d e1 bb f6 78 3d bd 97 d2 6e 3d 7b 77 43 3d
       -0.006881368 -0.046257935 0.058306303 0.047721367
0003a0 ae d2 aa 3d 9e b8 96 bd 58 46 74 3d 8f 23 6d bd
       0.08340965 -0.07359432 0.059637398 -0.05789524
0003b0 31 c5 3e bd c9 3c e0 bc e3 63 a9 3b 4d 9f 0b 3d
       -0.046574775 -0.027372735 0.005169378 0.034087468
0003c0 3a 20 9c bc d8 cf 7e bb 3f bf 89 bc 59 b7 63 bd
       -0.019058336 -0.0038881209 -0.016814826 -0.055594776
0003d0 6a 23 17 3d 6e 39 8e 3d cd 8f 6b bd a0 5d 9a 3d
       0.036899008 0.069445476 -0.057510186 0.07537389
0003e0 b7 e5 98 bd 65 44 35 bd ba dd 37 3d 32 16 99 bd
       -0.0746569 -0.04425468 0.04488919 -0.074749365
0003f0 58 85 17 bc 98 83 39 bd 79 a7 6d 3d 2b ed 9c bd
       -0.0092481 -0.045291513 0.058021042 -0.07662424

bias f4 [100]
000000 00 c3 cd bd 8f 53 f6 3c d7 c5 32 3d b6 a7 50 bb
       -0.10046959 0.03006914 0.043645706 -0.0031838245
000010 6a 82 c0 bc b3 3f 59 3b 6c 11 53 bd 50 27 45 bd
       -0.023499686 0.003314954 -0.051530287 -0.048133194
000020 9c 1f a4 3d 75 3e 0b 3c 5a fa 89 3d e4 fb 97 3d
       0.080138415 0.008498778 0.06737204 0.07421091
000030 91 a0 a1 3b ef b6 9a 3d aa 3f 90 bd 9c 57 36 bd
       0.004932471 0.07554423 -0.07043393 -0.044517145
000040 8a ae b4 bc a4 eb 88 bd 22 9d c2 3c a9 a9 86 bd
       -0.022055883 -0.0668557 0.023756567 -0.06575329
000050 3e 8e 18 bc a7 b7 48 bd cd c9 6d bd 74 c7 a1 bd
       -0.009311257 -0.04900327 -0.05805378 -0.07899371
000060 81 39 bd bd 80 2e 07 bc 4a 4d c7 3d dc 44 99 3d
       -0.092394836 -0.008250833 0.097315386 0.07483837
000070 cb 45 92 3c 01 e6 88 bc e1 e6 cc 3d 8a fe 7c bd
       0.017855546 -0.016711237 0.10004974 -0.061766185
000080 7c 6f 8e 3d 22 6f ea 3c b1 d4 81 bc 17 d3 c1 bc
       0.06954858 0.028617445 -0.01584849 -0.023660226
000090 93 da 55 bd 52 9d bd 3d 94 60 5e bd eb 3e fa 3c
       -0.0522104 0.09258522 -0.054291323 0.03054758
0000a0 58 1c 2f 3d 6f da 12 bd 36 d4 c5 3d 00 9e 82 bd
       0.04275164 -0.035852846 0.09659617 -0.06377792
0000b0 60 de bd bd a8 c6 1a bd ab 40 22 bd 77 ed a2 3d
       -0.0927093 -0.03778711 -0.039612453 0.07955449
0000c0 0d 4d 3c 3d 6e b6 81 3d 66 02 d9 bc 5d 01 7a bd
       0.04597192 0.06333624 -0.026490401 -0.061036456
0000d0 52 f0 ab bc 80 09 07 3d 77 cc b0 3d 97 01 9b 3c
       -0.020988617 0.032968044 0.086327486 0.018921657
0000e0 a8 bf 9f bc bf 81 3a 3d ba 27 9b 3c c6 dd 8e bd
       -0.019500569 0.04553389 0.018939842 -0.06975894
0000f0 75 ce a2 ba 03 22 8b 3c 8f 63 98 3d fe 1e 09 bd
       -0.0012421148 0.016983991 0.07440864 -0.033476822
000100 c8 de ea 3c 43 4f 5a 3d fb 99 e8 bb 06 12 52 3d
       0.028670684 0.053298246 -0.007098434 0.05128672
000110 a8 75 d8 3c 39 fa a7 bc bd d8 0e 3c 8f a3 2c 3d
       0.02642329 -0.020505058 0.008718667 0.04214817
000120 d7 a1 11 3b 18 a7 f6 bb d7 3b 21 bc 07 8d 9b bd
       0.0022221708 -0.0075272433 -0.009840927 -0.07595258
000130 74 a0 1f 3d 82 67 f5 bc fc 34 0c bd 3c a9 69 bd
       0.03897138 -0.029956583 -0.034230217 -0.05704616
000140 02 01 6e bd 79 3b 75 3d 57 0a 02 bd 69 ef 47 bd
       -0.05810643 0.05987117 -0.031748142 -0.048812304
000150 df 0d 94 3c 31 e8 fd 3c 4c 55 3e 3d 50 94 83 bd
       0.01807302 0.030994507 0.046468064 -0.06424773
000160 6d 72 8f 3d 5a 68 bb ba 0b 80 95 3d 24 e1 f5 bb
       0.07004247 -0.0014298067 0.07299813 -0.0075036455
000170 eb a5 81 bd 31 83 a5 3d 68 34 6e bd 04 cc 95 3d
       -0.063304745 0.080816634 -0.058155447 0.073143035
000180 a5 32 8b bd 63 62 49 3d 39 0d 3a 3a d1 b2 11 3d
       -0.06796769 0.049166095 0.0007097307 0.035570923

weight f4 [50, 100]
000000 c5 69 62 bd 82 10 d0 3d 5b 56 d3 3d 66 e6 2c 3c
       -0.05527665 0.101593986 0.103192054 0.010552978
000010 92 ed 1d bd 05 be 8a bd bc 32 aa bd 66 ac c1 3d
       -0.038556643 -0.067745246 -0.08310458 0.094567105
000020 ac e4 a8 3d fd 76 a9 bd 69 26 96 bd b1 36 d1 bc
       0.08246741 -0.08274648 -0.07331545 -0.025538774
000030 14 26 a3 3b c5 61 cb 3d ba 02 36 3d 43 4e 88 bd
       0.0049789045 0.099307574 0.044436194 -0.06655552
000040 af a5 80 3c 61 62 15 bc 9e 03 0d 3d 48 19 82 bd
       0.015704004 -0.009117694 0.034427278 -0.06352478
000050 4d 85 ac 3d ed cd 9c bb f8 c1 9a bd 85 5f 94 bd
       0.084238626 -0.0047852905 -0.07556528 -0.072447814
000060 97 b8 ee bc 8a 96 b8 3d e0 8e b3 3d a9 8e 2a 3d
       -0.029140754 0.09013088 0.087674856 0.041639958
000070 4f b7 50 bd 69 72 03 3c 65 75 4a bd 2f e1 96 3d
       -0.050956067 0.008022883 -0.049428362 0.07367169
000080 77 98 ee bc 20 16 37 3d f2 3b b8 3d c5 fd 85 3d
       -0.029125435 0.044698834 0.08995809 0.06542543
000090 3c 94 93 3d 51 22 4d 3d 8d a7 8d bc 92 d8 a8 bd
       0.07206008 0.050081555 -0.017291809 -0.082444325
0000a0 c6 d6 b8 3b cb 74 a7 3d 13 16 01 bd fe 9d 5e 3d
       0.0056408374 0.08176573 -0.031515192 0.05434989
0000b0 81 5b 9b bd f6 15 16 3d e2 54 07 3c 7a d2 d1 3d
       -0.07585812 0.036642037 0.008259984 0.10245223
0000c0 ba 5f 49 3d 47 d8 41 3d 44 d3 76 bc 4d 42 36 3c
       0.049163558 0.0473254 -0.015065018 0.011124206
0000d0 82 bf 8a bd 9f 98 3b ba ab 09 d4 3d 2f d9 be 3d
       -0.067748085 -0.0007156226 0.103534065 0.09318768
0000e0 44 6b ac 3c d6 71 95 bc 5b 25 1e bd 0b 7c a8 3d
       0.021047242 -0.018242758 -0.038609844 0.08226784
0000f0 f7 54 ae 3d 82 c9 62 bd 77 f4 8c bd 83 e2 67 3d
       0.085122995 -0.055367954 -0.068825655 0.056612503
000100 d1 4f d8 3b 7a 02 af 3d 6c a7 4a bd 5f b1 e7 bc
       0.0066013117 0.08545394 -0.049476072 -0.02828282
000110 d4 36 a0 3d 5f 43 9d bd 70 75 b5 3d 10 0f 3c bd
       0.07822958 -0.07678866 0.0886029 -0.045912802
000120 41 4e cb 3d 87 9d 81 3d 65 3c b0 3c de 13 f0 ba
       0.09927035 0.06328874 0.021513173 -0.0018316468
000130 2f 2d 86 bd df 84 cb bc 2b df 90 bd 1c 8b 9e bd
       -0.06551587 -0.024843631 -0.07073816 -0.07741377
000140 76 75 2d bd 8d b0 79 3d 56 0f 6f 3a 40 3f ce 3c
       -0.042348348 0.060959388 0.00091194117 0.025176644
000150 8d ce 7e bc ae c9 bc bc 46 25 d9 3d 41 fa 34 3d
       -0.015552175 -0.023045387 0.106028125 0.044183973
000160 fe 0f b0 bc 92 f4 c2 bc 9e aa 21 3b d8 db f4 3b
       -0.021492 -0.02379826 0.0024668346 0.0074724965
000170 4b e6 a9 bd 82 4c 08 3c 17 45 c4 3d 13 e6 41 3c
       -0.08295878 0.008319022 0.0958349 0.011834639
000180 6b a7 e0 3d 35 d0 c2 bc 1f 03 b5 3d 5c 78 98 bd
       0.109694324 -0.023780921 0.08838486 -0.07444832
000190 ba d1 92 3d 50 41 2e 3d dd 90 c2 bb 63 56 10 3a
       0.071689084 0.042542756 -0.005937679 0.00055060367
0001a0 d8 02 10 3d b1 52 42 bd 1e 9d 22 bd 00 85 98 3d
       0.035158962 -0.047442142 -0.03970062 0.07447243
0001b0 01 9c 98 3c 72 52 a2 bd a1 dd 8b 3d a8 bc 63 bc
       0.018629076 -0.079258814 0.06829382 -0.01389996
0001c0 94 48 8e 3d 3f 88 04 bd c8 c0 08 3d 5f 13 fc bb
       0.06947437 -0.032356497 0.033386976 -0.007692739
0001d0 12 f5 f9 bc cb a1 24 bd e9 6d 19 bd 04 fa a5 bb
       -0.030512366 -0.04019336 -0.037458334 -0.0050652046
0001e0 6a 45 25 bc f2 23 34 bd 27 56 4a 3d ff ac 60 bd
       -0.01008735 -0.043979593 0.049398568 -0.054852482
0001f0 45 bd 50 bd 71 45 96 3c 55 b7 73 bd 23 e5 40 bd
       -0.05096175 0.01834366 -0.05950101 -0.04709352
000200 a7 9f b7 3d 33 4a 53 bd 0c 95 50 3c 3f 5b 1c bd
       0.08965998 -0.051584434 0.012730848 -0.038172957
000210 0f ec 5f bd 9e 0f 1b bd 1b 75 e2 3d 34 03 12 3d
       -0.054668482 -0.03785669 0.11057492 0.035647586
000220 fd f7 9c bd 49 d6 c1 3d a9 94 d6 3a 88 e1 51 3b
       -0.076644875 0.094647 0.0016371208 0.0032025296
000230 3f a0 71 3d 17 a5 01 bd 82 45 31 bd b4 35 85 3d
       0.058990713 -0.031651583 -0.04327918 0.06504384
000240 61 a8 b1 3b 17 c6 52 bd 15 f1 af 3d 5d 2c d4 3d
       0.0054216837 -0.051458444 0.085909046 0.10360024
000250 f8 6c 93 3d 10 3b cd 3d b4 2d e7 bc ed 6d d3 3c
       0.071985185 0.10021031 -0.028220035 0.025809253
000260 5e 56 4c 3d 4b 5c 83 3d e3 6d 84 bc 13 43 35 3d
       0.049887054 0.06414088 -0.01616568 0.04425342
000270 f2 2d 96 3d 8c 73 73 3c 2d f6 65 bd 8f 2d a5 bc
       0.07332982 0.0148590915 -0.056142975 -0.020163326
000280 94 d2 53 bc 62 e7 a0 bd 79 67 94 3d e3 d6 6c 3d
       -0.012928624 -0.07856633 0.07246298 0.05782212
000290 2c d3 ac bd 1f fb e1 3c 9c 4c 08 bc 07 00 96 bd
       -0.08438715 0.027585564 -0.008319046 -0.07324224
0002a0 2c 06 55 bd 93 ee fc 3c 44 ba 02 3c d5 a9 17 bc
       -0.05200784 0.03087548 0.0079789795 -0.0092568
0002b0 63 83 87 bd a9 db 8b 3d 22 de ca 3d be 40 70 bd
       -0.06616857 0.06829006 0.0990565 -0.058655493
0002c0 c2 c2 59 3d e6 68 59 3c 6d d9 9e bd f8 c8 8f bd
       0.05316425 0.013269639 -0.077563144 -0.070207536
0002d0 ea 55 db 3c 3a c1 2f bd 6a b9 9d 3d 49 1a d6 3d
       0.026774365 -0.042908885 0.077013806 0.10454232
0002e0 16 be c0 3d e0 ac 7a bd 2e 76 cb 3d 4d a2 5f bd
       0.09411256 -0.061200023 0.0993465 -0.05459814
0002f0 8b b6 2a 3d 84 9c 31 3c d5 81 7d 3d f1 7a ca 3d
       0.041677993 0.010840539 0.061891396 0.098867305
000300 5d 35 11 bd b1 a2 f1 bc 87 b2 d6 3d b0 97 e1 bc
       -0.03545128 -0.029496523 0.1048327 -0.02753815
000310 33 78 58 bd 88 05 fb bc 1f fe a3 3d 60 f2 4a 3d
       -0.052849006 -0.030642286 0.08007454 0.049547553
000320 c0 81 8c bd 56 07 09 bc 5d c2 b2 3c 42 45 5d bd
       -0.06860685 -0.008363565 0.021821195 -0.054021128
000330 82 6e ce 3c b9 c8 04 3b 7c ee b0 3b f6 92 af bd
       0.025199179 0.0020261242 0.0053995233 -0.085729524
000340 36 b1 a5 bd f2 35 b4 3c d1 a3 9b 3d c6 c7 4c 3d
       -0.08090441 0.02199838 0.07599605 0.049995206
000350 48 75 8c 3c ca 2b 87 3d 83 b4 8c bd 8e 60 0f 3d
       0.017145768 0.06600149 -0.068703674 0.03500419
000360 74 b2 07 bd 85 4f 0f bd 5b d5 19 3d 16 c2 66 3d
       -0.03312917 -0.034987945 0.037556987 0.05633744
000370 9d 25 a8 3d 7b 0c a6 3d 0c de 5c 3c b6 78 d2 bd
       0.08210299 0.08107849 0.0134806745 -0.1027693
000380 b0 21 91 3d ed f0 ac bd 66 30 08 3d 04 00 bb bc
       0.070865035 -0.084443904 0.03324928 -0.022827156
000390 88 7d 82 3c 69 82 e7 bc c9 c0 38 bd c9 ae 69 bd
       0.015928999 -0.028260427 -0.04510573 -0.057051454
0003a0 84 44 8b 3d 17 7d 88 bd 02 90 11 3d 78 14 15 3d
       0.06800178 -0.06664484 0.035537727 0.036396474
0003b0 16 46 4a bd 71 d8 24 bc 33 e0 d5 bc 15 31 a1 3d
       -0.049383245 -0.010061369 -0.026107883 0.0787069
0003c0 93 3b b7 3d c9 3d b1 bb 23 14 4d bd 60 66 ad 3d
       0.0894691 -0.0054089767 -0.050068032 0.08466792
0003d0 42 83 a1 3d bc dc a0 3d 95 c5 dd 3a 3d 04 c3 bd
       0.078863636 0.07854602 0.0016919846 -0.09522293
0003e0 0f cc 90 bd e6 63 b4 3c 6c e8 88 3d 14 62 95 3d
       -0.07070171 0.022020292 0.06684956 0.072940975
0003f0 e9 70 34 bd 6e 73 19 3d 46 00 58 bd 25 11 8f 3d
       -0.044052992 0.037463598 -0.052734636 0.06985692

bias f4 [50]
000000 b2 0b 86 3d e2 fc 8f bd 43 f3 a4 3c 28 96 f0 bb
       0.065451995 -0.070306554 0.020135527 -0.007342119
000010 8e ea 33 bc 12 4b 4b 3d f9 c5 a4 bd 9d d5 0f bd
       -0.010981215 0.04963214 -0.08045573 -0.035115827
000020 aa 13 b6 bc 03 71 99 3d 37 2a e3 bc 79 30 c6 3c
       -0.022226173 0.074922584 -0.02773009 0.024193035
000030 e2 de d4 bc 55 e3 03 bd 4e a1 d7 3d 7d 93 59 3d
       -0.025985185 -0.032199223 0.10528813 0.05311917
000040 f2 92 c4 3d c9 28 80 bc 01 bd f9 bc 61 19 aa bb
       0.0959834 -0.015644448 -0.030485632 -0.0051910137
000050 74 84 ac bd 66 77 27 bd c2 2c 88 bd b9 aa 8c 3d
       -0.08423701 -0.04088535 -0.06649162 0.068685
000060 23 52 91 bd 30 03 1e bd 6c 92 61 3d 8d 48 cf bc
       -0.070957445 -0.03857726 0.05507128 -0.02530315
000070 18 d2 b4 3c 26 00 8b 3d 30 84 ad bd cc 1e 52 3c
       0.022072837 0.06787138 -0.084724784 0.012824725
000080 78 b9 39 3c b5 e4 16 bd f7 1b b0 bd 29 ec 90 bd
       0.011335723 -0.036839206 -0.08599084 -0.07076294
000090 4c f0 b0 bc d6 60 bb bc ee d1 55 bd 8c 54 1f 3d
       -0.021598957 -0.022873323 -0.052202158 0.03889899
0000a0 37 e6 74 bd 65 fc b8 bc 97 d0 0e 3d a1 c5 a6 3d
       -0.059789862 -0.022581289 0.034866896 0.081431635
0000b0 3a 16 0f bc 9c b0 b1 3d b4 07 8e 3d be bf 6e bd
       -0.008733327 0.08676264 0.06935063 -0.05828833
0000c0 29 85 a3 bd f3 e0 9a bd
       -0.07984383 -0.07562437

weight f4 [1, 50]
000000 14 45 b8 bd ff 92 13 bd f5 c8 b4 3d 6b c1 13 be
       -0.089975506 -0.03602886 0.08827392 -0.14429252
000010 41 05 81 bd bc 4a 95 bd 2a b3 e5 bd 2d 80 72 bd
       -0.0629983 -0.07289645 -0.112158135 -0.05920427
000020 3d 5a c7 bd 90 23 cf 3d b0 f1 a2 bd 51 d0 5a 3d
       -0.097340085 0.10114205 -0.079562545 0.053421322
000030 0e 80 69 bd c7 74 14 be 21 f5 37 bd 27 cb e3 bd
       -0.057006888 -0.14497672 -0.044911508 -0.111227326
000040 88 51 31 bd 2d a3 f1 bd 40 be d0 bc 5f 58 79 bd
       -0.043290645 -0.117987014 -0.025481343 -0.060875293
000050 e5 e4 2f bd 41 07 10 be 3f b5 f1 bd e7 85 9c 3d
       -0.0429429 -0.14065267 -0.11802148 0.07642727
000060 c3 b9 07 be 92 25 6d 3d f7 14 96 bd 51 a1 e9 3d
       -0.13254456 0.057897158 -0.073282175 0.11407722
000070 c4 24 bb 3b 67 b5 0b be 28 66 aa 3d 9a 19 6e 3d
       0.00571117 -0.13643418 0.08320266 0.058129884
000080 f7 56 fb bd 43 ea 21 3d 24 b0 c9 3c 6d 98 08 be
       -0.122724466 0.03953005 0.024620123 -0.13339396
000090 16 05 6d bd d8 38 ad bc e1 b3 12 be 97 e6 6e bc
       -0.05786618 -0.02114527 -0.14326431 -0.014581344
0000a0 6f e8 af bd b0 a3 e6 bd d8 61 af bc 39 bd 29 bc
       -0.08589255 -0.1126169 -0.02140896 -0.010360056
0000b0 91 49 d8 bd d6 5d b1 3b be 6d 4b bc c0 a3 bb 3d
       -0.10560907 0.0054127974 -0.012416301 0.09162092
0000c0 ad 01 04 3e 20 49 7a 3a
       0.12891264 0.00095476396
